examples/silicon/tutorial_v2.2/ref_ckpt/mix.md100.pth (torch, 455664 bytes, 63 tensors)

nnenv.embedding.descriptor.embedding_net.layers.0.layer.in_layer.weight f4 [10, 3]
00000000: 250b 0bbf e4e5 173f ad4d ecbd 3aac 93bd
00000010: 2292 64be c8f7 ecbe 305d d0be ec8b e43e
00000020: f425 abbd 6dff efbd 1886 25be 8525 013f
00000030: 38c6 48be f334 fd3e f951 0fbf 9079 6f3e
00000040: 91d8 ed3e 9011 f43e a3ec 0e3f 8d95 cebe
00000050: f1a1 d03e 23b9 a1bb 3f9b 083f 9da8 3e3d
00000060: 9a30 aabe 6cd7 673e c70b 6ebe 983b 633d
00000070: 6626 a8be 9af1 633e
-0.5431388 0.5933516 -0.11538253 -0.07210584 -0.2232137 -0.46282792 -0.40696096 0.44638002
-0.08356848 -0.117186405 -0.16164434 0.50447875 -0.19606864 0.4945446 -0.55984455 0.23386216
0.4645429 0.4766965 0.5582983 -0.40348473 0.4074855 -0.0049354 0.53361887 0.04654752
-0.33240205 0.2264077 -0.2324668 0.055476755 -0.32841796 0.22260132

nnenv.embedding.descriptor.embedding_net.layers.0.layer.in_layer.bias f4 [10]
00000000: 8a48 cd3e 5697 aabe a9b6 833d a34e 723e
00000010: 3659 88be b87f f33e 1fc8 49be 7363 cdbe
00000020: 6369 1cbf a153 d5be
0.40094405 -0.33318585 0.06431324 0.2366281 -0.26630563 0.4755838 -0.19705246 -0.40114936
-0.6109831 -0.41665366

nnenv.embedding.descriptor.embedding_net.layers.0.layer.out_layer.weight f4 [20, 10]
00000000: d713 98be a008 603e e4ce 8ebe b849 5abe
00000010: ebb3 e23d 5381 333e d62a 8e3e ee14 eebd
00000020: 7237 ef3d 88d3 0d3e 396c ac3e b835 70be
00000030: 2a0c 33be c763 d03b 99ef 29be 3b94 43be
00000040: 53e4 8b3e 994f e4bd 25d6 01be bbdc aebe
00000050: 6509 523c 5092 463d 2596 de3d 8246 2dbe
00000060: bb71 373e 900f 5d3d 510e 52bc e793 a8be
00000070: 93a1 8e3e a9c5 133e 303a 873e fa2c acbe
00000080: f82c bb3d e594 583e f50d 823e e6ca 50be
00000090: db42 b8bd e5d3 c1bd 43cc 123e 0362 eabd
000000a0: 2f34 cd3d 9111 eebd 3e7a 423e efd8 72be
000000b0: fcb6 313d 7c03 9abe f8dc a3bd 1148 953d
000000c0: d8bb 53be 1ac5 143e 02ef d83d d718 e0bd
000000d0: 31b0 99bd 4b79 45be ae6d 79be b940 a63e
000000e0: 80a0 40be a0b9 5f3e fa30 d83d 91c7 8ebe
000000f0: 28c1 993e 1f25 5e3e 5e29 323c ff8c 82bd
00000100: 0b99 773e eb8f 70bd adf9 1e3e 909e 543d
00000110: 09d1 98be d8e4 84be 0b6f 373e f00d a4be
00000120: 32ab d0bd 8c78 bb3d cc2d 96be 4001 193e
00000130: 5573 ad3e 8f21 163e 58db ef3d 4549 413d
00000140: f327 de3d 59b8 8cbe bc2f 8abd 1b91 7d3e
00000150: ffa8 983c 6071 283e 2591 1c3d b30d 4f3e
00000160: 849d 87be 6410 6e3e 17d8 c1bd 2ef2 10be
00000170: fa04 06bd 8673 613e bed8 26be 530d 24be
00000180: 50e6 d03e c632 393e c329 a0bd c345 59be
00000190: 8a4d b33c 95f1 243e 827a aebe 0c7d c93d
000001a0: f244 563e 8769 68be b1d5 083e 409b d9bd
000001b0: 2b89 7cbe 02b1 12be 9a01 76bd 6d1d 48be
000001c0: 33e0 b2bd 51b8 9a3d b4bb 51be bf1c 7e3e
000001d0: 38a6 913d 0108 a13c 4941 8cbe de33 d1bd
000001e0: f555 6c3c 8471 5ebd 7342 c23c 8b53 833e
000001f0: d54f 28be aa73 8b3e 6c9f 3a3d bdb1 4cbe
00000200: d601 573e 8fb8 e2bc d9e6 3b3e 17fa a43c
00000210: d9d2 723e fd9f b0be ac3d 3bbe c2c3 7d3e
00000220: 1400 c03d 4253 05be 385f c63d e3fd 923e
00000230: d5c3 4dbd 88c4 89be 8a23 a93c 8377 2e3e
00000240: d6d6 543e 2a46 943d 2731 78bd 59cc 263e
00000250: f96b 48be a650 c4be b735 18be 0f34 d8bd
00000260: 16f4 363e e87f bbbe fba6 44be cf2f 4c3e
00000270: f804 d4be db7a 37bd ff2b ac3e c8c6 d7bd
00000280: cc32 973e 6e80 1b3c 4092 903e 05fa f93d
00000290: aa68 50be 48fa 84be b390 bebe d423 f43d
000002a0: e3ee 1a3e 8ed3 91be 3962 4e3e 0ea3 0ebe
000002b0: 46a8 c73d 4370 5e3e 78a2 8e3c c1e4 1bbe
000002c0: 0a4a 42be 378c 8b3d 27fa b3be 9362 5fbe
000002d0: ad7b 91be 980e e23d f2bd 433c e82e 9dbd
000002e0: 7e9f 123d d768 233e eaf4 49bc a3f8 3bbe
000002f0: 5eae a33e 4e4f ae3e 53d7 62be 566c 723c
00000300: fb20 e53d 0603 40be 71c7 7e3e aa97 713e
00000310: a065 c1bd 0089 40be 31e4 0fbe 5aa8 5d3e
-0.29702637 0.2187829 -0.2789222 -0.21317184 0.11069473 0.17529802 0.27767056 -0.11625086
0.11680497 0.13850224 0.33676317 -0.23457992 -0.17485109 0.0063595506 -0.16595306 -0.19099514
0.27322635 -0.111479945 -0.12679346 -0.3415278 0.012819623 0.04847938 0.108684815 -0.16921428
0.17914478 0.05396992 -0.012820796 -0.3292534 0.27857646 0.1443087 0.2641158 -0.33628064
0.091394365 0.21150549 0.25401273 -0.203899 -0.08997127 -0.09464244 0.14335732 -0.114444755
0.10019719 -0.11624444 0.18991944 -0.23715566 0.043387398 -0.30080783 -0.08001131 0.07289136
-0.20677125 0.14528313 0.10592462 -0.10942238 -0.07504309 -0.19284551 -0.24358246 0.32471254
-0.18811226 0.21848154 0.105562165 -0.27886632 0.3003018 0.21693848 0.0108741205 -0.06374549
0.24179475 -0.058731 0.15524931 0.05190903 -0.2984698 -0.25955844 0.17913453 -0.32041883
-0.10188903 0.09153852 -0.29331815 0.14941883 0.33877054 0.14661239 0.117117584 0.047189016
0.108474635 -0.27484396 -0.06747386 0.24762385 0.018635271 0.16449499 0.038224358 0.2022007
-0.26487362 0.2324844 -0.09465044 -0.14154884 -0.03271959 0.22016725 -0.16293618 -0.16020708
0.40800714 0.18085775 -0.078204654 -0.21218018 0.02188756 0.16107781 -0.3407784 0.09838304
0.20924738 -0.22696505 0.13362767 -0.10625315 -0.246617 -0.14325336 -0.06006012 -0.19542475
-0.08734169 0.07554687 -0.2048176 0.24815653 0.07111782 0.019657137 -0.2739356 -0.10214971
0.014424791 -0.054307476 0.023713326 0.25649676 -0.16436704 0.27236682 0.045562193 -0.19989677
0.20996794 -0.027675895 0.1834978 0.020138783 0.23713244 -0.3449706 -0.18285245 0.24781707
0.09375015 -0.13020042 0.0968613 0.28709325 -0.050235588 -0.26907754 0.02064683 0.17037778
0.20785078 0.07239945 -0.06059375 0.1628889 -0.19572438 -0.3834278 -0.1486424 -0.105568044
0.17866549 -0.36621022 -0.19204323 0.19940113 -0.4141004 -0.0447949 0.33627316 -0.105359614
0.29530942 0.009491069 0.2823658 0.122058906 -0.20352426 -0.259722 -0.37219772 0.11920896
0.1513019 -0.28481716 0.20154656 -0.13929388 0.097488925 0.21722512 0.017411456 -0.15223981
-0.18973556 0.06813853 -0.3515179 -0.21814947 -0.2841467 0.1103794 0.011947142 -0.07674962
0.035796635 0.15957962 -0.0123264585 -0.18356566 0.3196897 0.3404488 -0.22152452 0.014796337
0.11187931 -0.18751153 0.24880768 0.23593011 -0.094432116 -0.18802261 -0.14051892 0.21646252

nnenv.embedding.descriptor.embedding_net.layers.0.layer.out_layer.bias f4 [20]
00000000: f0d1 b93a ebbd 39bd 2e08 0fbe 0184 aabd
00000010: 98a5 93bc e293 413e 5823 85bc fe29 363e
00000020: 788a c53d 2359 64bd b5b4 ab3d bb17 8ebd
00000030: 9a7e 1dbe 4636 d4bd 2e63 933e 0faa 213e
00000040: 9ddd 71be 9730 3bbe 1fef a2be 0577 86be
0.0014176946 -0.045347136 -0.13967964 -0.08325959 -0.018023297 0.18904069 -0.016252205 0.17789456
0.096455514 -0.05574907 0.083840765 -0.0693812 -0.15380326 -0.10361914 0.28786606 0.15787528
-0.23619695 -0.18280254 -0.3182306 -0.2626268

nnenv.embedding.descriptor.embedding_net.out_layer.weight f4 [30, 20]
00000000: 353b c4bd 0c19 fabd cbde 0ebd bf29 d2bc
00000010: 65a5 49be 7097 ffbc 8539 98bc 5b77 2e3a
00000020: 3d99 33bd b853 a43d 7814 0bbd 0797 cebc
00000030: f118 8ebe 0c08 2b3e b45f ba3d 3b1d b03d
00000040: 12cb 8ebe 3ade 243e c7b6 3ebe 1af8 903d
00000050: 00da 83bd e168 1e3e 9378 e4bc e2d8 42be
00000060: a221 22bb 5447 3abe ba86 71be 1003 023e
00000070: 1b3d 163e fbb0 23bd 35d9 44be e5eb 6fbe
00000080: 667c 723d e752 c4bd 59fc 2d3e 9578 abbd
00000090: b15a 66bd c563 88bd e8ca 82be e329 313c
000000a0: 67b7 d7bd e8ca 1abd dad6 47be c566 3b3d
000000b0: be23 72be 2891 663d e8ee d9bc 689c 4dbe
000000c0: 3ec7 3abe 3b06 c03c f0ec c53c c595 953b
000000d0: b73d 40be f7d3 423d 8814 8ebe 4d4b 44be
000000e0: e079 5cbe c0bf 41be ec5e 42be c92c d7bd
000000f0: f3e2 4f3d 8219 1abd 922e 883d db4f be3d
00000100: 9b3e 6f3d 013a a43d 53cc 01bd 3f09 2f3d
00000110: b9b2 8f3e cb77 a93d c980 f8bd fb6e 633e
00000120: 18f2 683e 4843 b03d 209f 933e c9a8 803e
00000130: d10a 303e b69c 3c3e cf7d acbd 8d77 0c3e
00000140: b73f 8fbc af2e 0fbe ede4 7e3e f084 08bc
00000150: 480d eebd 5425 9dbd 611e a2bc db70 ea3d
00000160: 1636 703d 9cf5 09be 9832 953d e1da fbbd
00000170: c672 4fbd 09f8 6f3d 25a3 243d 3f57 d03d
00000180: 8630 82be c78e 7dbd a85e 8bbe cedf 09ba
00000190: 72c8 57be 07aa 63be ece8 123d 793c c63d
000001a0: e511 aa3d 707b e0bd a86f 023e d2d0 72bd
000001b0: 5c6c e53d 24e0 123e c8cf 55be cb1c 46bc
000001c0: 6301 acbd 21fe 193e d874 05be c5bb 8cbb
000001d0: ee4a 58be f364 a73d 9ed9 16be 89c9 363e
000001e0: 2a71 91bc 3da3 8cbd cd56 a0bd 2c5d 6ebd
000001f0: 25ba 3d3e 69ea 80be 2cc7 03be 037d 72be
00000200: 6887 85bc aa33 3b3e ec59 103e 839f c7bd
00000210: bfad b4bb 51ed 6dbe 89fa 913d 2101 863d
00000220: be86 75be f005 0d3d 3da4 ca3c 7b0d f3bd
00000230: 6391 eebd 0210 bc3d c020 d73d 7a82 d93d
00000240: 5537 943d 8302 8bbd a871 643e 2432 27be
00000250: 15a4 f6bd f631 0d3e 5001 86bc 881e d43d
00000260: 8425 0abd eb3c 093e 15f4 4e3e aa34 c23d
00000270: ed50 ebbd a001 5cbc 44c7 ca3d 561d 3ebd
00000280: 94bc 763d b8e2 523e 7a9e 12bd f8ed 803e
00000290: a6d9 c0bd 9350 3f3e 602f 563e c0bc 84bb
000002a0: e6bf 32be 58a7 31be 532e 62bd 08a3 5e3e
000002b0: 8ef3 773e b765 cabd fa46 003e b4d4 133e
000002c0: d516 3dbe 9330 433e 5703 10be 7ff7 f13d
000002d0: b5e2 80bd 20ed 97bd dc19 773d 5496 afbd
000002e0: 0ce4 3fbe 934f 77bd a028 3f3e f19f 433e
000002f0: 23d8 c8bd d208 3bbe 0099 4f3e 8096 56be
00000300: 5a42 0fbe 7824 e23d 7e93 f4bd 98bd 36be
00000310: 94d3 eebc da96 5bbc 1d2c 243d fd95 2f3e
00000320: 4831 5fbe 0c32 b43d 7593 a6bd 23d4 953d
00000330: a0be b73d 4935 443e 6f83 513d 48bc 893e
00000340: 79df 3a3e 040c 2e3c 02f5 863e 6cad b33d
00000350: 82a7 b7bc d554 0bba 28ee 043e 9b2f 97bd
00000360: 317b 383e a11c 6b3e 57dc 1abe b03d 683d
00000370: 8b5b c3bd 03b7 863d 3ad5 e7bb c600 74be
00000380: 62c9 593e a2bb 7dbd 5bef f1bd 07d1 82be
00000390: ad7b 363e 99f7 dbba 9186 82bb 2920 29be
000003a0: 636b 54bd 6ae0 70bc 9b27 1c3d db3d 44be
000003b0: 8462 c0bd 059c 603d 849c 3b3e ea8a 5cbe
000003c0: e911 28bd 413c 943e f12c 5bbe 9c13 993d
000003d0: 3869 a63d 9dc6 20bd 3ecc b73c c468 963d
000003e0: 6ecc 473e ce14 913e 30c2 123e c047 8cbd
000003f0: 1b98 663e 7067 513e 8fac 593e f4c3 b53d
-0.09581605 -0.122118086 -0.03488044 -0.025654672 -0.19692 -0.03120014 -0.018582115 0.00066553586
-0.04384731 0.080237806 -0.033955067 -0.0252185 -0.27753404 0.16702288 0.09100285 0.08599325
-0.27889305 0.16100398 -0.18624412 0.070785716 -0.064380646 0.15469696 -0.027889526 -0.19028047
-0.0024739285 -0.18191272 -0.2358655 0.12696481 0.14671747 -0.039963704 -0.19223483 -0.2342983
0.059200667 -0.09586125 0.16990794 -0.083726086 -0.056238834 -0.066596545 -0.2554543 0.010813209
-0.10533028 -0.037791163 -0.19515553 0.045752306 -0.23646447 0.056290776 -0.026603177 -0.20079195
-0.18240067 0.02344047 0.024160832 0.004564973 -0.18773542 0.047565427 -0.2775004 -0.1916935
-0.21530867 -0.18920803 -0.18981522 -0.10506589 0.050753545 -0.037621982 0.066495076 0.09292575
0.058409315 0.08018876 -0.031689 0.042733427 0.28066042 0.08274802 -0.12133939 0.22210304
0.22748601 0.08606583 0.2883234 0.25128773 0.17191626 0.18419155 -0.084224336 0.1371748
-0.017486436 -0.13982652 0.24892016 -0.008332476 -0.11623627 -0.076731354 -0.019789876 0.11447307
0.05864533 -0.13472599 0.072850406 -0.12297607 -0.050646566 0.058586154 0.04019465 0.10172891
-0.25427645 -0.06190374 -0.27220654 -0.0005259485 -0.21072558 -0.22232829 0.035866663 0.09679503
0.08304194 -0.10961044 0.12737906 -0.059281178 0.112023085 0.14343315 -0.20880044 -0.012091826
-0.08398702 0.15038349 -0.13032854 -0.004294845 -0.21122333 0.081735514 -0.14731452 0.17850317
-0.017754156 -0.06867073 -0.07829056 -0.058194324 0.1852804 -0.2517884 -0.12868947 -0.236805
-0.016299918 0.18281427 0.14096802 -0.09747221 -0.005513876 -0.2323506 0.07127864 0.06543184
-0.23977181 0.03442949 0.024736518 -0.118678056 -0.11648824 0.09182741 0.105042934 0.106205896
0.07237116 -0.067875884 0.22308981 -0.16327721 -0.12043015 0.1378859 -0.016358048 0.10357386
-0.033727184 0.13402145 0.20210297 0.09482701 -0.11490045 -0.013428122 0.09901288 -0.046414696
0.060238436 0.20594299 -0.035795666 0.25181556 -0.09416513 0.1868308 0.2091651 -0.004050821
-0.17456016 -0.17348993 -0.05521996 0.21741879 0.24214002 -0.09882682 0.12527075 0.14436609
-0.18465741 0.19061498 -0.14063774 0.11814784 -0.06293241 -0.07418275 0.060327396 -0.08573595
-0.18739337 -0.060378622 0.18667841 0.19103982 -0.0980685 -0.18265083 0.20273209 -0.20955849
-0.13990155 0.11042112 -0.119421944 -0.17845762 -0.029153623 -0.013402665 0.040081132 0.1714706
-0.21796143 0.08798608 -0.08133594 0.073158525 0.08971906 0.19160952 0.051150735 0.2690146
0.1824931 0.010622982 0.263588 0.08773312 -0.022418741 -0.000531507 0.12981474 -0.07382127
0.18015744 0.2296014 -0.15123115 0.056699455 -0.09538945 0.065778755 -0.007074979 -0.2382842
0.21268228 -0.06194652 -0.118132316 -0.255501 0.17820616 -0.0016782164 -0.0039833267 -0.16516174
-0.051860224 -0.014701942 0.03812371 -0.19164221 -0.0939379 0.05483629 0.18321425 -0.21537367
-0.041032705 0.2895222 -0.21403863 0.07474443 0.08125538 -0.039251912 0.022436257 0.07344201
0.19511577 0.28336185 0.14331889 -0.06849623 0.22518961 0.20449615 0.21257232 0.08875266

nnenv.embedding.descriptor.embedding_net.out_layer.bias f4 [30]
00000000: 8c20 ebbd 1fc5 183e 3e1a 84be 9027 423e
00000010: d1ee 663d bac4 563e 26b1 023e df8d 1abd
00000020: c806 22be a3a2 193e 15f9 803e 7cb2 313e
00000030: 9e5c 863e cadb c43d 7373 9c3e ce5b 293d
00000040: 6f99 35bc 9942 d3bc af1b 9d3d 4ce6 e33d
00000050: 0e2a c0bd 344a f1bc 3a9c 813e 202d 353e
00000060: cc76 d8bd 462d 1dbe 0ef2 9abe d210 953e
00000070: b46e bb3d 629c 313e
-0.11480817 0.14918946 -0.2580127 0.18960404 0.056380097 0.20973483 0.1276289 -0.037732955
-0.158229 0.15003447 0.25190035 0.17353243 0.26242536 0.09612234 0.3055683 0.041347317
-0.011083945 -0.025788592 0.07671296 0.1112791 -0.09383021 -0.029454328 0.25314504 0.17692995
-0.10569534 -0.15349302 -0.30262798 0.29114395 0.09151974 0.17344812

nnenv.node_prediction_h.layers.0.layer.in_layer.weight f4 [16, 900]
00000000: fcdc 393b dfe4 be3c 9249 63bd ecb5 803d
00000010: 11ca 123c b567 dd3c cb1b c03c 8a6c 303c
00000020: 77a2 1cbc b8e5 7c3c bc12 dd3c f4e3 093d
00000030: ff31 c83c 95f3 d5bb 5991 553c 54ef a6ba
00000040: f88e 72bd 73f9 5a3c c313 df3c 107f 96bc
00000050: f3b9 2ebb d0d7 7bbc 4f15 9cbc 306a aabb
00000060: e3a9 bf3c ecf3 20bd 1391 48bd a0b2 723c
00000070: 94f9 4ebc 4df3 1b3c 21e2 a5bc 87bc 04bc
00000080: 5f89 21bd eea5 2e3d c7ba 043c 61cf bfbb
00000090: 1548 763c 5390 b9bc 7d0b 483c d3cb d0bc
000000a0: 956c 0fbc b671 f1bc e336 d03c f14a 1abc
000000b0: 13ba 343c 7131 413d d2f0 95bc 9a23 773c
000000c0: 8921 1a3d 02df 133d 1e6a c73c 7fa9 6dbd
000000d0: b7af c7bc 7aea 063d db39 cb3c 7428 b93c
000000e0: 70ec 9b3b 47f5 483c 5fd2 cebb d5bf 00bd
000000f0: c785 1dbc c866 e83b 623c 613d 251d 91bd
00000100: c417 7cbd 483f af3c 1488 f9bc 2fe9 153d
00000110: 756b 183c e48c 22bd 8b07 5fbd 2472 1cbc
00000120: 6712 1cbd c28f 723b 273d 7abd 9a42 6ebd
00000130: a177 f73c 5ce7 9c3b 8087 89bb 28c5 66bd
00000140: 6b0d 61bd 69e0 43bc 2c55 e53c 30fa f6bc
00000150: 1eee 19bd eeb2 2f3d 6987 963c 416d a7bc
00000160: 932f 5cbd ed3c d7bc 5c67 613d af16 173c
00000170: c098 5ebd 78aa 7d3d 5e54 b93c 5089 a43c
00000180: 4c97 043d 5ef8 04bd 78bc febc 41c5 953b
00000190: 9f5c dd3c 18ba a13c 5205 6f3c 75c7 45bd
000001a0: 2835 133d b774 423c 5607 f6bc 2029 b03c
000001b0: 7f8f ba3c a0cc 2a3d a23e f63c 8f07 b33c
000001c0: bd6f a53a 78ed 2dbd 5307 743c bb69 4cbc
000001d0: 1572 7abd a94c d63c 42b3 603d 48fd f43a
000001e0: 18f5 113d 86f0 5e3b bdb6 efbb aa02 6e3d
000001f0: 3b45 213d f808 37bd 3494 923c 8590 563c
00000200: 0fe1 0fbd 328c 7abc 6f2f f73c 2d94 e63b
00000210: dd7a 853c fd0e 0fbc 7075 0b3d 2aa1 4c3d
00000220: d140 fbbc def9 5c3c 8db4 743b d814 303d
00000230: ceb6 583d 8d2c 92bc 530b 743c 4418 33ba
00000240: 4053 d03c ea3c 8cbc 66e4 24bd 6a4c 963c
00000250: 2298 e43c 36fa 2fbc c138 643c 0ae1 f5bb
00000260: 7bad a73b cd94 aabc d3da c93b 1fff f93d
00000270: 40df c1bc 02b0 613b 9ee0 153d f6d1 10bc
00000280: d6d7 e9bc d742 8fbd 041f 80bc c76f 143d
00000290: aeff 393d 3e59 8cbd 0dbb 86bb dae9 7dbc
000002a0: 31de 813d 2524 e2bc 3eda 25bd 2bc9 7fbc
000002b0: d649 a6bb 2137 cc3d 47e3 7fbd bc35 6c3d
000002c0: b127 10bd 9a5f 883b ef49 33bd 1b5a c63b
000002d0: 1cd3 c3bc a8d9 79bb ea5e 0dbd 0716 923c
000002e0: be59 8bbc 37e4 67bd 0977 c2bc d858 a3bc
000002f0: 7f3c 13bc 44b6 e5bc 955b 113c 94f9 0dbd
00000300: a628 0e3d 6eef 4f3c af07 de3c 4a58 293d
00000310: 3aa8 a939 8ad1 493c c004 023d 3849 d7bc
00000320: 7ff0 f03c 0202 eebc 1c4b f9bc 5c1b a33c
00000330: 0520 0d3d 3d15 5dbc e558 b4bb 592a 12bc
00000340: b21e 503c fa65 eeba 0137 433c c1e9 e7bc
00000350: 770a 073d e097 2fbc 3e13 023b 9fd5 b43c
00000360: c463 c4bc bebe 34bd e827 9ebc 1bf2 a2bc
00000370: 7dce a9bc 2e1d a2bc fd5f 0fbc 3f1d 8abb
00000380: 43a5 09bd 5765 f43b 9fcf 96bc 67d7 69bc
00000390: 58cb a6bd 5a4f 5abc acb2 3cbd 1d33 cebc
000003a0: 725b 11bd bc7b 54bd b022 d2bc c2e0 18bd
000003b0: ada4 ca3c b2be ef3b 03a8 02bd 70a1 903c
000003c0: 0d6c b23c a12e 5e3b ed7d 923c fbcd 05bd
000003d0: 4e0a ab3c 2c52 3b3d 0677 1fbc cf83 d5bc
000003e0: cc7f 2fbd 9dbf ab3c 5a6d c1bb 7d2e b63b
000003f0: 93e8 2dbd 1c4f c23b 9668 cfba 55d8 14bc
0.0028360477 0.023302494 -0.055490084 0.06284699 0.008959309 0.02702699 0.023450753 0.010768065
-0.009560219 0.015435629 0.026986472 0.03366466 0.024437902 -0.0065292814 0.013035142 -0.001273612
-0.059218377 0.013365137 0.027231103 -0.018371135 -0.0026661127 -0.015371278 -0.01905313 -0.005200647
0.023396438 -0.039295122 -0.04896648 0.014813095 -0.012632746 0.009518457 -0.020249428 -0.008101589
-0.039437648 0.04263871 0.008101172 -0.005853579 0.015031834 -0.022651827 0.01220977 -0.025487816
-0.008753915 -0.029473167 0.025416797 -0.0094172815 0.011030692 0.04716629 -0.018303309 0.015084172
0.037629638 0.03610135 0.024342593 -0.058022972 -0.02437578 0.032938458 0.024807861 0.022602297
0.00475841 0.01226551 -0.0063116993 -0.031432945 -0.009614415 0.0070923306 0.054989226 -0.07085637
-0.061546102 0.02139248 -0.030460395 0.036599334 0.0093029635 -0.039685145 -0.054450553 -0.009548698
-0.038103487 0.0037011956 -0.061093476 -0.058168985 0.03020841 0.0047883224 -0.004197061 -0.056340367
-0.054944437 -0.011955359 0.027994715 -0.030148596 -0.037580602 0.04289525 0.018375115 -0.020437839
-0.053756308 -0.026274169 0.05503021 0.009221717 -0.054344893 0.06193015 0.022623237 0.020085007
0.03237085 -0.032463424 -0.031095728 0.0045706336 0.027021704 0.019742057 0.014588671 -0.04828592
0.035939366 0.011868647 -0.030032795 0.021503985 0.022773502 0.04169905 0.030059163 0.02185419
0.0012621802 -0.042462796 0.014894324 -0.01247638 -0.061143953 0.026159601 0.054858454 0.0018691206
0.03563413 0.0034017875 -0.0073154853 0.05810801 0.039372664 -0.044686288 0.017892934 0.01309598
-0.035126742 -0.015292214 0.030173985 0.007036707 0.016293937 -0.008731601 0.034047544 0.049958386
-0.030670555 0.013487307 0.0037339062 0.04298863 0.05290871 -0.01784351 0.014895278 -0.0006831924
0.025430322 -0.01711889 -0.04025688 0.018346984 0.027904574 -0.010740807 0.013929547 -0.0075036334
0.005117116 -0.020822907 0.006160119 0.122068636 -0.023666024 0.0034437184 0.036591165 -0.008839121
-0.028545301 -0.069951706 -0.01563979 0.03623941 0.04540985 -0.06852959 -0.0041116537 -0.015497649
0.06341208 -0.027605126 -0.040491335 -0.015611927 -0.00507472 0.099714525 -0.062472608 0.057668433
-0.035194103 0.004161787 -0.04377168 0.006053222 -0.023904376 -0.0038124118 -0.034514345 0.01783277
-0.017010566 -0.056614127 -0.023738401 -0.019939825 -0.008986591 -0.028041013 0.0088719325 -0.034661844
0.034706734 0.012691362 0.027103273 0.041343965 0.0003235953 0.012318024 0.03174281 -0.02628003
0.029411552 -0.029053692 -0.030431323 0.019910507 0.034454364 -0.013493833 -0.005503761 -0.008921229
0.012702631 -0.001818835 0.011914969 -0.028309705 0.032968964 -0.010717362 0.0019847895 0.022074519
-0.023973353 -0.04412722 -0.019306138 -0.019890836 -0.020728344 -0.019789305 -0.008750913 -0.004214912
-0.03360487 0.0074583697 -0.018409548 -0.014272547 -0.081442535 -0.013324583 -0.046068832 -0.025170857
-0.0354876 -0.051875815 -0.025651306 -0.03732372 0.024736727 0.007316434 -0.03189851 0.017655104
0.021780038 0.0033902305 0.017882312 -0.03266714 0.020878937 0.045732662 -0.009732967 -0.026063828
-0.042846486 0.020965392 -0.0059029283 0.005559741 -0.04245813 0.0059298407 -0.0015824016 -0.009084781

nnenv.node_prediction_h.layers.0.layer.in_layer.bias f4 [16]
00000000: 6b45 443d b744 bc3b 8f01 b53b 2e39 b2bc
00000010: 2422 c6ba 34af 1a3b d4f8 f538 d16c c4bb
00000020: 7948 093d 169c 8fbc ec95 323c fa60 cc3c
00000030: 1d68 4fbd 11c2 8dbc dfc6 56bc 7844 003d
0.047917765 0.005745496 0.0055238674 -0.021755781 -0.0015116376 0.0023602964 0.00011728858 -0.0059944172
0.03351638 -0.017530482 0.010900002 0.024948586 -0.0506364 -0.017304452 -0.013108938 0.031315297

nnenv.node_prediction_h.layers.0.layer.out_layer.weight f4 [16, 16]
00000000: 617a 8dbc f4d3 933d 49a9 543e 7964 14be
00000010: ba6d 893e c306 a9bc bb1b 053e aa6f 13bd
00000020: 1aa7 01be fc66 25be 0ec1 95bd 82dd 00be
00000030: d342 3ebe a666 febc acba 76be e2c8 ed3d
00000040: 3edb 393d 0999 8bbd 0b9f e8bd c1f7 3d3e
00000050: d731 a7bd ae7b 10bc 176a dbbd c11c ebbd
00000060: 013e bc3d 852b c0bd 45de 0dbe c71b fcbd
00000070: 48d0 07be c974 89be a268 b03d c825 463e
00000080: 4c71 903d e16a afbd 4981 e7bd c3ec 823d
00000090: 3c94 adbc 4362 c93d f123 de3d fa71 1c3c
000000a0: 808f 203e ef46 523e ed83 01bc b4f6 313e
000000b0: aedf c23c 3932 193e 6238 853e 2df2 3cbe
000000c0: 0c85 f43c b542 533e 8b44 223e 68a5 3b3e
000000d0: acc0 403e 11c4 dc3d c584 93bd 06e3 46bd
000000e0: 6bff 08be 6293 61be 8ad0 643e b358 413e
000000f0: 9bb9 bfbc b28f c0bd a2da 22be 9d88 77bd
00000100: fca3 6d3d 48a0 95bd 7768 033d b055 bfbd
00000110: b59d 1a3d 4b79 593e fc02 52be abf5 053d
00000120: df8d ff3d 715d 2cbd e39a e63d eb05 5f3e
00000130: 4f78 3abe 111d 0b3c 4a6b 2bbe da71 6bbb
00000140: 629b 5d3e ef44 793e dd6c 02be 1bcd a63c
00000150: 201a 51be 42ff a83d 88d2 a6bb 519f 213c
00000160: 199b 593e 73e2 573e 3668 d9bd 53a8 283e
00000170: 9cf2 33bc 2b75 c4bd 170d 57bd becd 283e
00000180: 6cd9 d9bd 619f ea3c aff1 c0b9 3e78 903e
00000190: 9e4d 2f3e 3390 34be 97e8 0b3e 0c8b 203e
000001a0: 6565 bf3d 5963 04be 4f02 633e 63be 1b3e
000001b0: 17e7 cf3d e0b6 523e 41de 20be f0ba e8bd
000001c0: 4da1 343d 0287 553e 9998 4c3e 22ef 473e
000001d0: 1ff7 933d 9863 09be 6f19 313a 79b4 a5bd
000001e0: 8284 35be c780 81bd 886e 67be 31ca c7bd
000001f0: 938e 2bbd 5994 263e 2cea d5bc 42bb f73d
00000200: 4a0d 57be d24e b43d 40bf 1b3e 4407 56be
00000210: 4229 163e d89e 74bc b51f 70bd fa36 903e
00000220: d56d 353e fd06 4e3e 56dd 9cbc 0661 81bb
00000230: 5c30 153e 8d95 2e3d bdf9 41bc c4b6 c83c
00000240: e786 41be 803e 15bd b48f 75bd 820f 283e
00000250: d3ed 883c bf09 49bd eed3 bd3b 0751 683e
00000260: 7591 fbbd ca31 35be d53b 933d 76b5 06be
00000270: 2cb9 dd3c 2078 18bd f855 163e 613b 043e
00000280: efe6 ccbd d471 d93d a028 9e3d 65a6 843d
00000290: f5e1 023e d371 2fbe 9c24 8a3d 6904 443d
000002a0: 8055 15bd 0009 a23d d983 13be 3c2c fd3d
000002b0: 9e34 b1bd ecf0 553e d0e7 853c c75a 633e
000002c0: 4b8b 57be 8b80 ddbd 03bc a53d c657 8ebc
000002d0: 3a8f 3bbe 88f9 483e 7143 d83d da7d 333e
000002e0: 51d1 95bd af0d 1d3e 8d37 4d3e c76c 1bbd
000002f0: 5521 bf3d b222 5dbb 851e 333e ef8b 393e
00000300: aed5 94bc 2d55 04be d27f 6a3e d1d1 13be
00000310: fd57 44bd 19ce 5cbe 473d 023e 836f 6cbe
00000320: 1938 af3d d255 d9bc 5bfd 34be caf2 a2bd
00000330: 481d 12be 6e8b 403e f364 3ebd 671a 4bbe
00000340: 2841 f1bd 232e 7bbe a7c6 5d3d 749f bcbc
00000350: 77d9 533d 972e b53d e6dd 393e cf59 e83d
00000360: 1537 bebd e6fb 273e 5ca5 8fbe 4a8f 4e3e
00000370: baf8 343e 610c 69bc 42cd a43d 885f 13be
00000380: e622 e83d e1e6 0fbe 2cb9 83bd a69c 713d
00000390: 8077 3f3e 5e2e cdbd c174 0ebd da4c d2bd
000003a0: 6870 783c 65bc 563c 9bef 92bd ca59 113e
000003b0: 0667 6dbe fd9e 1f3d ee4a 6cbc c976 39be
000003c0: 00b6 9bbd 7d27 0a3e cd9a f23c 8f10 db3b
000003d0: 7262 a6bd 6da8 02be b145 e03b cdeb 3d3d
000003e0: 8988 97bd 96bc 5d3e 34ae 033e f59f 45bc
000003f0: aad7 04be 2e06 863e 1d72 50be 9599 d93d
-0.017270269 0.07218161 0.20767702 -0.14491452 0.26841527 -0.020633107 0.1299886 -0.035995163
-0.126614 -0.16152567 -0.07312213 -0.12584499 -0.18580179 -0.031054806 -0.24094647 0.11610581
0.0453751 -0.068162985 -0.1135846 0.18551542 -0.08163803 -0.00881855 -0.107135944 -0.11480094
0.09191514 -0.09383301 -0.1385432 -0.123099856 -0.13263047 -0.26846913 0.08613707 0.1935035
0.0705286 -0.085653074 -0.11303956 0.06392815 -0.021188848 0.09833195 0.10846699 0.0095486585
0.15679741 0.20534872 -0.007904989 0.17379266 0.0237883 0.14960565 0.2601958 -0.18451758
0.029848598 0.20630915 0.1584646 0.18324816 0.18823498 0.10779584 -0.07203058 -0.04855635
-0.13378684 -0.22028878 0.22345176 0.18881492 -0.023403933 -0.09402408 -0.15903714 -0.06043302
0.058017716 -0.07305962 0.032082047 -0.093425155 0.037748057 0.21237676 -0.20508951 0.03270499
0.12478232 -0.0420813 0.11260011 0.21779601 -0.18209957 0.008490817 -0.16740146 -0.0035926015
0.21641305 0.24342702 -0.1273684 0.020361474 -0.20420122 0.082518116 -0.0050910152 0.009864644
0.21250571 0.21082477 -0.1061558 0.1647046 -0.010983136 -0.095926605 -0.052502718 0.16484734
-0.10637173 0.02864045 -0.00036801162 0.28216738 0.17119452 -0.17633133 0.13662945 0.15678042
0.09345511 -0.12928523 0.2216885 0.15209346 0.10151499 0.20577574 -0.15709783 -0.113637805
0.04409914 0.20852283 0.19980086 0.19524816 0.07224869 -0.13416898 0.0006755804 -0.08091063
-0.17726329 -0.063233905 -0.22600758 -0.09755362 -0.041884016 0.16267528 -0.026112638 0.120962635
-0.21001163 0.08804096 0.15209675 -0.20901209 0.14664176 -0.014930449 -0.05862399 0.28166944
0.17717679 0.20119853 -0.01914851 -0.0039483337 0.14569229 0.04262309 -0.011839327 0.024501212
-0.18899117 -0.036436558 -0.0599515 0.16412166 0.016714966 -0.04908156 0.0057930863 0.2268716
-0.12283603 -0.17694774 0.071891464 -0.1315516 0.027065836 -0.037223935 0.14681232 0.12913276
-0.100049846 0.10617414 0.07722592 0.0647705 0.12781508 -0.17133264 0.06745264 0.04785577
-0.036458492 0.07911873 -0.14405765 0.12361953 -0.08652614 0.20892686 0.016345888 0.22202598
-0.2104923 -0.10815533 0.08092501 -0.017375838 -0.18316355 0.19626439 0.105597384 0.17528477
-0.073153146 0.15337251 0.20040722 -0.037945535 0.093325295 -0.0033742604 0.17492111 0.18119787
-0.018168297 -0.12923117 0.22900322 -0.14435507 -0.047935475 -0.21562995 0.12718688 -0.23089413
0.08555622 -0.02653018 -0.17674772 -0.079564646 -0.14268982 0.18803188 -0.04648299 -0.1983429
-0.11780006 -0.24529319 0.054144528 -0.023025252 0.051721063 0.08846777 0.18151054 0.11345255
-0.0928785 0.16404685 -0.28055847 0.20171848 0.17673007 -0.014224143 0.08046962 -0.14391911
0.11334781 -0.14052917 -0.06431803 0.058987282 0.1869793 -0.100186095 -0.034779314 -0.102685645
0.0151635185 0.01310644 -0.07174607 0.14194408 -0.23183832 0.038969982 -0.0144221615 -0.18111719
-0.07603073 0.13491626 0.02961483 0.0066853235 -0.08124246 -0.12759562 0.0068442454 0.046367455
-0.07399089 0.21653971 0.12859422 -0.0120620625 -0.12972894 0.2617659 -0.20356031 0.106249966

nnenv.node_prediction_h.layers.0.layer.out_layer.bias f4 [16]
00000000: d141 1dbe 8b76 a9bd 00c8 2b3e 0d7c 6cbe
00000010: 1350 21be 53f8 8bbd ebf1 a4bd 6a6c d83b
00000020: 1126 103e 2ef9 493c 0176 7b3d 763a 9b3c
00000030: b8e5 c13d d417 b53d 5768 88bd 417d 0d3e
-0.15357138 -0.082745634 0.16775513 -0.23094197 -0.15753202 -0.068344735 -0.08053955 0.006604721
0.14077021 0.0123274755 0.061391834 0.018948775 0.094676435 0.088424355 -0.06660526 0.13817312

nnenv.node_prediction_h.out_layer.linear.weight f4 [3, 16]
00000000: 2169 1d3a e400 4c3b 3bfc 843a 869b 14bb
00000010: c710 c93a b742 183a 66b4 bdba ad07 56ba
00000020: 8a36 dfbb 6631 463b 648d 7c3b 8ded b03b
00000030: 435a 263b 7bcb 343b 50f1 cab9 b47f c03a
00000040: d33c c03b fc1a 5ebb 6c50 0ebc d566 cd3b
00000050: 4ff5 3dbb 26b1 a6b9 9b93 263c 3108 c43b
00000060: 91d3 163c 25ad 6bbb f85c 31bb edfc e83a
00000070: d071 743a 0dba c63a c3f3 c43b 5265 4abc
00000080: 5f54 6fbc 16d3 8f3b cf37 ae3c 9798 82bc
00000090: 7324 183b 6231 05bc cd0e cdbc c0bf e1bb
000000a0: 4e66 96bc 6ac0 c43a d833 47bb e422 ccbb
000000b0: 4b8f 813b cb87 d5bb 3df2 52bc 114e c73c
0.000600474 0.003112846 0.0010145971 -0.0022675707 0.0015340083 0.0005808281 -0.0014473319 -0.0008164596
-0.0068119215 0.0030241846 0.0038536424 0.005399412 0.002538339 0.0027587104 -0.00038708234 0.0014686496
0.005866626 -0.0033890596 -0.008686166 0.006268362 -0.0028985327 -0.00031793973 0.010167028 0.005982422
0.009205715 -0.0035961356 -0.002706347 0.0017775573 0.0009324821 0.0015161649 0.006010504 -0.012353258
-0.014607518 0.004389177 0.021266846 -0.015941901 0.0023215085 -0.00812945 -0.025031472 -0.0068893135
-0.01835933 0.0015010957 -0.0030395892 -0.006229745 0.0039538494 -0.006516432 -0.012875137 0.024329217

nnenv.node_prediction_h.out_layer.linear.bias f4 [3]
00000000: 01d6 d2bb 3a2e b8bb 3839 1a3d
-0.0064342027 -0.005620745 0.037652224

nnenv.edge_prediction_h.layers.0.layer.in_layer.weight f4 [16, 901]
00000000: 7f16 3bbd 0887 99bc 2737 3e3d 3ffb 71bd
00000010: e2c3 89bc b50a f03c 002c 17bd 89b0 5e3d
00000020: 5257 823d 9865 b4bb 38e8 49bd 5735 64bd
00000030: 00c8 a2bd 6627 203d ee89 89bd 46fa bfbc
00000040: 6c1e 363d 6a25 ab3c ed89 9a3c 5f25 55bd
00000050: f97a b7bc b491 a4bc 6011 923d b7a4 2d3d
00000060: 8bd3 05bd c1ce 423d 18a8 913c a815 4fbd
00000070: 36ac fbbc 3482 f9bc 8ccc d4bc 5c74 33bd
00000080: 028d 003d 2624 6fbc 405d edbc f6c4 733d
00000090: 52a1 03bd 85b2 fd3a cd98 023d 76b4 61bd
000000a0: 3c22 26bd 130a 5ebd 2994 39bd fbd8 833d
000000b0: 4653 a8bc f720 96bd 6b9f 603d 4a64 313d
000000c0: 4854 273d ad63 37bb 0c4f 0f3d 0647 8ebc
000000d0: 20af 493d 36dd 4c39 f68f d9bc 0af3 fa3b
000000e0: 4758 6f3d 13c5 dcbc 61b5 0dbd 8f6e 99bc
000000f0: bb6a 033d 4870 233d 97ed 2ebd 2d54 623d
00000100: 4971 b93c 8c88 41bd df5e 7f3c 906a 27bd
00000110: bbc6 86bd 6e1d 3b3d 08f0 483d fe10 173d
00000120: 69d5 a03d f70c 99bd 8505 863d 0a80 263d
00000130: bf7f c7bc 5fa5 b5bc 3a7c 11bc 0eda 123d
00000140: a289 163d 1152 d53c 942d 36bd 030d 6fbc
00000150: 359a 153d 9d50 81bd fb57 69bd 0de5 943d
00000160: a4f2 a03d 30d2 f73c 68ba 1dbd 56f4 36bd
00000170: 5236 b23d a5ec 7ebd a75d 41bd fd38 1e3d
00000180: 654f 8fbd 1b1d 933c 6718 8e3d 0f59 a4bd
00000190: e4aa 3ebd ecdd 89bc 5d9b 3cbd b4b1 0e3d
000001a0: 7565 1bbd 0958 08bd 00de db3c 70c7 a63c
000001b0: 9acd 883c a2bc 20bd ea14 503c 1d45 8dbd
000001c0: 013f 3a3d 963b 4b3c e68f 2bbd 025a 9b3d
000001d0: 3421 b63d da95 8ebd fb9b 15bd 422b 3abd
000001e0: 9f1e 89bd ebd3 f9bc f56a 983c bd03 9cbc
000001f0: 7c92 40bc 8e9b 493b b786 26bd 4977 4b3d
00000200: ae9f e03c 5cf7 debb f690 8fbd ebde 5dbd
00000210: d2cf 9ebd f17e 2d3d 92c6 93bd dbd3 80bd
00000220: 3521 343d afc9 813c c6ec 5abb 40fc 54bd
00000230: d1b5 b83c 3924 37bd b996 953d 0c6c b03c
00000240: 6c65 73bc 0b78 963c 466b 973d 6d64 71bc
00000250: 0640 0dbd 5ae9 77bd 7dfb b7bb b030 123d
00000260: 4df4 94bb 1236 fb3c 96c1 6b3d 5063 9cbd
00000270: beee 993d e75f 13bc 9384 3abd de49 4a3d
00000280: 2fb4 e13b 9c6b ab3d 9034 053d 3d8d 0f3c
00000290: 9d24 8dbb 1432 1c3d 7984 ed3c 684a c03c
000002a0: 6a57 f9bc 8899 d53c 4838 973d b7ea c63c
000002b0: baa6 07bb e469 9cbd 8d17 8e3d 0b2b 8bba
000002c0: b367 363a 43e5 f03c ec06 d2ba e6f8 473c
000002d0: cf82 ab3b e189 df3b 1972 953d 769a 09bd
000002e0: 7a72 7dbd ba81 853d 90ef 94bc 2a94 853d
000002f0: 090d b339 68f3 aebc 035c 92bd 9f0e 2bbc
00000300: a8a2 e4bc f6f3 2d3d 32ef 38bd d0a0 e8bc
00000310: 0762 e33b 542c 633d a81b 3f3d 6483 6ebc
00000320: dc5f 133d e146 6e3c 898b 833d 7ebf 6d3d
00000330: 1999 8ebd 838a 163d feee 7a3c 5322 e7bc
00000340: e551 06bd bd4f 48bd a524 9c3c 99d5 903c
00000350: e1ef 25bd d09d 513d 952d 203c 803c 91bc
00000360: ac35 8b3c 683e a2bc 196c efbb 3a6c 203d
00000370: d704 463d 9e21 283d 922c 2a3d 9f55 22bd
00000380: c2c3 eb3c b85a 173d 472e 77bd 6b6b 2d3d
00000390: 04f9 8f3d 77e3 323d 79ad 993d acc5 5b3d
000003a0: 8b61 88bc a1bc f33c e575 5a3d a6ac 0b3c
000003b0: c663 44bd 5da8 cf3c 63f0 043d 206c 4c3c
000003c0: 57c6 093d 7bc1 6c3d 33b2 2bbd cfa9 cb3c
000003d0: 990b 443d 8af1 14bd 7bd6 2c3d 454e cdbc
000003e0: a4ef 78bc 1c02 613d 44a2 9e3c 9cd0 863c
000003f0: 7860 d83c 7b26 77bc c266 483c 751a dd3c
-0.04567575 -0.018741146 0.046439316 -0.059077498 -0.016817037 0.02930198 -0.036907196 0.054367576
0.06364311 -0.005505275 -0.049293727 -0.05571493 -0.07948303 0.039100073 -0.06715761 -0.02343477
0.044462606 0.020891864 0.018864596 -0.052037593 -0.022397505 -0.020089008 0.0713222 0.042393412
-0.032672446 0.047560457 0.017780349 -0.050557762 -0.030721765 -0.030457594 -0.025976442 -0.04381214
0.031384476 -0.014596021 -0.02897513 0.05951401 -0.03213627 0.0019355571 0.031884003 -0.05510374
-0.040559992 -0.054208826 -0.045307312 0.0643787 -0.02054752 -0.07330506 0.054839533 0.043308534
0.04085186 -0.0027982995 0.034987494 -0.017367851 0.049239278 0.00019537364 -0.026557904 0.007658367
0.058433797 -0.026949441 -0.034596805 -0.018729476 0.032084208 0.039902 -0.042707052 0.055256058
0.022637026 -0.047249362 0.015586584 -0.04087311 -0.065808736 0.045682363 0.049057037 0.03688144
0.07853205 -0.07473176 0.065440215 0.04064945 -0.024352906 -0.022173582 -0.008879716 0.035852484
0.03675235 0.026040109 -0.04447706 -0.014590505 0.036524016 -0.06314204 -0.05696867 0.072702505
0.0785878 0.030251592 -0.03850785 -0.04466661 0.08701767 -0.0622374 -0.047208454 0.038628567
-0.06997565 0.017958215 0.06938248 -0.08024799 -0.046549693 -0.016829453 -0.046046603 0.03483744
-0.037938554 -0.033287082 0.026839256 0.020358771 0.016699601 -0.039242394 0.012700299 -0.06897948
0.04547024 0.012404343 -0.04188528 0.07585527 0.08893052 -0.06962176 -0.036525708 -0.04545141
-0.06695294 -0.030496558 0.018605689 -0.019044751 -0.011753675 0.0030762884 -0.040655818 0.049674306
0.027419891 -0.00680439 -0.07010071 -0.05416767 -0.07754482 0.04235739 -0.07215609 -0.06290408
0.04397698 0.01584324 -0.0033405288 -0.051998377 0.022547634 -0.04471228 0.07304139 0.021535896
-0.014855724 0.018367788 0.07393508 -0.014733416 -0.034484886 -0.060525276 -0.0056146965 0.035690963
-0.0045457245 0.030665431 0.057557665 -0.0763613 0.075162396 -0.008995033 -0.04553659 0.04938685
0.0068879346 0.08370134 0.03252083 0.008761701 -0.004307343 0.038133696 0.028993832 0.02347298
-0.03043719 0.026074186 0.07383782 0.024281843 -0.0020698742 -0.076373845 0.06938086 -0.0010617686
0.00069582014 0.029406196 -0.0016023791 0.012205338 0.0052340995 0.0068218564 0.07297153 -0.03359457
-0.06187675 0.06518884 -0.018180639 0.06522401 0.00034151252 -0.0213563 -0.07146456 -0.010440498
-0.027909592 0.042468987 -0.04514999 -0.028396994 0.006939176 0.055462196 0.046657234 -0.014557693
0.03598009 0.014543266 0.064230986 0.05804395 -0.06962795 0.03675319 0.015315769 -0.02821461
-0.032792944 -0.04890417 0.019060442 0.017679976 -0.04051197 0.051175892 0.009776493 -0.017729044
0.016993366 -0.019805148 -0.0073065874 0.039165713 0.04834446 0.041047685 0.04154641 -0.039632436
0.028779868 0.03695175 -0.060346868 0.04233877 0.07029918 0.04367396 0.075037904 0.05365531
-0.016648075 0.029753031 0.05333509 0.008525049 -0.047946714 0.025348837 0.032455813 0.012476951
0.033636417 0.057801705 -0.04191799 0.024861244 0.047862623 -0.036363162 0.042196732 -0.025061736
-0.0151938535 0.054933652 0.019364484 0.016456895 0.026413187 -0.015084858 0.012231531 0.026990155

nnenv.edge_prediction_h.layers.0.layer.in_layer.bias f4 [16]
00000000: ae3f ecbc 6143 a2bc ac5f 783d 0c27 12bd
00000010: 27be 4dbd 763c f9bc f174 a2bb 92f0 063d
00000020: d22f 09bb cca2 4cbc 70d3 843c 1c9c 55bd
00000030: 41cc 323d fc02 1fbd 3113 56bc d480 0f3d
-0.028838959 -0.01980752 0.060638115 -0.03568177 -0.05023017 -0.030424338 -0.004957788 0.03294427
-0.0020933044 -0.012489986 0.016214103 -0.05215083 0.043651823 -0.038821205 -0.013066099 0.03503497

nnenv.edge_prediction_h.layers.0.layer.out_layer.weight f4 [16, 16]
00000000: 95f9 77be d7d2 a63d 98c6 b2bd c08e 1ebe
00000010: e45c 86be 35a1 943b 4ccf f5bd 7481 a43d
00000020: e4cf 9bbd 9de4 58be 2b33 8d3d 364c 583d
00000030: 2060 073e ba63 92bd 3281 80bd 2c07 463d
00000040: 1efe 183a a3c8 ebbd b783 b8bd 1522 47be
00000050: d1a6 de3d 6c5f 58be f3ab 3e3e c1cf 2a3e
00000060: 130c 58bd 33c6 183e c10e 2a3e 9bda 29be
00000070: 0ed9 b9ba 1c0d f9bd 6fc5 243e 58fe e33d
00000080: 509b 2cbe fd48 123e ab05 aabc 48fd d53c
00000090: 8c2c 223e 2bcb 0ebe dd1c 2dbe ff66 623d
000000a0: 8717 293e c279 3ebe a53b 1a3e 39d3 13be
000000b0: a41c 083e 3d39 98bd 6b38 14be 0073 eebd
000000c0: 3d07 4cbd 7151 adbd a746 573e 1f3e ec3d
000000d0: 2185 973d 9a13 bb3d fd63 6abe 7292 313e
000000e0: d434 75bd 8a28 2fbd 7746 13be b618 073e
000000f0: 0073 3cbe b001 67be 99fd ff3d b6e4 d23d
00000100: 1274 b0bd 1f86 6f3e ecfa cc3d de49 5dbd
00000110: 2785 1e3c 268e 253e d5b6 b93d 48fa 773e
00000120: 7846 52be 5043 bc3d ff6d 373e d381 debd
00000130: 0279 a13d b60d 3fbe f6fa af3d 05b6 3abe
00000140: b62f 8a3e 81ae 003d fc1a 2fbe 0314 6f3e
00000150: 8f50 cd3d 7455 fabd d511 79be 0778 eebd
00000160: e346 493e 7c8a 17be 4218 8d3e 249d 30be
00000170: e593 2bbe 1841 b43d f800 fbbd 8230 abbd
00000180: a979 603e 97b6 293d 2300 b83c 4bb0 7b3d
00000190: 5902 93bd 30e8 94bd 930f 41be 5956 323e
000001a0: 728a 46be 0654 b9bc 72ed 063d fecb 7dbd
000001b0: 5c01 003e acd5 843c 9b84 853e 87e5 533d
000001c0: ca4d 033e daf9 f13d 8168 12bd 8bf0 74ba
000001d0: 5419 f5bc 7fa5 76bd a4b9 833d 737c f2bd
000001e0: 077f 7bbd 46e5 173d 22ce 853e 130a a23d
000001f0: 3e7d ce3d e18f 523d 7fd5 623d b7b2 44be
00000200: 786b 343c aae2 1e3e 8fc6 953c eefc d73d
00000210: c8f2 513e bb2d fabd d596 273e 2b19 243d
00000220: 8392 3d3e cd1d fc3d fc21 933e b31c 233e
00000230: a50e 273e 6e3b 25bd 7c64 013e df32 0b3e
00000240: 69e0 c23d 13c8 153d cd2f 9bbd 901a ed3d
00000250: 4e44 683e dd8d d03d cd6f 55be 4211 e73c
00000260: e649 88bd c152 4d3e 5f50 3c3e 42a5 fc3d
00000270: 2e17 d4bd 1bcc 6a3e f709 3f3d 3e3b 883c
00000280: e92c 373d 8ac5 40bd 203d 023e 0d01 a1bb
00000290: 52a8 7cbc 91e2 5cbb debd bbbd ef5d 75be
000002a0: 281d 0d3d c2f8 63be 64ea 1f3e 1d60 48be
000002b0: c7be 083e c7dc acbd 041b 73bd 27e9 583e
000002c0: 3e1a 023e 2335 4ebe 5d1d a33d 2e3d 683e
000002d0: 9e88 123e 2e77 9dbd 9e93 0c3d 8f2c 2bbd
000002e0: 1545 47bd f86b 14be 7d49 a4bd cf52 c7bd
000002f0: 4b7c 0ebe d4d8 803d c7f8 3fbd d960 c03d
00000300: be05 ecbd 7a2e 823d ff3e dabd 625f 9a3d
00000310: a658 e7bd abbb 513c 4171 1dbe ab70 fc3d
00000320: 9fc0 0abe a6b5 4e3e edf1 3cbc 8799 dfbc
00000330: 3571 313d 087b 42be ac83 b23d 1100 bb3d
00000340: 3172 05be 9095 5c3e 3d5f 573e 7f02 23be
00000350: 1b15 10bd fa40 5dbe dd89 31be ad50 4d3e
00000360: 9f7d 72bd 5cac eabc 874c 35be 1552 153e
00000370: 7606 2cbe 7377 c5bd 7320 5a3e c58a 763e
00000380: 176d 013e 7281 0c3e e8ba 0a3e 058f 28be
00000390: cbc2 873d 5f55 debc 39e1 00bd 5748 a2bd
000003a0: f2ed 5ebd ff89 733e 2216 c43d d593 2e3e
000003b0: 9dfd e73d c24d 53be bdec 8a3d 10fc 6ebe
000003c0: dc85 93bd e25b 733e 4b8e f7bd 169f 133e
000003d0: 8a8f 723d 7093 9abe ff90 2abe 30f2 a6bd
000003e0: 0e2c be3d 2ce2 9a3d f32d 973d 029a 203e
000003f0: 464d 60be b96e bdbd e91b dc3d 74e6 aebd
-0.24216302 0.08145683 -0.08729285 -0.15484142 -0.26242745 0.004535819 -0.12002429 0.08032504
-0.07608011 -0.21180959 0.06894525 0.052807055 0.13220263 -0.071479276 -0.06274642 0.048346683
0.0005836206 -0.11512878 -0.090094976 -0.19446595 0.108716615 -0.2113015 0.18620281 0.16680814
-0.05274589 0.14919357 0.1660719 -0.16587298 -0.0014179067 -0.121607035 0.1609094 0.111324966
-0.16856122 0.14285655 -0.020754656 0.02612175 0.15837306 -0.1394469 -0.16905542 0.055274006
0.16512881 -0.18601134 0.15061815 -0.14436044 0.13292176 -0.07432792 -0.14474647 -0.11643028
-0.04981159 -0.08462799 0.21023045 0.11535286 0.07398439 0.09134598 -0.22889705 0.1734102
-0.059864834 -0.04276327 -0.14382349 0.1319302 -0.18403244 -0.22559237 0.12499542 0.102975294
-0.08615889 0.23391007 0.10008797 -0.054025523 0.009675301 0.16167507 0.090680756 0.24216568
-0.20534694 0.09192526 0.17913054 -0.10864606 0.078844085 -0.18657574 0.08592789 -0.18233497
0.26989526 0.03141642 -0.17100137 0.23347478 0.10025131 -0.1222333 -0.24323209 -0.11643987
0.19655947 -0.14798921 0.2755757 -0.17247444 -0.16755636 0.08801478 -0.12256044 -0.083588615
0.2192141 0.041433897 0.022461003 0.061447423 -0.07178182 -0.07270849 -0.18853597 0.17415752
-0.1938875 -0.022623073 0.03294129 -0.06196212 0.12500519 0.016215168 0.26077732 0.051732566
0.12822643 0.118152335 -0.035744194 -0.0009343705 -0.029919304 -0.060216423 0.064318925 -0.11840143
-0.06140044 0.037083887 0.2613383 0.07912078 0.10082482 0.051406745 0.055379387 -0.192088
0.011011951 0.15516153 0.018283157 0.105462894 0.2050277 -0.12215754 0.16366132 0.040063065
0.18512921 0.123103715 0.28736866 0.15928917 0.1631418 -0.04033988 0.12635988 0.13593625
0.09515459 0.03656776 -0.07577477 0.11577332 0.22682306 0.10183308 -0.2084343 0.028206471
-0.0665472 0.200511 0.18390034 0.12336208 -0.10355984 0.22929423 0.046640363 0.016629811
0.044720564 -0.047063388 0.1271863 -0.0049134553 -0.01542099 -0.003370438 -0.09167074 -0.23961614
0.034451634 -0.22262862 0.15616757 -0.19567914 0.13354026 -0.084405474 -0.059351936 0.2118269
0.12705323 -0.20137458 0.07964585 0.22679588 0.14309928 -0.07688747 0.034320466 -0.04179054
-0.048649866 -0.14494312 -0.08021829 -0.09732591 -0.13914602 0.06291357 -0.046868112 0.09393472
-0.11524533 0.06356521 -0.10656547 0.07537724 -0.11296205 0.012801091 -0.15375234 0.12326177
-0.13550042 0.20186481 -0.011532289 -0.027294887 0.043320853 -0.18992245 0.08716521 0.09130872
-0.13031842 0.21541429 0.21032424 -0.15918921 -0.035176378 -0.21606818 -0.17337747 0.20050307
-0.059201833 -0.02864664 -0.17704974 0.14582093 -0.1679934 -0.09641924 0.21301441 0.24076374
0.1263927 0.13721254 0.13547862 -0.16460808 0.06628951 -0.027140317 -0.03146479 -0.07923954
-0.05442614 0.2378311 0.09574534 0.17048581 0.1132767 -0.20635131 0.067834355 -0.23338342
-0.07203266 0.2376552 -0.12087687 0.14416155 0.05921892 -0.3019061 -0.16656874 -0.08151662
0.092857465 0.0756267 0.07381811 0.1568375 -0.21904477 -0.09249634 0.10747511 -0.08540049

nnenv.edge_prediction_h.layers.0.layer.out_layer.bias f4 [16]
00000000: 8bb3 1dbe f5ac 1ebe cda3 08be c100 643d
00000010: f54a 03bd 3336 dd3d 1993 1b3c cdbd e03d
00000020: c173 4e3e 0d7a 433e 7b58 eebd 6903 c43c
00000030: ddef c9bc 5d07 4fbe b68d 0c3d ddb7 15be
-0.15400521 -0.15495665 -0.13343735 0.05566478 -0.032053906 0.10801353 0.00949552 0.109737016
0.20161344 0.19089527 -0.1163797 0.023927407 -0.024650509 -0.20217653 0.034314834 -0.1462092

nnenv.edge_prediction_h.out_layer.linear.weight f4 [10, 16]
00000000: a53b febb c94f 8dba 3a13 5fbb dace d5b7
00000010: 4958 9cbb 7276 3c3b e45a 873b b11d d63b
00000020: 3c47 353b 7548 7cbb 5c62 05ba bacb 4abc
00000030: f451 483c b405 5abb 6ec4 c1bb 1207 5ebb
00000040: 284b 83bc 819a 243b bd05 fbbb 3f4f 843c
00000050: a1b9 1b3c 5f87 28bc a8b4 c43a e76d ec3b
00000060: b6b8 0c38 599b 14bb a9d7 6ebb c070 aa3c
00000070: 9bb1 1aba ec90 ff3a 6269 0cbc 68eb 7abb
00000080: 6a4b 153c 9f7a 023b aa82 e93b 69f9 353c
00000090: 05d7 fb3b e68b 2ebc fb79 15bc 83e6 05bc
000000a0: edc7 1f3c b2a0 983b 2bbe ac3b 895a 173c
000000b0: 55d1 04bc e78e 18bc 2d6f 4a3c 64c9 80b8
000000c0: 8685 483c 363e 833a f5b6 a53b 11c8 80bb
000000d0: 8afe b43b 65ff 44bb 2d94 5cbb 5713 09bc
000000e0: c8a8 58ba 9013 313b 1bfc 403b 7e49 e73b
000000f0: 8e24 42bc c1e0 6c3b 27fa 903b 3693 803b
00000100: f17d c93b 734d e7ba ca94 aa3a 4a84 9a39
00000110: 4ae8 0e3b c274 283b 9258 d2ba cfc7 58bb
00000120: c2c9 febb 71eb b13b d036 e4ba 5db2 863c
00000130: 0e9f 5abc ae14 75ba d24a b83b 6996 813b
00000140: 508d 593c cb9b e4ba 791e 4cbb d3f9 cdbc
00000150: 6210 cb3b f8a3 083c 612c 263c 3443 cdbb
00000160: 405b f1bc 82c4 323a 82a9 263b efa0 fd3b
00000170: 310f 52bc e29d 943c da67 94bb d4bf 833c
00000180: 9d43 913c 2f33 1dbb 1c18 813c 437a 0f3c
00000190: be45 803b 18ac 58bb 8360 15bb 66c1 75bc
000001a0: e13b 363c 4af5 c5bb cfcc 2e3c 0864 d03b
000001b0: ad27 7cbc 300e 1938 24f4 993b 90c4 11bc
000001c0: def5 813c a594 19bb 621d 1f3c e7c6 8fba
000001d0: d5cc 093c 866b b2bb b008 553b 1287 3fbc
000001e0: e07d caba 3d3e e2b9 52be 9b3b 4020 8e3b
000001f0: 4c64 38bc 07a1 dd3b fc58 033b d93f 79bb
00000200: 239c 683c 35a9 56ba 7872 3d3b 6d5e 5dbb
00000210: ad6b 283c 986d f4bb dcc8 703b 3fb0 75bc
00000220: 54b3 86bb 90d6 4aba 07ca 2a3b 5f01 933b
00000230: 4afc 1ebc 6fa3 303c 6706 f53a 9a34 a1b8
00000240: 1d81 fcbc d2a7 903c 79fd b1bc be63 d7bc
00000250: 9597 c1bc e18c a53c 44b7 39bc 9caa f03c
00000260: 8160 0ebd 883e 803c d315 92bc bdf3 aa3b
00000270: 694f 563c 4608 96bb b4e1 f03b 015c 183d
-0.007758575 -0.0010781224 -0.003403856 -2.5487901e-05 -0.0047712666 0.0028757122 0.004130708 0.006534301
0.0027660867 -0.0038495336 -0.0005088204 -0.012377674 0.01222657 -0.003326756 -0.005913309 -0.0033878726
-0.016027048 0.0025116506 -0.007660596 0.016151069 0.009504707 -0.010286181 0.0015007453 0.00721525
3.3550627e-05 -0.0022675602 -0.0036444461 0.020805717 -0.0005901099 0.0019498146 -0.008570047 -0.0038287286
0.009112218 0.0019909514 0.007126172 0.011106827 0.0076855444 -0.010653472 -0.009123321 -0.008172634
0.009752256 0.0046578282 0.005271693 0.009237894 -0.008106549 -0.009311414 0.012355608 -6.1410276e-05
0.012238866 0.0010013047 0.0050572106 -0.0039301 0.0055235075 -0.0030059454 -0.0033657656 -0.008366427
-0.00082648965 0.0027019717 0.0029447142 0.0070583215 -0.011849536 0.0036144706 0.0044243517 0.003923799
0.0061490466 -0.0017646983 0.0013014313 0.00029471732 0.0021805936 0.0025704359 -0.0016048125 -0.003307808
-0.0077755162 0.005429678 -0.0017411355 0.016442472 -0.013343586 -0.000934909 0.0056241537 0.003954698
0.01327832 -0.001744145 -0.0031146093 -0.02514354 0.0061970213 0.008339874 0.010142417 -0.0062641148
-0.029462457 0.0006819443 0.0025430624 0.007740132 -0.012821005 0.01814169 -0.0045289816 0.016082682
0.017732436 -0.0023986807 0.015758567 0.008757177 0.003914564 -0.003306156 -0.0022793121 -0.014999723
0.011122675 -0.0060412036 0.010668947 0.006359581 -0.015390319 3.6491256e-05 0.0046982933 -0.008896962
0.015864309 -0.0023434546 0.009711595 -0.0010969312 0.008410652 -0.0054449467 0.00325064 -0.011689918
-0.0015448891 -0.0004315245 0.0047529126 0.0043373406 -0.011254381 0.0067635807 0.0020042052 -0.003803244
0.014197382 -0.0008188666 0.002890734 -0.0033778206 0.010279578 -0.0074593537 0.0036740815 -0.014995634
-0.004110733 -0.0007737661 0.002606036 0.0044862474 -0.009703705 0.010781153 0.0018693925 -7.686876e-05
-0.030823285 0.017658148 -0.02172731 -0.026292678 -0.02363185 0.020208778 -0.011335198 0.029378228
-0.034760002 0.015654817 -0.017832672 0.005217044 0.013080456 -0.004578623 0.0073511247 0.037197117

nnenv.edge_prediction_h.out_layer.linear.bias f4 [10]
00000000: 1000 273b f691 0fba 3164 2f3c 782e e4ba
00000010: bf22 a0bb ae11 02bd cf0d b33c 49a0 cb3b
00000020: ce83 333a 2da2 63bd
0.0025482215 -0.0005476767 0.01070504 -0.0017408868 -0.0048869546 -0.031755142 0.02185717 0.006214176
0.00068479485 -0.055574585
