dptb/tests/data/mos2/mix.ep500.pth (torch, 499657 bytes, 64 tensors)

nnenv.embedding.descriptor.embedding_net.layers.0.layer.in_layer.weight f4 [40, 5]
00000000: 41c8 ad3e 3594 bc3e 85de d9bd efc1 d23e
00000010: f593 f4bd 58ea e93d a434 45be 8940 8f3e
00000020: 6072 db3e c8cf bfbe ec17 ca3e 6e6c a73d
00000030: c46a b13e 653f 5e3d f81e 913e a183 91bd
00000040: 9042 ac3e 3a91 753d cdcc 56be e15d 9b3d
00000050: 4ba9 49be 2ab6 30bd d0cf 31be 2729 a03e
00000060: 3879 d2be 2b08 63be 1d4e 06be 090c a6be
00000070: 359c 1e3c e0a7 afbe c1be ca3e 6d8e c7be
00000080: 10f4 ad3e 22cf 8d3d 715a 2dbe 9229 8d3e
00000090: 5d26 8c3d 1ee6 b83e 7fbb 483d c2d9 16be
000000a0: c521 e43d 41f4 02be 4b17 353e fcc3 ca3e
000000b0: 4826 703e a6d2 44be f547 853e c07e a93d
000000c0: d369 733e f94b 94be 94eb e5be 37ce 39be
000000d0: aca8 b1be df89 bd3e 64a2 9e3d 6904 3c3e
000000e0: 41d8 1e3e 272a 73bc c1a5 c33e d275 d1be
000000f0: 171a 223d e359 a0be 9568 233e b39f 10be
00000100: 857d 0a3e 8f87 a4bd aa4f c43e ff29 7fbe
00000110: bbde 70be 3e04 9ebe 97d7 d13e 53a3 1b3e
00000120: cfa1 e63e 1415 b0be df6e f8be c2fb b2be
00000130: 60f9 99be c2d9 3a3e 118f 223e f718 bf3e
00000140: 0373 6fbe 54b5 99be 3ec9 603e cf92 3fbe
00000150: 9adb 953e 01a3 e4bd 4a98 873e 4fd7 bcbe
00000160: 360e 48be 5360 a53d 7abd 983d ab96 09be
00000170: e8f6 7d3e 1b61 8b3e 3cf3 9abe ea29 7bbe
00000180: 773c ce3e e11c 1ebe 2fc0 26be 0829 f0be
00000190: fdd8 86be 0d5e e33d 3267 a1bd eb2c b1be
000001a0: 7120 153d cb95 a1be 70ae c6be fd73 82be
000001b0: 9d33 cebe ae94 94be 0390 dc3e 1c52 923d
000001c0: 31d4 ef3d 07de e9be fde8 82be 2fac 17be
000001d0: 0614 8d3d 9721 c7be f5d3 44be 5913 8abe
000001e0: f3d0 14bb dbd5 32be 374f c8bc 3cb7 99be
000001f0: 24dc b1be 69f7 8bbe 5eb2 2bbe 767e b9be
00000200: 8018 bc3e b373 f3bd 0647 c53e fc6e 0d3e
00000210: 1026 c0be 34dd a53e 5120 4abe 4f4d 36be
00000220: d23f c1be 28ad e5be 3f23 073e a495 e6bd
00000230: dd5b 1d3e f7f2 c5be 3910 9f3e 2b7a b2be
00000240: b345 c8bd 1e49 033e da93 863e dfb0 c83e
00000250: 8a00 e63e 8ca0 babe 215e dd3d e7ab 4abe
00000260: 9da7 4dbd d79a b1be 79e6 e33e e323 b6be
00000270: 95af 663e 1f20 f63d f265 213e 2cfc 97be
00000280: 91af be3e 7a7c 853d 6dbd c33c bdda e3be
00000290: cb39 883e 4e81 89bd 3bf4 52be 280e c83e
000002a0: 9b91 cc3d 5842 7ebe ae32 69be 0086 babc
000002b0: c3b4 7d3e 0d1c 0abe f9c5 42be 45a0 20be
000002c0: cef3 acbe 9c80 1f3e 4ec4 af3e 9002 debe
000002d0: e1be e83d eb68 733e 2f49 c33d 767f 1cbe
000002e0: 535a 7f3e 81c9 663e 28cd 1e3e 8880 a6bd
000002f0: 3796 11be 305d b63d bb60 90bd 247a f8bd
00000300: eecf 923e 3876 d13e 698f f6bd 9d5f 98bd
00000310: 6312 073d 22d5 20bb 9c03 0b3e 8200 e73d
0.33941844 0.36831823 -0.10638145 0.41163585 -0.11942283 0.11421651 -0.19258362 0.27978924
0.428607 -0.37463212 0.39471376 0.08174978 0.34651768 0.054259676 0.2834394 -0.07105184
0.33644533 0.059952952 -0.20976563 0.07586265 -0.19693486 -0.043142475 -0.1736443 0.31281397
-0.41108108 -0.22171085 -0.13115735 -0.32431057 0.009680797 -0.34307766 0.3959866 -0.3897585
0.33975267 0.06924273 -0.16929032 0.27570778 0.06843255 0.36113065 0.049006935 -0.14731506
0.111392535 -0.12788488 0.17684667 0.3960265 0.23452103 -0.19220981 0.2603146 0.08276129
0.23770837 -0.28964213 -0.44906294 -0.18145071 -0.34699 0.3701925 0.07745817 0.18361057
0.15512182 -0.014841593 0.38212398 -0.40910202 0.039575662 -0.31318578 0.15957864 -0.1412342
0.13524444 -0.08033668 0.3834203 -0.24918364 -0.23522465 -0.30862612 0.40984794 0.15199022
0.45045325 -0.3439108 -0.48522088 -0.349577 -0.3007307 0.1824713 0.15874888 0.37323734
-0.23383717 -0.30021155 0.21951768 -0.18708347 0.29269105 -0.11163903 0.26483375 -0.36883017
-0.19536671 0.08075013 0.07458015 -0.13436382 0.24801219 0.27222523 -0.30263698 -0.24527708
0.40280506 -0.15440704 -0.1628425 -0.46906304 -0.26337424 0.11101923 -0.07881011 -0.34604582
0.03640789 -0.31559595 -0.3880496 -0.25479117 -0.40273753 -0.29019684 0.43078622 0.07144567
0.11710394 -0.45677206 -0.2556838 -0.14811777 0.06888585 -0.38892815 -0.1922148 -0.26967886
-0.0022707551 -0.17464392 -0.024451835 -0.3002261 -0.34738266 -0.27337196 -0.1676726 -0.36229295
0.36737442 -0.11887302 0.3853075 0.13811868 -0.3752904 0.32395327 -0.1973889 -0.17802928
-0.37744004 -0.4485867 0.13197039 -0.112590104 0.15367074 -0.3866193 0.31067064 -0.34858832
-0.09778919 0.1282086 0.26284677 0.39197442 0.44922286 -0.36450613 0.10808969 -0.19792138
-0.050208677 -0.34688446 0.44511774 -0.35574254 0.22527917 0.12017845 0.15761545 -0.2968458
0.37243322 0.06517883 0.023894036 -0.44502822 0.26606593 -0.06714116 -0.20600979 0.390733
0.099887095 -0.24829996 -0.22773239 -0.022768974 0.24775986 -0.13487263 -0.19020833 -0.15686138
-0.33779758 0.15576404 0.34329456 -0.4336133 0.11364532 0.23770492 0.09535443 -0.15282997
0.249368 0.22537805 0.15507948 -0.08129984 -0.14217459 0.08904493 -0.070497 -0.121326715
0.28674263 0.40910506 -0.12039072 -0.07440112 0.03297652 -0.00245411 0.13575596 0.11279394

nnenv.embedding.descriptor.embedding_net.layers.0.layer.in_layer.bias f4 [40]
00000000: 8d36 d1be 4471 10be 66a8 c33e 1ef4 293e
00000010: c647 58bc 6e8f 91be 4254 90be e37b cdbe
00000020: 494b 1ebe e772 1d3e b3a4 8e3e 41be 513e
00000030: 9877 c5be 6cf0 82be 82f6 81bd ebb4 dd3e
00000040: 17bb 7f3d 5c19 f7bd 8f14 293e cf12 35be
00000050: a2a1 97be 49e2 a13e beb5 60be cc70 b6bd
00000060: 79eb e5be 30b5 923e cd8d ad3e 8ed4 1f3e
00000070: bb2f aabe 6a1b d0be b23f bcbe 6321 9d3e
00000080: 9e43 393e c597 c03e a9b3 6e3e fa3f e03d
00000090: d673 a83b 1b4d b3be f305 c0be 9f13 c9be
-0.4086193 -0.14105707 0.38214415 0.1659703 -0.013200706 -0.2842974 -0.28189284 -0.4013358
-0.15458407 0.15375863 0.2786003 0.20482732 -0.38567805 -0.25574052 -0.06345846 0.43302092
0.062434282 -0.12065384 0.16511749 -0.17682956 -0.29615504 0.31617954 -0.21944329 -0.08908233
-0.44906214 0.2865386 0.33897248 0.15608427 -0.3323954 -0.40645915 -0.36767346 0.30689535
0.180922 0.3761579 0.23310722 0.109497026 0.005140762 -0.35019764 -0.3750454 -0.39272782

nnenv.embedding.descriptor.embedding_net.layers.0.layer.out_layer.weight f4 [20, 40]
00000000: 2d75 2a3d e9d0 e1bd 8e32 23bd bb2e b7bd
00000010: 5e8a 95bd 2ed3 dabd 7a22 ccbd 12e9 243d
00000020: edb8 76bd 84f7 9f3d 5d1d 92bd b461 0abe
00000030: 346a 68bc b324 8ebd 8ff1 81bd ae93 1dbe
00000040: be2a e63d 7a02 c1bd 9694 763d 8a48 893d
00000050: e500 023e ae1f e0bd 72cc 023e a5cf 89bd
00000060: 181b 8c3d aeac 003e 6314 1bbd 7563 7dbb
00000070: 7dda bbbc 4aca 25be c4de c03d f291 31be
00000080: 9d0e 0a3e 7186 d23d 0bdd 0a3e 5491 8bbd
00000090: f02c d5bd f3f2 4e3d 043b 2e3d d1c0 17be
000000a0: a36f a4bd d736 21be 6229 0dbd 74ec a5bd
000000b0: f1a3 1dbe 46a0 1dbd 4b42 0abe 8efb 023e
000000c0: 6046 d43d 5c33 83bd 703d 70bd 3f15 d2bd
000000d0: e226 e7bd 3e32 0bbe 50f9 433d aec2 c4bd
000000e0: 2e11 5fbd 2c19 a43c d0ac babd d3e6 4dbd
000000f0: 60d9 103d 055a c6bb 8607 c7bc 5625 6ebd
00000100: 12a5 d5bd 4a74 b53d 2d2a c4bd 70a0 383d
00000110: ad9a cbbc 8c1b 3bbd 82a8 3c3e c468 233d
00000120: afd7 d9bd 8d93 fe3c 2b8c f73d d51b b4bc
00000130: 3344 fc3d f936 3f3e f9bc 83bd 9ca3 643d
00000140: d978 cbbd a263 bbbc e83c df3d 6760 823d
00000150: 19ac 88bd 5f66 e7bd be68 bebd 45a9 c3bd
00000160: 6d18 febd 3932 11bd 30f6 e43d 6d05 f33c
00000170: 9023 f3bd a735 f3bd 601f 823d 8c7c 05be
00000180: 1f0b fbbc 70f5 9e3d c474 8ebd 2607 7f3b
00000190: 14e2 39bc 3cee 03bd e0f4 9bbd 424f 07be
000001a0: a37f f8bd c947 9bbd 4404 1d3e e278 64bd
000001b0: 69f4 d4bd 3406 463d 70a7 293d 080b b33d
000001c0: 7936 813d 6e32 ae3d 9a98 22be 1e16 de3c
000001d0: 6f4f d43c bd23 36bc 9303 37bd 216e 1e3e
000001e0: 7e6b 7ebd a51f b5bd 4a57 1cbe 54a0 b3bb
000001f0: 1c3d b23d 7bf2 423d f93f 303d 8457 c8bd
00000200: c1f0 1ebe bbd5 49bb 3476 0d3e 3257 ae3d
00000210: 02ce abbd 969c 2ebc 0af5 dfbd af42 b4bd
00000220: 1e22 043d a2e0 bd3d c7e1 003e 6174 04be
00000230: eedf e83d 3314 d1bd cf50 8b3d b196 133e
00000240: 6a5c 443c b868 0f3e 4360 11be 4b1a 3ebd
00000250: 49ef cd3d 1e1c 0bbd 257c d4bc 4b79 95bd
00000260: 75a5 b23d 3b3f 8e3d 10b5 373d a645 aebd
00000270: ca6f 1cbe 0180 d03c 5f39 a43d bb33 84bd
00000280: 9853 44bb a63e 153e d451 fc3c 6214 063c
00000290: 5da6 763d 3047 23be bcbd 8abd 44a8 f73b
000002a0: 3a90 6cbd 8a0b a33d 4b3e 61bc 1d08 05bd
000002b0: 0ef5 023e 2d5d 143d f3f0 173e b4a4 75bd
000002c0: 95cb eebd e8a6 093d beb1 9ebd 70c0 f3bd
000002d0: 7868 fdbc 0187 a2bd 587a 11be 1131 9a3d
000002e0: a04d dd3d 102e 733d 3896 05bb 4486 21be
000002f0: 7a73 a5bd b9e3 ab3d 5939 3d3d c486 a13b
00000300: 345d b4bd dfd2 e53d f7cb d2bd acb3 0d3e
00000310: 510c aabd 11a2 b0bc 961b 6f3d da4b c13a
00000320: b59e 8cbd 88f8 c73d 7dae 54bc 9e30 ef3d
00000330: a953 ec3d 4dce 8cbd bcb2 d0bd 8f80 043e
00000340: dd57 e93d 2c32 0abe 8d4d e8bc 29db 2dbe
00000350: 411c f1bd c09b 1e3d cbb5 fd3c ca36 d43c
00000360: 2da5 8cbc 7376 1f3e 3478 273c f083 b1bd
00000370: 5a1e f63a ee4e 463d e194 883d f168 d3bd
00000380: 000e 8d3d 72e3 c8bd a578 13be e72b a4bd
00000390: bb5d 283e e322 ec3d 548e 1e3e cb29 a53d
000003a0: 9117 ea3d 5f83 01bd 51ac c4bd 0fd2 7e3d
000003b0: 2636 b7bd 0b6f c4bd 3440 b7bd 8d87 2c3d
000003c0: d6a6 113e 7a58 6abc 58f1 b1bd aed3 313c
000003d0: 0cbd fcbc e79e d8bd f7df ee3d ed12 993c
000003e0: 08c8 1e3e afef 393e 1fb9 9d3d 6f70 a23d
000003f0: 11b0 ad3c d6b9 3dbb c3df 923c 60f4 9c3b
0.041615654 -0.110261746 -0.039843135 -0.0894446 -0.07301782 -0.106848106 -0.099675134 0.040261336
-0.060234953 0.07810882 -0.07134507 -0.13513833 -0.014185477 -0.069405936 -0.06344902 -0.15388367
0.11238621 -0.094243005 0.060200296 0.06703289 0.12695654 -0.109435424 0.12773302 -0.06729058
0.06841105 0.12565872 -0.03786124 -0.0038664017 -0.022931332 -0.16190448 0.09417489 -0.1734083
0.13482137 0.10279549 0.13560884 -0.068148285 -0.10408962 0.050524663 0.04253675 -0.14819647
-0.080291055 -0.15743576 -0.034463294 -0.081017405 -0.1539457 -0.038482927 -0.13501851 0.12791273
0.103649855 -0.064062804 -0.05865234 -0.102579586 -0.11286713 -0.13593385 0.047845185 -0.09607445
-0.054459743 0.020031534 -0.091149926 -0.05026896 0.035363555 -0.0060532116 -0.02429558 -0.058141075
-0.10431875 0.08860071 -0.09578357 0.04507488 -0.024854029 -0.045680568 0.18423656 0.039894834
-0.106368415 0.031076217 0.12087282 -0.021985928 0.123176955 0.18673314 -0.06432528 0.055820093
-0.09935159 -0.022874657 0.10900289 0.063660435 -0.0667345 -0.112988226 -0.09297322 -0.0955377
-0.124070026 -0.035448287 0.11179769 0.029665673 -0.118720174 -0.11875468 0.063536406 -0.13035792
-0.030644951 0.07761657 -0.06955865 0.0038914173 -0.011345405 -0.03220962 -0.076150656 -0.13213828
-0.1213372 -0.07582051 0.15333658 -0.055779345 -0.1039818 0.04834576 0.041419446 0.087423384
0.06309218 0.085057124 -0.15878525 0.027110156 0.025916783 -0.011116919 -0.044681143 0.15471698
-0.06211423 -0.08843926 -0.15267673 -0.005481759 0.08703062 0.04759453 0.04302976 -0.09782317
-0.15521528 -0.003079756 0.13814622 0.08512725 -0.08388902 -0.01065745 -0.10935409 -0.088017814
0.0322591 0.09271361 0.12586127 -0.1293502 0.11370836 -0.10208931 0.068025224 0.14412953
0.011984924 0.14004791 -0.14196877 -0.046411794 0.10055406 -0.03396236 -0.025938103 -0.072985254
0.08722965 0.06945654 0.04485041 -0.08509378 -0.15277019 0.025451662 0.08018755 -0.06455179
-0.0029957052 0.1457468 0.030800737 0.008183571 0.06021725 -0.15945125 -0.0677447 0.0075579006
-0.057754733 0.07961185 -0.013747762 -0.03247844 0.12788793 0.03622167 0.14838009 -0.059971526
-0.11659924 0.03360644 -0.077487454 -0.11901939 -0.030933604 -0.07935906 -0.14206827 0.0752889
0.108058214 0.0593701 -0.0020383727 -0.15773875 -0.08078666 0.08393044 0.04619727 0.0049293954
-0.088068396 0.11221861 -0.102928095 0.1383807 -0.083031304 -0.021561654 0.058375917 0.0014747337
-0.068662085 0.097642004 -0.012981054 0.11679195 0.115393944 -0.06875286 -0.10190341 0.12939666
0.11393712 -0.13495702 -0.028357292 -0.16978134 -0.11772967 0.038722754 0.030970475 0.025905032
-0.017168606 0.15572529 0.01022153 -0.08667743 0.0018777356 0.048415117 0.066690214 -0.1032275
0.06887436 -0.09809007 -0.14401491 -0.08016186 0.16442005 0.115300916 0.15483981 0.08064612
0.11430276 -0.031619426 -0.09603179 0.062212046 -0.08945875 -0.09591492 -0.08947793 0.04212146
0.14223799 -0.014303321 -0.08688611 0.010853691 -0.030851863 -0.10577183 0.11663812 0.018685782
0.15505993 0.18157838 0.07701325 0.07931601 0.021202119 -0.0028949878 0.017928964 0.004789874

nnenv.embedding.descriptor.embedding_net.layers.0.layer.out_layer.bias f4 [20]
00000000: 666b 0cbe e945 cc3d 1039 7bbb 4684 c13c
00000010: 24b8 36bd 5920 abbd 2dc5 0a3d b8ac 723d
00000020: 6739 413d 09a6 74bd e3a4 033e aca7 95bc
00000030: f278 9bbd cc47 b7bd 29da 003e 42ca 11bd
00000040: 0b23 21bd 1025 33bd bf59 5ebd d110 13be
-0.13712844 0.09974272 -0.0038333572 0.023622643 -0.044609204 -0.08355779 0.033879448 0.05924675
0.047173884 -0.059728656 0.12855868 -0.018268429 -0.07591428 -0.08949241 0.12583221 -0.03559328
-0.03934006 -0.043736517 -0.054284807 -0.14361884

nnenv.embedding.descriptor.embedding_net.out_layer.weight f4 [10, 20]
00000000: acff 3cbe 8be0 ff3d 6a49 3b3e 24c3 583e
00000010: 168e 2fbe 0151 f23d 01f5 16be 221b 0c3e
00000020: c55a 033e 6c43 243e 7872 1e3e c687 023e
00000030: 988d 213c 7fe5 f73d 28b2 5abd 78ae ed3d
00000040: c9e1 c5bd 9142 c1bc 97f2 5fbe 3b86 a7bd
00000050: d657 fabd c434 9fbd 1a32 14be 6b6c 4ebe
00000060: 22e4 633c 85a7 113e a22b 4f3e a659 053e
00000070: 5957 f2bd 822f 64be c66d a73d 155e fb3d
00000080: ed05 45be 9e45 a43d 4222 423e 11f8 5c3c
00000090: ad4b 0fbe b1b1 383e 0d21 be3d bc73 ed3d
000000a0: 4980 13be fcca 0e3e 3f36 11be aec5 6c3e
000000b0: 5d94 a9bd 056f 133e f7e4 643d bbc2 903d
000000c0: 3465 64bc 3331 d53d 4a25 adbd 7912 4bbe
000000d0: ff0b 9bbd 84d8 3c3e 3ff0 48bd d910 a53d
000000e0: 7ca5 b5bd 6e54 393e 5bac fb3d 196f c13d
000000f0: 27b2 e6bd 9f33 2ebe ec22 c63c 4958 e7bd
00000100: b056 513e 9615 4dbe 03c9 f33d 95ea 7d3e
00000110: df48 fe3d 1885 be3d 7075 54be 29b2 6c3e
00000120: 4b6f 95bc 8c3b 3bbe bf6a 813e b061 81bd
00000130: 917f a2bd 958c 5d3e 3905 49be 6f1e 82be
00000140: 3a92 4c3d 3736 b0bc 133d 6b3d 826e 35be
00000150: f188 e13b d0e3 bbbd b2ad d9bd cbaf 4fbe
00000160: 5db4 fd3d 0cce 3d3d 3c51 34be 8d76 3a3e
00000170: 8f32 853d 6b89 213d f49b 07be 043b 113d
00000180: 7624 813e 7733 243e b7d7 1abe b162 753e
00000190: 76de 003c cc9f bb3d 711d 203e 399c 333e
000001a0: 110c 48be 8ddf 383e 8c73 2fbe 992b d7ba
000001b0: 972b 34be a806 8cbd ab13 acbc 4d5e 35bd
000001c0: b535 64bd 2e09 983a 0c1d 543e e960 ec3d
000001d0: dcad 083e 4719 903d fc11 3f3e 4e01 39bc
000001e0: 2790 df3c c359 663d 9d4a 3cbe 5fde 2bbe
000001f0: 426c 1d3d d1bb a2bd d7df 003c f4e2 32bd
00000200: aa7d 7d3d 9ad7 203e c3bc 7bbd abea 423e
00000210: 7d56 393e 0735 2ebe a464 30be 82c6 35be
00000220: 1574 b0bd e7af 8dbd 2079 b6ba e8af 5fbc
00000230: 646c f4bd 0ba1 9fbd 91b3 b3bd 9e62 593e
00000240: 6f7d b9bd 02e4 28be 1133 ad3d 772a 8cbc
00000250: 8d5e 203e 26b9 073e e99b 4a3e b81b 2ebe
00000260: 1134 0f3e 1644 3f3e 458f ddbd 1e3f 523e
00000270: 5460 123e 4bfc 0cbc 88ea c63d 6f05 d1bd
00000280: 2be8 48be ed26 7f3d 4b3c 9b3d 4b2b 0ebe
00000290: 722c f93d 0036 3cbe 7d05 503e 4aee 6a3e
000002a0: 43f0 993d 5bc2 03be cd8b e13d d1c7 463d
000002b0: 10bf 943d 6e14 af3d 7433 3c3e c27e acbd
000002c0: cfa9 9dbd ab2f 933d a9e1 103b 5ce0 1c3e
000002d0: 7930 fdbd 1414 8ebb fa0a 493d 230a 62bd
000002e0: fbd6 293e ca27 e63c 6a59 48be f74c 43bc
000002f0: 1485 b1bd 87f9 023d f85e dabc a546 59be
00000300: 64a5 e6bc 888b 17bc cd35 58bd bff1 5d3e
00000310: b866 b3bd ab5e 1b3e e45c f63c 1cc5 5fbe
-0.18456906 0.12494 0.18289724 0.2116819 -0.17144045 0.118318565 -0.14741899 0.13682225
0.12827595 0.16041344 0.15473354 0.12747106 0.009860419 0.1210432 -0.05339256 0.11605543
-0.09662206 -0.023591312 -0.21869884 -0.08179899 -0.122237846 -0.07773736 -0.14472237 -0.20158546
0.013909372 0.1422406 0.20231488 0.1302248 -0.118330665 -0.22283748 0.081752345 0.12273804
-0.19240542 0.08021091 0.18958381 0.013486878 -0.13993712 0.18036534 0.09283648 0.1159434
-0.14404406 0.1394462 -0.1418085 0.23122284 -0.08280251 0.1439782 0.05588242 0.07068392
-0.013940144 0.10409775 -0.08454378 -0.19831266 -0.075706474 0.18441969 -0.04905724 0.08059854
-0.08869454 0.18098614 0.122887336 0.09445018 -0.112644486 -0.1701188 0.024186574 -0.11296136
0.20443225 -0.20027766 0.11903574 0.24796517 0.12416243 0.09302729 -0.20747924 0.23114838
-0.018241545 -0.18284434 0.25276753 -0.063174605 -0.079344876 0.21635659 -0.19630899 -0.25413844
0.04994414 -0.021510227 0.05743129 -0.17717937 0.0068827798 -0.09174311 -0.10628833 -0.20281903
0.12387917 0.04633908 -0.17609113 0.18209286 0.06503784 0.039437693 -0.13243085 0.035456672
0.2522313 0.16035257 -0.15121351 0.23963429 0.007865539 0.09161338 0.15636231 0.17540063
-0.19535853 0.18054028 -0.17133921 -0.0016416191 -0.17594753 -0.06837207 -0.021005472 -0.044279385
-0.05571528 0.0011599415 0.20714206 0.11541922 0.13347572 0.07036071 0.18659204 -0.011291815
0.027290417 0.056237947 -0.18387838 -0.16784047 0.03843332 -0.079459794 0.007865868 -0.04367347
0.06188742 0.15707245 -0.061459314 0.19034831 0.18099399 -0.17012416 -0.17225891 -0.17751506
-0.08615891 -0.06918316 -0.0013921596 -0.013652779 -0.11934736 -0.077943884 -0.08774484 0.21229026
-0.09057128 -0.16493228 0.08457006 -0.017110093 0.15661068 0.13254222 0.19786038 -0.17002761
0.13984706 0.18678316 -0.10818342 0.2053189 0.14294559 -0.008605073 0.09712702 -0.102061145
-0.19619815 0.062292982 0.07579859 -0.13883702 0.121666804 -0.18379974 0.20314594 0.22942463
0.075165294 -0.1286711 0.11012993 0.048530404 0.07263005 0.085488185 0.18379003 -0.08422615
-0.07698404 0.07186826 0.002210716 0.15319961 -0.12362761 -0.0043358896 0.049082734 -0.05518545
0.16585915 0.028095145 -0.19565359 -0.011920205 -0.08667961 0.03197625 -0.026656613 -0.21218355
-0.028155036 -0.009249575 -0.052785683 0.2167425 -0.087598264 0.15172832 0.03007359 -0.21852535

nnenv.embedding.descriptor.embedding_net.out_layer.bias f4 [10]
00000000: a77d 393d ffd8 3b3e 5ff1 0abe 72b3 03be
00000010: 5d57 653e 19eb 253e d321 eabd 8e03 033e
00000020: dd50 9fbc 43ed 59be
0.045285847 0.18344496 -0.13568638 -0.12861422 0.22396608 0.16202964 -0.11432233 0.12794325
-0.019447738 -0.21281914

nnenv.node_prediction_h.layers.0.layer.in_layer.weight f4 [50, 100]
00000000: 2d4e 713b e573 ee3c 2b97 d6bc e950 133d
00000010: f01f b8bd 99c4 863d 6e0c b43d f58f 583d
00000020: 32bf 783c c265 163d 33bd 9abd 041a ddbc
00000030: 7f58 afbb 41d8 5fbd dd63 9dbd f1e3 843d
00000040: 90f5 8e3d 7ca3 bbbd c266 033d 3031 323d
00000050: 7a56 ca3d 3129 7e3d 20b2 bc3d eaf7 01bd
00000060: 1422 973d 9e7a ae3d 396a c8bd 9707 9ebd
00000070: b660 c03c 2ec0 273d f0ab 46bd 1dd0 443c
00000080: d84a 623a b71d 793d 553d 6cbd 38ba 603d
00000090: 3c3a 903d 1477 90bd 2f9f e63a cba8 603c
000000a0: c30e e33c f4aa b83d 3582 073d 336c dabc
000000b0: 0a6e bb3d fc26 27bd 64f3 d1bc 7fcc aa3b
000000c0: 55eb 9dbd e0d3 3f3c 0e1d 92bd ac91 013c
000000d0: 8c20 5c3c b093 493c 9959 b2bd a9ae c7bd
000000e0: 7dd5 443d 56d6 ac3d 4cf0 b7bd 8e00 223d
000000f0: e24e 91bd c67e 063c 4d85 b73d 1666 a33d
00000100: d2c1 8ebd 4fde 823d c248 543d 837a 723a
00000110: 84aa c83d 032f 2cbd 2b47 d1bc 1b4d 52bd
00000120: db56 8f3c 4276 cf3c 9d2b d03b 8b0d 6cbd
00000130: a8f8 33bd 6224 0d3d 06ae afbd fa84 60bc
00000140: 527b 82bb b4e4 24bd 2658 223d 111d ed3b
00000150: 12d2 8d3d c625 23bc 0ef9 7dbd 9898 943d
00000160: 5b9b a43c ae57 d9bc ed78 7ebd c724 d73c
00000170: 1f48 dfbd 72e8 223d eee8 4d3d 9081 aebd
00000180: ced3 8abd 0e68 8fbd 5274 b03d 7546 ae3d
00000190: 7b98 c1bb e0c2 a83d b36b d0bc a644 bcbd
000001a0: 8f38 c23c 0552 c63c f099 e13d 48db 43bc
000001b0: cc2b 813d d334 953d 9171 793d 7160 e0bd
000001c0: a985 c03d b12a 9cbd 7e2a c53d 6f5e 77bc
000001d0: 1335 9cbd 9cf5 8a3c d6a7 02bd b7ac 9ebd
000001e0: dc8c e7bc f3f9 b33c 40f6 c13d 6c03 9dbc
000001f0: a4f0 8d3d 17b8 b63c e04f 013c c110 ef3c
00000200: e836 5fbd 45d5 7abd 6e2d d7bc 996d acbd
00000210: bb99 0fbd f776 113d 1e0b c6bd 03e9 19bd
00000220: 9bc6 bbbc 24f3 01bc 8cd9 53bd 7821 203d
00000230: 9ee7 cebc c143 103d af5d 6c3c 636e a5bd
00000240: 974a 0cbc 79f7 3fbb 45df 43bd 7407 4a3b
00000250: 2d29 debb 81a9 123d ccf5 4b3c bed5 823d
00000260: c681 d43b 2855 8fbd 6ad1 2f3d 4a1b a0bd
00000270: b30c e6ba 6ca2 2fbd 35f2 48bd 3d34 e4bc
00000280: 9203 d53d 7287 8e3d 6b09 043d 7527 b63d
00000290: fbbc 9bbd 416a e63c 67ef 583d af0d a13d
000002a0: 8ecd 87bd 9e48 bf3c 3618 8dbd feb9 71bc
000002b0: 0941 31bc 9da6 a3bd bd14 cdbd 643d 9cbd
000002c0: f5e0 6b3d 78c0 0e3d 14e0 cabd 6217 e3bc
000002d0: 6d88 43bc 3cb5 c8bd 3531 8a3d 289f c03d
000002e0: 5b2f 933c b1ee aebd abe3 153d d563 c63c
000002f0: f0c6 843d b1ea 2abd 9ccf 9fbd 2782 663d
00000300: 6b40 e63c 44b1 df3a b1e2 37bd c0c0 2dbd
00000310: 3cb8 8c3d e529 f3bb 7e36 ab3d 9d22 c93d
00000320: 3ad8 093d 8635 283d c461 c7bc b8ad 813d
00000330: 78f3 8fbd b4a7 6e3d 46ef 12bd 2fe2 833d
00000340: fdbc ac3c a811 66bd 76f6 123c 7852 923d
00000350: 1869 b9bd e808 9bbd c9f4 b6bb 8795 9cbc
00000360: 315d a23c 9636 ab3d 851b e33b b8e7 993d
00000370: 30ef 72bd a318 9ebd b2bc 8dbd 637e babd
00000380: f4a2 b6bd b9cc dcbd f427 b7bd 9a9b f63b
00000390: 04c3 273d 3a33 923d 8f77 a33d 3d81 95bc
000003a0: fcd7 34bb 7e4c 9bbd d870 5e3d 8168 d4bd
000003b0: 642a 4e3d c191 4e3c 01d4 d23c d05f 223c
000003c0: 37bb d5bc 1b2e d23d b39f ea3c c897 a63d
000003d0: 16e3 b33b f103 9b3d f514 393d abad 6f3d
000003e0: 0e12 bc3d b8de cdbc a88b ac3d bba6 243d
000003f0: a9d0 293d f56f b73d 5a8e 113d e4e3 a8bc
0.0036820278 0.029107997 -0.02619513 0.035965834 -0.089904666 0.06580467 0.08791433 0.052871663
0.015182303 0.036718138 -0.07555618 -0.026989944 -0.0053511257 -0.054649595 -0.07685063 0.06488789
0.06980431 -0.091620415 0.03208042 0.04350394 0.09879775 0.062051002 0.09213662 -0.03173057
0.07379547 0.08519481 -0.09785885 -0.077162914 0.023483615 0.04095476 -0.048503816 0.012012509
0.00086323684 0.060819354 -0.05767568 0.054865092 0.07042357 -0.07053962 0.0017595048 0.013712118
0.027717 0.09016982 0.03308316 -0.026662922 0.09151848 -0.040808663 -0.025628753 0.005212366
-0.07710902 0.01170823 -0.07134448 0.007908266 0.013435494 0.012303278 -0.08708496 -0.09750111
0.04805516 0.08439319 -0.0898138 0.03955131 -0.07095124 0.008208936 0.08960972 0.07978456
-0.06970562 0.06390058 0.0518272 0.0009249823 0.09798148 -0.04203702 -0.02554663 -0.051343065
0.01749747 0.025324944 0.0063528554 -0.057630103 -0.04393831 0.034458525 -0.08578114 -0.013703579
-0.003981986 -0.04025717 0.039634846 0.007236131 0.06924833 -0.009957736 -0.062005095 0.072556674
0.02009361 -0.026531067 -0.062127043 0.026262654 -0.10902428 0.03977246 0.050270967 -0.08520806
-0.0677868 -0.07002269 0.08615936 0.08509532 -0.0059080697 0.082402945 -0.02544198 -0.09192781
0.02370861 0.024209032 0.110156894 -0.011954136 0.06307182 0.07285466 0.06089932 -0.10955895
0.09400494 -0.0762533 0.09627245 -0.015098198 -0.076273106 0.016962819 -0.031898342 -0.077477865
-0.02826541 0.021969771 0.094707966 -0.01916667 0.06930664 0.022304578 0.007892579 0.029182794
-0.054495722 -0.061238546 -0.02626678 -0.084193416 -0.03505872 0.035513844 -0.09670089 -0.037575733
-0.02292185 -0.007931504 -0.05172114 0.03909442 -0.025256928 0.035220865 0.014426633 -0.08077695
-0.0085627055 -0.0029291792 -0.04782035 0.0030827196 -0.006779811 0.035806183 0.012448739 0.06388424
0.0064851968 -0.06998664 0.042924322 -0.07817705 -0.0017551392 -0.042879507 -0.04905911 -0.02785694
0.104010716 0.06959428 0.032235544 0.088942446 -0.076044045 0.028126838 0.052962687 0.07863938
-0.06631003 0.023350056 -0.068893835 -0.014753817 -0.010818728 -0.07990763 -0.10013721 -0.07628897
0.057587583 0.03485152 -0.09906021 -0.02772111 -0.011934382 -0.09800193 0.06747667 0.09405357
0.017966917 -0.085416205 0.036594074 0.024217525 0.06483257 -0.041727725 -0.0780327 0.056276467
0.028106889 0.0017066379 -0.044893924 -0.04242015 0.068710774 -0.0074207657 0.08360003 0.09821055
0.033653475 0.04106667 -0.02433861 0.06331962 -0.0702886 0.058265403 -0.03587272 0.064396255
0.02108621 -0.056169182 0.008969894 0.07144636 -0.09053248 -0.07570058 -0.00558338 -0.019114269
0.019819828 0.08360021 0.006930771 0.075149 -0.05931014 -0.07719543 -0.069207564 -0.091061376
-0.089177996 -0.10781235 -0.08943167 0.0075258734 0.040957466 0.07138677 0.07981788 -0.018250102
-0.0027594557 -0.07582949 0.054306835 -0.10371495 0.050333396 0.012607993 0.025735857 0.009910539
-0.026090248 0.102627 0.028640604 0.08134419 0.0054897172 0.07569111 0.045186 0.058515232
0.09183131 -0.025130615 0.08425075 0.04019807 0.04145876 0.08956901 0.035536148 -0.02061648

nnenv.node_prediction_h.layers.0.layer.in_layer.bias f4 [50]
00000000: 4fb7 9e3d 19e4 4cbc dc3c 44bd 01fc 9e3d
00000010: 60c9 8f3d 8fcf 903d 9679 8ebb 4499 b63c
00000020: 9067 263c 8540 66bd 6746 c3bd 9f58 043b
00000030: 3a9c 453d 7c33 603d 7ad7 b03c 148d 093d
00000040: 3a76 7e3d 132b 02b8 3466 863d 044b 5f3b
00000050: 4a97 d5bc 852f 48bd 4412 6cbd f0d3 98bd
00000060: 9186 183d 59fd c23d e74d 803b 4a14 6b3c
00000070: 9603 c9bc d321 e3bc 2e31 9fbc 042f 443d
00000080: c67e 813c 956a 61bd f691 7f3c ebf1 a8bc
00000090: dc93 38bc b1c5 523d fe64 04bd 5039 ae3d
000000a0: dcd8 41bd 34f6 9a3d 9d59 353d 54da 0a3d
000000b0: f837 65bc 607e 00bd 9df0 6bbd 1965 cbbd
000000c0: d4e6 843d f774 be3d
0.07749807 -0.012505555 -0.047909603 0.0776291 0.07020831 0.07070839 -0.0043479903 0.02228988
0.010156527 -0.056213874 -0.095349126 0.0020194424 0.048244692 0.0547366 0.021587122 0.03358181
0.06212447 -3.103453e-05 0.065624624 0.0034071812 -0.026073117 -0.048873443 -0.057634607 -0.07462299
0.037237708 0.095209785 0.0039155367 0.014348099 -0.024537843 -0.02772609 -0.01943263 0.0478964
0.01580752 -0.055033285 0.015598765 -0.020623168 -0.011265721 0.051458064 -0.032322876 0.08507025
-0.047325954 0.07566491 0.044274915 0.03389962 -0.013990395 -0.03137052 -0.057602514 -0.09931392
0.064893395 0.09299653

nnenv.node_prediction_h.layers.0.layer.out_layer.weight f4 [50, 50]
00000000: 1ed3 1b3d 9b7c 32bd 6c9e 313c b406 3abc
00000010: 6072 f8bd 7c7b f1bd 571b 3c3d cff5 35bd
00000020: b258 0ebd fd61 94bd 3dd6 833d 65d7 96bd
00000030: c153 1ebd b7c9 973d ccd8 083e 1516 043e
00000040: c484 593d f34c c43b 8c3c e93d 4a7a 083e
00000050: cfe2 a83d 2ab8 1e3d a3e1 ce3c 2eff 953c
00000060: ec3f b63d fbf0 183d a7c9 f7bd 8f18 a7bd
00000070: 432e 08be eee4 21bd 42f6 733b eb24 70bd
00000080: 9162 07be 1bb0 b7bd 817a 663d 70c4 c4bb
00000090: 6c9d d5bc e94c bb3c 93e8 e0bc 3724 a4bd
000000a0: fd00 8cbd 33ec 69bd cafc 02be 9836 e8bd
000000b0: f73b 4ebd a9db 463d 0238 ec3d a191 4fba
000000c0: 1503 bf3d fa19 323d d8c4 dfbd 5404 b6bd
000000d0: 5502 6fbc 3531 dfbd 983a a63c 1a85 223d
000000e0: fa2a d6bd d82e d0bc 66f2 f9bd 055c f43d
000000f0: bb4c a43d e119 48bd 4e7b f13d b572 b0bd
00000100: 8ca6 fa3d 1ae5 6bbd 766a 3e3d 00e1 c73d
00000110: 3ccc 7f3d b8c0 ef3c 8fe2 03bd eea1 7f3b
00000120: 8ed3 013e 730d 54bd 99d1 12bd affd b63c
00000130: a0a8 8abd a11c 55bd 9258 8a3c 96a6 d03d
00000140: 477c 573d d8b1 bcbd 23c0 a83d 6466 6fbd
00000150: 6c99 2a3d de7a f73a d755 d23d a53f 08bd
00000160: c4dd 76bd b1b0 c0bc fb39 ca3a 8e13 87bd
00000170: f2b0 c03d 873b abbd d67d 973c a885 d1bd
00000180: e154 243c fb51 14bd f506 51bd 7d3e a13d
00000190: ff6f 08be f9f0 913c 5493 cabc 1e45 b1bd
000001a0: 3d52 dd3d 907d a63d 62a4 2e3d 6c99 ca3a
000001b0: 6ae6 a23d 6edf eabc f9d1 e2bd 9c28 093e
000001c0: 4fe6 4bbd d21d d13c fa6f 36bb d2be 023e
000001d0: 8c37 0e3e 5058 c2bd f13d 5c3c 8a80 fabd
000001e0: 8564 d83d c189 0a3e 6107 90bd d3eb ee3c
000001f0: 1b42 12bd 195b 1bbd 4934 d83d a955 06be
00000200: 477e 94bc adad ee39 5711 00be a406 433d
00000210: 9dd0 db3d 63cb ddbd 00a8 603d 01d4 d5bb
00000220: 2b6e 073e 71db 07be d147 fb3d 6d99 62bd
00000230: 1776 eb3d e8b1 99bd b201 d23c 0390 2f3d
00000240: e26d af3d 28d7 7f3d 0d04 8a3d 55f0 d8bc
00000250: e026 e9bd fd29 5fbb 2569 0a3e 7299 093e
00000260: 6cf3 91bd cad1 de3d bfea 863d 1ea8 93bc
00000270: 8b81 a23d b2b3 3dbb a344 643c e0aa e3bd
00000280: fa64 b3bc 78ce 103e 1e66 a13d 40d1 e1bd
00000290: f550 3abb dbfd af3d 361d 6cbd b20d acbc
000002a0: caac 653d 4ee4 023e fa92 f43d 8d7f ccbd
000002b0: 4801 f9bd 5837 c43d d9be eb3a f818 073e
000002c0: b593 db3d be49 63bd 1bea 1a3d 2663 363d
000002d0: 4f06 47bd b0db 063e 06cb a138 3b4f 47bd
000002e0: 31bd 01be f9f4 e03d 6a6e 0bbe f961 e23d
000002f0: a802 5cbd 56c6 b5bc 67d0 a93c 4617 123e
00000300: d5d6 c8bd e712 fdbd 508d aa3d 9ab0 83bd
00000310: 2fb1 2dbd d8cd a03d 77c2 63bd 0681 b63d
00000320: 5df3 58bd f50a bf3d c7f4 253e b0a2 e33c
00000330: 2f11 3dbd 15da ae3d e62e 2c3d 1d23 293b
00000340: a89e 013e 6a96 03bd 4093 3f3d 84d7 23bd
00000350: 2fd6 fabc 41d4 babb ab2d 493c 9f27 603d
00000360: 9445 e03d f59c b33d bc1a 88bd 99b5 f83d
00000370: c09b a73d d7c8 543d 8497 cf3c be7e abbd
00000380: 20ad 97bd 4642 7b3b c46e d5bd 00fe 423d
00000390: 9768 febd a157 03be a387 6cbd 831b a83d
000003a0: bb1d df3d 9c66 00be 38d5 b0bd 3ae3 db3c
000003b0: f0e3 b5bc d32f f2bd 8201 1b3d 2b3b ecbd
000003c0: d4a4 393c c3e3 6a3d b751 033e 7716 02be
000003d0: cffc d53d 343e c93c e216 173e b98c 0b3e
000003e0: fd4f 03bd bfb0 9bbc 1652 17bd 6567 ec3d
000003f0: f268 a2bd e536 b23d 8205 693d 8525 013e
0.038043134 -0.043575864 0.010840993 -0.011354137 -0.1213119 -0.11791131 0.04592451 -0.044423874
-0.034752555 -0.07245252 0.06437347 -0.07365302 -0.038654093 0.07411521 0.13363951 0.12899049
0.05310513 0.0059906184 0.113885015 0.133279 0.08246385 0.03874985 0.025254076 0.018310156
0.08898911 0.037339192 -0.12099009 -0.08158981 -0.13298897 -0.039524965 0.0037225639 -0.058628958
-0.13221194 -0.08969136 0.056269173 -0.0060048625 -0.026076041 0.022863822 -0.02745465 -0.0801472
-0.06836126 -0.057110023 -0.12791744 -0.11338538 -0.050350156 0.048549328 0.1153412 -0.0007918124
0.0932676 0.043481804 -0.10926217 -0.08887544 -0.014587958 -0.10898057 0.020291612 0.039677717
-0.10457416 -0.025412962 -0.12204437 0.11931614 0.08022448 -0.048852805 0.11791097 -0.08615629
0.122387975 -0.057591535 0.046488248 0.09759712 0.062450632 0.0292667 -0.032198485 0.003900643
0.12678358 -0.05177064 -0.03584442 0.022337763 -0.06770444 -0.052029256 0.016887937 0.10188024
0.052608754 -0.092136085 0.08239772 -0.058447257 0.04165022 0.0018881222 0.10270279 -0.03326382
-0.060270086 -0.023521753 0.0015428656 -0.06595527 0.0940875 -0.08360963 0.01849262 -0.10230571
0.010030002 -0.036210995 -0.051032025 0.07873247 -0.13323973 0.0178151 -0.024728455 -0.08655761
0.10806701 0.08129418 0.042637236 0.00154571 0.07954104 -0.028670993 -0.11075205 0.13394397
-0.049780186 0.025526915 -0.002783774 0.12768105 0.13888377 -0.094895005 0.013442502 -0.12231548
0.105660476 0.13529111 -0.070326574 0.029165184 -0.035707574 -0.037928674 0.105568476 -0.13118614
-0.01812662 0.00045524296 -0.12506615 0.047613755 0.10733149 -0.108298086 0.054847717 -0.006525517
0.1322562 -0.13267304 0.12269557 -0.0553221 0.11497133 -0.07504636 0.025635574 0.04286195
0.0856588 0.06246105 0.06739054 -0.026481787 -0.11384368 -0.0034052127 0.13516672 0.13437441
-0.07126507 0.10879858 0.06587743 -0.0180245 0.079348646 -0.0028946218 0.01393238 -0.11116576
-0.021898735 0.14141262 0.078808054 -0.110262394 -0.0028429602 0.08593341 -0.057645045 -0.021002624
0.056072988 0.12782404 0.11942096 -0.09985266 -0.121584475 0.095808685 0.0017985954 0.13193119
0.10721532 -0.055490248 0.037820917 0.04452815 -0.04859 0.13169742 7.714894e-05 -0.048659544
-0.12669827 0.10984225 -0.13616338 0.11053843 -0.05371347 -0.0221893 0.020729257 0.1426669
-0.09806601 -0.12357121 0.083277345 -0.064301684 -0.042405304 0.078517616 -0.055605378 0.08911328
-0.052966464 0.09328262 0.16206656 0.027787536 -0.046158966 0.085376896 0.042036913 0.0025808283
0.12658179 -0.032125868 0.046771288 -0.040000454 -0.030619709 -0.005701572 0.0122789545 0.054725286
0.10950771 0.087701716 -0.06645724 0.12144012 0.08184004 0.05194935 0.025340803 -0.083737835
-0.07406068 0.0038339063 -0.104215175 0.047605515 -0.12422293 -0.12826397 -0.05774654 0.082083724
0.108943425 -0.12539142 -0.08634418 0.026841749 -0.022203416 -0.11825528 0.037843235 -0.11534723
0.011330802 0.057346117 0.1282414 -0.12703882 0.1044861 0.024565794 0.14754823 0.136279
-0.032058705 -0.019005178 -0.036943518 0.115431584 -0.07930173 0.087018766 0.05689002 0.12611969

nnenv.node_prediction_h.layers.0.layer.out_layer.bias f4 [50]
00000000: d48d 223d a6dc cabd beb9 fdbd ffee 94b8
00000010: cdb5 213d fa3e bbbd 8ed5 55bd 5e7c 983d
00000020: 4e84 b0bd d8dd debd 3b59 33bd ccc2 e53d
00000030: ba20 f1bc c88d a2bd 031b c6bd 2ec4 51bd
00000040: 203a ae3d 9cda 703d 7133 31bd 9cf7 e5bd
00000050: 8ab2 a2bd 5848 073d 979b e13d 4aba 893d
00000060: 0cd4 83bc 0051 923d 5854 543c 263f 833c
00000070: 17aa 603d 07d9 ffbc e04d 303d f48e 0fbc
00000080: e3e5 3c3d c431 0dbd 2014 963d 59b3 10be
00000090: fbaf aa3d 2f28 dbbd 333a b1bd 1fa7 afbd
000000a0: 00c3 87bc cccb 933a 7be8 01be d1fa 943d
000000b0: 7809 ff3c f4ff 063e 4957 c0bd 9c47 e1bd
000000c0: bc86 0a3d 5314 da3d
0.03968604 -0.099053666 -0.12388943 -7.1017064e-05 0.03948002 -0.09142871 -0.052205615 0.07445596
-0.08618985 -0.10882157 -0.04378627 0.11218795 -0.02943455 -0.07937199 -0.09673121 -0.051212482
0.0850718 0.058802232 -0.04326195 -0.11228868 -0.0794421 0.033027977 0.110160045 0.06724985
-0.016092323 0.07144356 0.012959562 0.016021322 0.05484971 -0.031231416 0.043043017 -0.00876211
0.046117675 -0.03447129 0.07328057 -0.14130916 0.08334347 -0.10701024 -0.08653679 -0.08576798
-0.016572475 0.0011275946 -0.1268634 0.07274402 0.031132445 0.13183576 -0.09391648 -0.109999865
0.0338199 0.10648408

nnenv.node_prediction_h.out_layer.linear.weight f4 [3, 50]
00000000: 27cd 88b9 50ca 7cbb ae21 4cbb 04f7 4e3b
00000010: 094f ecbb 871e 1c3a bbe1 2fbb 6b59 713a
00000020: 41af dfb9 4a30 b239 1b14 e53b 9e0b f7ba
00000030: 4ae7 cdbb d40c 59bb fb3a 1eba 4c9d 46bb
00000040: ac7c 133c 12e6 d9bb c3af dd3a 826f fd39
00000050: 000a 9cbc 3c23 1fbb 23cc 3e39 b891 1c3b
00000060: 6c4d aeb9 c095 373a 2306 3ebb 6621 923a
00000070: 8178 eb3b 83a2 46ba a05c 913a bc25 f13c
00000080: 4acc 95b9 d2bc 343d 605a b13b 35fc a33a
00000090: eccf d23a a34e 6abb f388 473b 873b ba3a
000000a0: 3adc 173a 0926 b5bb b08a 7aba 4413 ecb8
000000b0: 3859 9339 e266 cf3b 1806 ee3a 95b5 153a
000000c0: a5a0 72bb f16c 16ba 2a44 cebb 5f12 b23b
000000d0: 33e9 ef3a 13d4 5d3b 39ca d1ba 2863 80bb
000000e0: ae5e ed3b 339f 9fbb a7f9 b03b a4b0 aa3b
000000f0: c59a 723b 5ca7 e0bb edb1 5b3b d1d6 0b3c
00000100: 7ce5 0a3c f2e9 3dbc 00c5 ebbb 0543 873b
00000110: e40d d23b ecde f43b 384b c13b 7c93 bb3b
00000120: 5720 d5bb 5c27 d5ba 4b44 823b a1eb bdbb
00000130: d910 9d3b 40e9 d8bb 53e1 e1bb dd7c cf3b
00000140: b72e af3b b777 8e3b d111 c03b 5ab1 ed3c
00000150: ac69 34bb 8da8 a3bb f960 bdbb 0b4a b53b
00000160: da20 cc3b 1486 8e3b 31f3 eabb ecd9 7d3b
00000170: 173a 8a3b d9fe 86bb e806 00bc f1c6 c6bb
00000180: ffdb fc3b 402d 043c 14bf 3bbb a92c cdbb
00000190: 5523 cfbb 895e ea3b cde8 e93c ca34 b5bc
000001a0: 322c c8b9 261a c8bb 55e9 ea3b 8416 0ebc
000001b0: af0e 0a3c 4f19 0a3c 0921 f73b 028e 15bc
000001c0: 3f6a 993b 6e30 193c 4b33 e93b 8d02 36bb
000001d0: dad9 41bc 2548 233c f14e 3c3c ed09 173c
000001e0: 135a 033c ff9c 6a3c 8f78 12bc 2c27 88bc
000001f0: 9aab 143c 0d2b dabb 8b59 d13b b377 dabb
00000200: 4f97 dfbb 574e 043c faec 02ba 8e8c ce3b
00000210: e5d3 9d3b 9e1c f6bb d4e8 d0bb 5292 d93c
00000220: fe1b c1bb 6d4c 453c 9984 dc3b f75f 0c3c
00000230: df72 c1bb c2b5 c13b d3b9 d03b aa74 b7bb
00000240: 01d6 1abc dc5b 10bc c251 883b bdd6 0f3c
00000250: 8bea d63b a739 21bc
-0.00026092792 -0.0038572736 -0.0031148004 0.0031580338 -0.00721157 0.00059554767 -0.0026837427 0.0009206745
-0.0004266445 0.00033986784 0.006990922 -0.0018848067 -0.0062836753 -0.0033119218 -0.00060360105 -0.0030306159
0.009001892 -0.006649741 0.0016913343 0.00048339 -0.019047737 -0.0024282476 0.00018195859 0.0023890566
-0.0003324555 0.00070032105 -0.0028995357 0.001114887 0.007185996 -0.0007577317 0.0011090226 0.029436938
-0.00028571702 0.044125386 0.005412385 0.0012511077 0.0016083694 -0.0035752438 0.0030446618 0.0014208414
0.0005793009 -0.005528216 -0.0009557409 -0.000112569454 0.00028104498 0.0063294033 0.0018159775 0.0005710957
-0.003702202 -0.00057382794 -0.006294747 0.005434319 0.0018303752 0.003384833 -0.0016005702 -0.0039180703
0.0072439527 -0.004871273 0.0054008546 0.0052090455 0.003701852 -0.0068558883 0.00335228 0.008535103
0.008477565 -0.011591421 -0.007195115 0.0041278624 0.0064103473 0.0074728634 0.0058988594 0.0057243686
-0.0065040994 -0.001626234 0.0039754263 -0.0057959114 0.004793268 -0.0066196024 -0.006893316 0.0063320235
0.005346145 0.004347767 0.005861499 0.029015232 -0.0027528806 -0.004994458 -0.0057793823 0.0055325083
0.006229502 0.0043494795 -0.007170104 0.0038734628 0.0042183506 -0.0041197357 -0.007814147 -0.006066196
0.0077166553 0.008067429 -0.0028647827 -0.0062614274 -0.0063213506 0.0071523828 0.02855339 -0.022119898
-0.000381799 -0.0061066328 0.0071689286 -0.00867236 0.008426352 0.008428886 0.00754178 -0.009128096
0.004681855 0.009349925 0.0071167103 -0.0027772516 -0.011831725 0.009965931 0.0114934305 0.009218675
0.008017081 0.014319657 -0.008939876 -0.016620241 0.009074116 -0.006657964 0.006388848 -0.0066671013
-0.0068234573 0.008075318 -0.00049944187 0.0063033765 0.0048165196 -0.0075107357 -0.0063754115 0.026559029
-0.0058932295 0.012042147 0.006729674 0.008567802 -0.0059035863 0.00591156 0.006369808 -0.0055986242
-0.009450437 -0.0088109635 0.004160137 0.008779225 0.0065587214 -0.009840406

nnenv.node_prediction_h.out_layer.linear.bias f4 [3]
00000000: b908 be3a e7ba eebb c883 2abc
0.0014498449 -0.007285464 -0.010407396

nnenv.edge_prediction_h.layers.0.layer.in_layer.weight f4 [50, 101]
00000000: 3b48 963d 4b87 c43d fdec ab3d f8d2 ae3d
00000010: f336 be3d 736c c63c be44 643d bf47 9a3d
00000020: 14d9 a9bc 2a6c 303d 1e15 b63c 00de d9bc
00000030: c00d 6c3d 0fc4 c13c fd8e a53d 5f6e f53c
00000040: 2210 543c 7475 923d 9b94 2ebc a23d 4f3d
00000050: b907 86bd 43dd febc fcec cbbc b401 f83c
00000060: 2eaa e53c 4b60 a83d 2d3c 9bbd bad1 d3bc
00000070: c2ca eabc 17cd 0f3d f0ae e03d 7344 ba3c
00000080: ff8a f3bd ab5d 99bd 5118 323d 0f48 abbd
00000090: 27c8 3fbd 4ae6 86bd 4014 7a3d 6387 4ebd
000000a0: d163 87bd fdeb 8b3d 3711 d5bd 23c8 7d3c
000000b0: 8594 8b3d 6fba 453d 1c03 d3bd 3f4e 363c
000000c0: 72ab 46bc 65d8 593d 6fae da3d 811c bf3d
000000d0: a8c4 bebc be3f 4c3d d469 cbbd bd72 b13d
000000e0: 0d73 183d 7bec 70bd 31cd 85bc d85d 34bd
000000f0: e9b9 a4bd 0a7f c63c 0775 52bd cfc7 ef3c
00000100: 28c0 40bd f073 7c3d 4cd7 b3bc 4780 1bbd
00000110: cf94 62bd f7e3 6e3c c398 72bc 8c13 6ebd
00000120: ab7f e6bd 45a8 903d 049c 683c bf3c 58bd
00000130: ee8d fc3c 802e d93c 4a28 7abc 7688 7cbc
00000140: 5d53 203d 0ffe ae3d d604 e5bd 43a3 89bd
00000150: f2cc 9ebd 3685 86bd b596 c2bc a87a 9b3d
00000160: ecd1 703d 8dd0 ed3c a192 14ba 1b39 57bc
00000170: 1165 0bbe e033 553d 2920 d73d 36e6 c1bb
00000180: 3e2e e53c a11f 1c3c 3fc8 ae3d 2f52 92bc
00000190: 6e74 52bc fa1b 5abd b8f5 c63c 2579 383d
000001a0: db8a e9bd 8f55 393d 2e32 003d a37c 2e3d
000001b0: a353 523d 3a4a f2bc 17aa a23b 9bbc 91bd
000001c0: b764 723d 2951 abbd 96ad d1bd 47fe 86bd
000001d0: e96e 50bd a4ce 643b f550 8b3d 5b63 9fbc
000001e0: 6dbc 883d 1007 8cbc 79ee ac3d 69d9 863d
000001f0: 5c6c 793d 0f98 1c3d ad6f 8bbd 5b78 cb3d
00000200: f5d5 c4bd ce19 91bd c618 75bd bba0 66bd
00000210: 8671 e63c 33d7 983c 9b8c 77bd 2413 4b3d
00000220: 0b21 953d 1d06 8e3d 1265 01be b367 be3c
00000230: da2e af3d b40e 8fba 5995 9abd 6dc0 a73d
00000240: ca22 9cbd 1dde 14bd fffa c53d f809 0a3d
00000250: 1c05 583d e2e7 ab3d a34f d53b b534 79bc
00000260: c49d 4fbc 234d a63d d93e c3bc 5286 81bd
00000270: 9083 6fbd 0a18 a4bd a922 aa3c 73be a53d
00000280: 9963 3d3d 5102 cb3c 6720 053d c380 39bd
00000290: b242 e83d bc6c 063d 0ebe 8abd 324c 80bd
000002a0: 1265 bdbd af93 debc 9955 a33d 10be 2c3c
000002b0: e6fd 35bd 2759 d73c 899e c8bd f086 593d
000002c0: 5531 a23d 9083 383d 959d 9fbc 0bd8 f7bc
000002d0: bd2d e13c 2198 653d d0bd fbbc ff6a adba
000002e0: 5d73 32bd 22f9 013c ff1b a4bd 94ce a5bd
000002f0: 3d16 b63d 66f2 8bbd 301c 833d 0d9f 5a3d
00000300: 4b61 a2bc 3af2 43bd 469c 773d cdf8 39bd
00000310: ba1d 94bd c35c d43d e8fd b2bc 1f95 cbbc
00000320: eb70 0ebd 3622 c43c 828a 023d d06f de3d
00000330: 9710 04bd 691f f63d 0b26 9fbc 51f6 4a3d
00000340: 0f96 60bc a6e0 31bc 7319 7e3d 22a0 e2bc
00000350: 4bf9 903d 224d a4bd eb88 a1bd aae8 f23d
00000360: e966 6bbd 2017 aabd 1499 aabd 8e8a c63d
00000370: 5e4e 2cbb 04d5 9ebd 95ec 81bc d493 65bd
00000380: bc02 b5bd 4d8d a9bd c4a4 9d3d e3a9 1f3d
00000390: 4b4a d93c 3c07 5c3b 7a38 4bbd f2df c0bd
000003a0: 7430 28bb b4f0 44bd 9888 f5bd 0065 7bbd
000003b0: 3b9f 2e3e ddb9 023e 68be 2cbd 3829 3d3d
000003c0: a481 5f3d 3e4c b5bd 2fe6 23bd 6d07 61bd
000003d0: d36d d3bc b6fb ac3c 4644 4dbe 2524 c7bd
000003e0: 3133 0a3c 1a91 fbbd 050e 6bbc 0fcf fb3c
000003f0: 6c75 be3d a126 bcbd 6b85 5e3d 2f67 aabb
0.073379956 0.095961176 0.08394811 0.08536333 0.092878245 0.024221634 0.05572962 0.07533216
-0.020733394 0.043071903 0.022226866 -0.026595116 0.0576303 0.023653058 0.080839135 0.029959856
0.0129432995 0.07151309 -0.0106555475 0.050595887 -0.06544442 -0.031111365 -0.024893276 0.03027425
0.02803525 0.082214914 -0.07579837 -0.025856841 -0.028661136 0.0351077 0.10970867 0.022737717
-0.11891746 -0.07488569 0.04348022 -0.083633535 -0.04682174 -0.06586893 0.06105447 -0.050422084
-0.06610835 0.068321206 -0.10403674 0.015489611 0.06815437 0.0482735 -0.103033274 0.011127054
-0.012125837 0.053184886 0.10677802 0.093316086 -0.023287132 0.049865477 -0.099322945 0.08664463
0.037219096 -0.058819275 -0.016333194 -0.04403481 -0.08043272 0.024230499 -0.051381137 0.02927008
-0.047058254 0.061634004 -0.021953247 -0.03796413 -0.055317696 0.014580718 -0.014806929 -0.05812411
-0.112548195 0.07063345 0.014197353 -0.052792307 0.030829396 0.02651143 -0.015268395 -0.015413394
0.039142 0.085445516 -0.11182563 -0.06720593 -0.07753934 -0.06568377 -0.023753503 0.07591754
0.058793947 0.029030109 -0.00056676014 -0.013136174 -0.13612773 0.052051425 0.10504181 -0.005917336
0.027976152 0.009529025 0.08534288 -0.017861454 -0.012845142 -0.053249337 0.02428709 0.045037407
-0.11403438 0.04524761 0.031297855 0.04259933 0.051349293 -0.02957641 0.004964124 -0.07116052
0.05917808 -0.083650894 -0.10238187 -0.06591468 -0.050887022 0.0034913206 0.06802551 -0.019456556
0.06676564 -0.017093211 0.084439225 0.065844364 0.060894355 0.038230952 -0.0680841 0.09935065
-0.096111216 -0.07085 -0.05983808 -0.05630563 0.028130304 0.018657302 -0.060436826 0.0495788
0.07281693 0.0693476 -0.12636212 0.023242807 0.08553858 -0.0010914416 -0.07548017 0.08190999
-0.07623823 -0.036344636 0.09667014 0.033700913 0.052739248 0.083938375 0.0065097376 -0.01521032
-0.012671892 0.081201814 -0.023833679 -0.06324448 -0.058475077 -0.080123976 0.02076848 0.08092966
0.04623756 0.024781378 0.032501604 -0.045288812 0.11340846 0.03281854 -0.06774531 -0.06264533
-0.09247793 -0.02717003 0.07975311 0.010543361 -0.04443159 0.026287628 -0.09795863 0.053107202
0.079195656 0.045047343 -0.01948432 -0.030254385 0.02748763 0.056053285 -0.030730158 -0.001323074
-0.04356705 0.007932933 -0.08013152 -0.08096042 0.0889096 -0.06833343 0.06401861 0.05337434
-0.019821784 -0.047838427 0.06045177 -0.04540329 -0.072322324 0.103692554 -0.021849588 -0.02485138
-0.034775656 0.023942094 0.031870373 0.1086117 -0.032242384 0.1201771 -0.01942732 0.049551312
-0.013707652 -0.010856783 0.06203599 -0.027664248 0.07078799 -0.080225244 -0.07887443 0.118607834
-0.05747119 -0.08305192 -0.083299786 0.09694396 -0.0026291828 -0.07755473 -0.015859881 -0.056049183
-0.08838412 -0.08278904 0.07697442 0.038980376 0.026524683 0.0033573648 -0.049614407 -0.09417714
-0.0025663646 -0.048081115 -0.11988944 -0.061375618 0.17052929 0.12766214 -0.042173773 0.046181887
0.054566994 -0.08852433 -0.040014442 -0.054938722 -0.025809204 0.021116119 -0.20045575 -0.09723691
0.008435057 -0.12283535 -0.014346604 0.030738382 0.0929974 -0.091870554 0.054326456 -0.0052002887

nnenv.edge_prediction_h.layers.0.layer.in_layer.bias f4 [50]
00000000: 1cc7 143c 2dcc d33d 7aaa cabd 36fc 65bc
00000010: 4309 eabd 352a 9abd 9019 9f3d 6742 96bd
00000020: 07b8 b73b 83f4 8cbd 8658 bfbd 89b4 f33d
00000030: f122 0c3d 1d6f bbbc fb45 26bd 6460 d23d
00000040: 17c6 7f3d 1ba6 763d f41b ca3d 3af7 cd3c
00000050: f4c6 8f3c b91e 41bb 6aca c3bc b290 bbbd
00000060: f217 dc3d 979a 843d 85f7 923a 1c10 34bd
00000070: 59b8 c23d c346 6abd 1b95 42bd 358c feba
00000080: a4d8 43bd cc47 c3bd 3b31 ed3d cc34 d53d
00000090: 580d 843d 5b47 39bd 420e 36bd 1f8d 673d
000000a0: 5d4a 9e3d 0957 e13d 137d 6f3d 6926 63bd
000000b0: b97c fbbc 2311 a53d 9f21 8cbd a2a2 a4bd
000000c0: 51c3 99bc 2018 c9bc
0.0090806745 0.10341678 -0.09895797 -0.014037183 -0.11427548 -0.075275816 0.077685475 -0.07336884
0.0056066546 -0.068825744 -0.093430564 0.11899669 0.03421301 -0.022880131 -0.040594082 0.10272291
0.062444773 0.060217004 0.09868613 0.0251423 0.017550923 -0.0029467775 -0.02390023 -0.09158458
0.10746755 0.06474798 0.0011212683 -0.043960676 0.09507818 -0.05719639 -0.04750548 -0.0019420447
-0.047814026 -0.095351785 0.115816556 0.10410461 0.064478576 -0.045234066 -0.04444719 0.056531068
0.077290274 0.11002929 0.05846889 -0.055456553 -0.03069912 0.08059909 -0.0684235 -0.08038832
-0.018769892 -0.024547637
