examples/silicon/ref_ckpts/dptb/checkpoint/mix.iter1500.pth (torch, 391435 bytes, 56 tensors)

dptb.embedding.descriptor.embedding_net.layers.0.layer.in_layer.weight f4 [10, 3]
0	0x3e042649	0.1290523
1	0x3f0ae79a	0.54259646
2	0xbf1064f2	-0.5640403
3	0xbe2a9d64	-0.16661602
4	0xbe926ff1	-0.2860103
5	0xbee7486f	-0.4517245
6	0x3d44e972	0.048074193
7	0xbefcd1a5	-0.49378696
8	0xbe016692	-0.12636784
9	0xbe9a1439	-0.30093554
10	0x3db3f013	0.08786025
11	0x3efea5fb	0.49736008
12	0x3d870870	0.06593406
13	0xbea4cbe5	-0.3218681
14	0x3e9002bd	0.2812709
15	0xbef656e3	-0.48113164
16	0xbe92b4e7	-0.28653643
17	0xbb4ab36e	-0.0030929702
18	0x3efbc540	0.49173927
19	0xbee78229	-0.45216492
20	0x3e9f18b9	0.3107355
21	0x3ecd84c1	0.40140346
22	0xbe98e275	-0.29860273
23	0x3ecd2bbb	0.40072426
24	0xbe763f65	-0.2404762
25	0x3ec4695f	0.38361642
26	0x3ec392a7	0.38197824
27	0x3ebcdea4	0.3688861
28	0xbe2071ce	-0.15668413
29	0xbe11b2f6	-0.14228424

dptb.embedding.descriptor.embedding_net.layers.0.layer.in_layer.bias f4 [10]
0	0xbc4adb7a	-0.012381429
1	0xbef949d4	-0.4868914
2	0x3e1ec98d	0.15506573
3	0x3eb0952d	0.34488812
4	0x3e68257b	0.22670548
5	0x3ec9baf8	0.39400458
6	0xbcf7d4c1	-0.030252816
7	0x3eea7a37	0.45796368
8	0x3c226e3f	0.00991398
9	0x3dc19e73	0.0945405

dptb.embedding.descriptor.embedding_net.layers.0.layer.out_layer.weight f4 [20, 10]
0	0xbe900ed5	-0.28136316
1	0xbe8e4313	-0.2778555
2	0xbe1bd4b5	-0.1521786
3	0xbe574a41	-0.2102442
4	0x3e2da619	0.16957892
5	0x3e5f13f2	0.21784952
6	0x3df44cbf	0.11928701
7	0xbdd86503	-0.105661415
8	0x3d8d8414	0.069099575
9	0x3ddd850c	0.10816392
10	0x3ce32934	0.027729608
11	0x3e2e6f51	0.17034651
12	0x3e92ebbd	0.2869548
13	0xbe85f45a	-0.26162988
14	0xbe66c01b	-0.2253422
15	0xbe481c42	-0.1954203
16	0xbd46065e	-0.048345916
17	0x3dc1d747	0.09464889
18	0xbe1aed0e	-0.15129492
19	0xbd0f56a3	-0.034994733
20	0x3e247a4c	0.16062278
21	0x3e5d0f42	0.21587852
22	0xbe923540	-0.28556252
23	0x3e3dc6e3	0.185329
24	0xbe80f706	-0.25188464
25	0xbe39de7e	-0.1815128
26	0xbe2902ea	-0.16505018
27	0x3e74ab89	0.2389356
28	0xbcdd03d7	-0.02697937
29	0xbe3700ea	-0.17871442
30	0xbe7d710d	-0.24750157
31	0xbe4868db	-0.19571249
32	0x3e40c2e8	0.18824351
33	0x3e1dc588	0.15407383
34	0x3e8cbdff	0.27488706
35	0xbe9f057d	-0.31058875
36	0x3e333995	0.17502435
37	0x3e42ddf5	0.19029982
38	0xbdf4b7c1	-0.11949111
39	0x3d4e1e15	0.050321657
40	0x3de7f607	0.11326223
41	0xbe05bc33	-0.13060074
42	0x3d346aa4	0.044047013
43	0xbdfa3586	-0.1221724
44	0x3d1cdd50	0.038296998
45	0x3d51af93	0.05119283
46	0x3e4f3895	0.20236428
47	0x3d5f7ad6	0.054560505
48	0x3da46c16	0.08028428
49	0x3d740df2	0.05958361
50	0xbe52ddd0	-0.20592427
51	0xbe95b982	-0.29243094
52	0xbe69c73a	-0.22829905
53	0xbdda77aa	-0.10667355
54	0xbe88648b	-0.26639208
55	0xbe71583d	-0.23568816
56	0x3c8b13e5	0.01697726
57	0x3c8be604	0.017077453
58	0xbe71e1c4	-0.23621279
59	0xbe8cfd93	-0.27537212
60	0xbd42d0e0	-0.04756248
61	0x3d9f42e6	0.07776432
62	0x3d036bd3	0.03208525
63	0xbe394f63	-0.1809669
64	0x3e48d494	0.19612342
65	0x3d812c5c	0.06307289
66	0xbe5d3d3a	-0.21605387
67	0xbda70fd0	-0.08157313
68	0xbdf5b465	-0.11997298
69	0xbe26c35a	-0.16285458
70	0xbe04dbc2	-0.12974456
71	0x3e4eb5f0	0.20186591
72	0x3e5b1345	0.2139407
73	0x3cafbf5e	0.021453556
74	0x3e1bb2e4	0.1520496
75	0x3d7ce2e4	0.061739817
76	0x3e9e1073	0.30871925
77	0xbdbb12ec	-0.091344684
78	0x3dfe2d8f	0.12411033
79	0xbd721a05	-0.059106845
80	0xbdf0e624	-0.11762646
81	0x3d9ae680	0.07563496
82	0xbe8ccdff	-0.27500913
83	0xbe719085	-0.23590286
84	0xbb997653	-0.004683295
85	0x3d0e2010	0.034698546
86	0xbe0bf3d1	-0.13667227
87	0x3e011cd0	0.12608647
88	0x3e60bdb2	0.21947363
89	0xbe7efe4a	-0.24901691
90	0x3d524b90	0.051341593
91	0xbe76a1ca	-0.24085155
92	0xbdb8d544	-0.09025052
93	0xbdf72298	-0.12067145
94	0x3e49f24a	0.19721332
95	0x3e83264a	0.2561515
96	0xbe84fde3	-0.2597495
97	0x3e8bd014	0.2730719
98	0xbe2098ee	-0.15683338
99	0xbe024e86	-0.12725267
100	0x3d9d27f0	0.07673633
101	0xbe401910	-0.1875956
102	0xbc1caf89	-0.009563335
103	0xbe4df7f3	-0.20114116
104	0x3d99d606	0.07511525
105	0x3ce4dbf9	0.027936922
106	0x3e8c166d	0.2736086
107	0x3e171650	0.14754605
108	0x3dc69614	0.09696594
109	0x3da991a3	0.08279731
110	0x3e4bd5cf	0.1990578
111	0xbda59598	-0.08085173
112	0x3e6a0e91	0.22857119
113	0x3e8679c7	0.26264784
114	0x3e8ab796	0.2709319
115	0xbde4a220	-0.111637354
116	0x3e9a8e75	0.3018681
117	0x3c525a13	0.012838858
118	0x3dd370f6	0.1032428
119	0xbe85f2c6	-0.26161784
120	0x3e8eda71	0.27901033
121	0x3dae428f	0.08508789
122	0x3e98177d	0.2970542
123	0xbdd557aa	-0.10417111
124	0xbdcdd253	-0.10049882
125	0xbe4c341c	-0.19941753
126	0xbe069921	-0.13144352
127	0xbd844664	-0.064587384
128	0xbe021109	-0.12701811
129	0xbe6b4937	-0.22977148
130	0xbe5c524b	-0.21515767
131	0xbea2b915	-0.3178183
132	0xbea2dfbc	-0.3181132
133	0x3deb0a57	0.114765815
134	0x3eafd404	0.34341443
135	0x3ddd8e4b	0.10818156
136	0x3ea24830	0.316957
137	0x3eb41e4a	0.3517936
138	0x3dab0e5a	0.08352347
139	0x3dccb804	0.09996036
140	0xbd4696e7	-0.048483755
141	0xbe00936a	-0.12556234
142	0xbd1f1d7f	-0.03884649
143	0xbe4b773c	-0.19869703
144	0xbc3e294d	-0.011606527
145	0xbe6b7bd9	-0.22996463
146	0x3e94e839	0.29083422
147	0xbcaf4f48	-0.021400109
148	0x3e79b2f7	0.24384676
149	0x3dde7777	0.1086263
150	0x3d00b40d	0.03142171
151	0x3dfeb0d0	0.12436068
152	0x3da26333	0.07929077
153	0x3d9801a8	0.07422191
154	0x3e402d42	0.18767264
155	0xbe8fce55	-0.28087106
156	0xbe9b30af	-0.3031058
157	0xbd1f9cc1	-0.03896785
158	0xbe8dc105	-0.27686325
159	0xbe290da4	-0.1650911
160	0xbe1669b7	-0.14688765
161	0xbe530eff	-0.2061119
162	0x3de221f5	0.11041633
163	0x3e1494c1	0.1450987
164	0x3d6375d0	0.055532277
165	0xbde3602e	-0.11102329
166	0xbe6df9ce	-0.23239824
167	0xbe6213d8	-0.22077882
168	0x3d532f4e	0.051558785
169	0xbd808b43	-0.06276562
170	0xbe5ced99	-0.21575011
171	0xbe57597c	-0.2103023
172	0xbdb1de87	-0.08685022
173	0xbdf7551f	-0.120767824
174	0xbe3835d5	-0.17989285
175	0xbe88ddb9	-0.2673166
176	0x3e8f6c68	0.28012395
177	0x3e9fd040	0.3121357
178	0x3e7cfbd9	0.24705447
179	0xbe025394	-0.12727195
180	0xbe872f5c	-0.2640332
181	0xbe8e7c84	-0.27829373
182	0x3b19b679	0.002345471
183	0x3e1aa350	0.15101361
184	0x3d91bca0	0.071160555
185	0xbe9d9569	-0.30778053
186	0xbe651905	-0.22372825
187	0x3e8b3526	0.27188987
188	0x3eaa835b	0.3330334
189	0xbd7986e6	-0.060919665
190	0x3e836c25	0.25668445
191	0x3c455ff3	0.012046802
192	0xbd955618	-0.07291812
193	0xbc28d0c1	-0.010303677
194	0x3d75ff42	0.060057886
195	0xbd5ddfc8	-0.054168493
196	0xbe3a0f6d	-0.18169947
197	0xbddb4dac	-0.10708174
198	0xbde6d16e	-0.11270414
199	0xbe3d1656	-0.18465552

dptb.embedding.descriptor.embedding_net.layers.0.layer.out_layer.bias f4 [20]
0	0x3caea698	0.021319672
1	0xbe00042f	-0.12501596
2	0xbdfdfdfd	-0.1240196
3	0xbe61d59f	-0.22054146
4	0xbe9e8be5	-0.30966106
5	0xbe08214d	-0.13293953
6	0xbe578d18	-0.21049917
7	0x3e22b3e0	0.1588893
8	0xbe52cc9d	-0.20585866
9	0xbe5a3b17	-0.21311603
10	0xbe3961a2	-0.1810365
11	0x3e6ec0a8	0.2331568
12	0xbe359e56	-0.17736182
13	0x3d829359	0.063757606
14	0xbe96e752	-0.29473358
15	0xbbbe25ef	-0.005802862
16	0xbde2bbe5	-0.11070994
17	0xbdf8bee1	-0.12145782
18	0x3e96f674	0.29484904
19	0xbd164676	-0.03668829

dptb.embedding.descriptor.embedding_net.out_layer.weight f4 [30, 20]
0	0xbe283717	-0.16427265
1	0x3e1ba7f0	0.15200782
2	0x3d51e88d	0.05124717
3	0x3c672732	0.014108466
4	0xbdf0acd0	-0.11751711
5	0xbe4e04e1	-0.20119049
6	0xbdb5a4b3	-0.088693045
7	0xbcab642c	-0.02092179
8	0x3d0c13d0	0.034198582
9	0xbe1a5603	-0.15071873
10	0xbd07aabe	-0.033121817
11	0x3da9102a	0.08255036
12	0xbd190c69	-0.03736535
13	0xbdbd4335	-0.09241334
14	0xbe099b93	-0.13438253
15	0xbe705536	-0.23470005
16	0xbe78b7ae	-0.24288818
17	0xbe2b00d2	-0.16699532
18	0x3dce4f6c	0.10073742
19	0xbe302b26	-0.1720396
20	0x3d508052	0.050903626
21	0xbe3c3cb0	-0.18382525
22	0x3e4039fd	0.18772121
23	0x3e04b770	0.12960601
24	0xbdfd9aad	-0.12383018
25	0x3cbc2fd4	0.022972025
26	0x3e326128	0.17419875
27	0xbe53d052	-0.20684937
28	0x3dbd7ae8	0.09251958
29	0x3e38ccf6	0.18046936
30	0xbdfbdc81	-0.12297917
31	0xbe471c0a	-0.1944429
32	0xbd409238	-0.047014445
33	0x3de81126	0.11331396
34	0x3e1483e0	0.14503431
35	0xbe05df23	-0.13073401
36	0x3d93b0e1	0.07211471
37	0xbe12f82e	-0.14352486
38	0xbe5ec54e	-0.21754953
39	0xbd69a0ef	-0.057038244
40	0xbe17be13	-0.14818601
41	0x3df139c6	0.117785975
42	0xbd979a36	-0.0740246
43	0xbe705519	-0.23469962
44	0xbd40cacb	-0.0470684
45	0xbe5cda4b	-0.21567647
46	0xbdbe2fac	-0.092864364
47	0xbd90a4d7	-0.07062691
48	0xbe16d893	-0.14731054
49	0xbd60f4d2	-0.05492098
50	0x3df8a5ba	0.12140985
51	0x3e1e8f4a	0.15484348
52	0xbe1d508f	-0.15362762
53	0xbe110bad	-0.1416461
54	0x3d44f5d5	0.048086006
55	0xbe1f6ce0	-0.15568876
56	0xbe4da35a	-0.20081845
57	0xbdcab737	-0.09898227
58	0xbdd286a1	-0.10279585
59	0xbd20586a	-0.03914682
60	0xbd85dc78	-0.06536192
61	0xbe5c35ba	-0.2150487
62	0xbe5b6738	-0.21426094
63	0x3e48b5be	0.19600579
64	0x3dc4f76f	0.09617507
65	0x3e3610a5	0.17779787
66	0x3dee15ae	0.11625229
67	0xbd59df0a	-0.053191222
68	0xbe5753c0	-0.21028042
69	0x3e4a5156	0.1975759
70	0x3e3d7c6a	0.18504491
71	0x3df12647	0.11774879
72	0xbb8e7799	-0.0043477532
73	0x3e4c6180	0.19959068
74	0xbe41fc44	-0.18943888
75	0xbd1f99eb	-0.038965147
76	0xbe5fb8f4	-0.21847898
77	0xbdbe8f2e	-0.09304653
78	0xbe0b2b5d	-0.1359076
79	0x3d4ffd6f	0.050778802
80	0x3df7e02a	0.12103303
81	0x3e4ece89	0.20195974
82	0x3d8ffae9	0.07030279
83	0xbd2ff89d	-0.042961705
84	0xbe575c60	-0.21031332
85	0xbd3af6e7	-0.04564562
86	0x3dfb929a	0.122838214
87	0x3dcb47f2	0.09925832
88	0x3e12e86f	0.14346479
89	0xbe1772a7	-0.1478983
90	0x3daa340d	0.08310709
91	0xbdf39ae0	-0.118947744
92	0x3e5f882c	0.21829289
93	0x3e503aab	0.2033488
94	0xbe3151d5	-0.17316373
95	0xbe4d9ee0	-0.20080137
96	0x3e5c9e83	0.21544842
97	0xbc920021	-0.017822327
98	0x3dfbd920	0.12297273
99	0xbdb3aefe	-0.087736115
100	0xbd1a81cd	-0.037721444
101	0x3da55768	0.08073312
102	0xbe560842	-0.20901588
103	0xbe303489	-0.1720754
104	0xbe14065e	-0.14455554
105	0x3e40dfb4	0.18835336
106	0xbe160398	-0.14649808
107	0xbb6b32e0	-0.0035888478
108	0x3d5baaca	0.053629674
109	0x3ddbb0ca	0.10727079
110	0x3dd78d39	0.10524983
111	0xbcb9c538	-0.022677049
112	0xbe42c95e	-0.19022128
113	0x3e13c750	0.144315
114	0x3c216cc6	0.009852594
115	0xbd7be8de	-0.061501376
116	0x3e0f6060	0.14001608
117	0xbd3f3f31	-0.046691123
118	0xbde2b724	-0.110700876
119	0x3e3276a5	0.17428072
120	0xbcf975e2	-0.030451719
121	0x3db2af6d	0.08724866
122	0x3e2d7ae3	0.16941409
123	0xbdca0a3c	-0.09865233
124	0xbd597a52	-0.05309517
125	0x3df0ee35	0.117641844
126	0x3e21e741	0.15810873
127	0xbaeefefb	-0.0018233949
128	0x3e37f293	0.17963628
129	0xbc5e3e14	-0.013564605
130	0xbd92a738	-0.07160801
131	0x3d322f64	0.043502226
132	0xbe164705	-0.1467553
133	0xbde9f8e7	-0.114244275
134	0x3dd43e8b	0.103634916
135	0xbb820e98	-0.003969025
136	0xbc6e3bb9	-0.014540606
137	0xbe090320	-0.13380098
138	0x3e43f682	0.19137004
139	0x3e258231	0.16162945
140	0x3cc23f2a	0.02371176
141	0x3dc74146	0.09729247
142	0xbe1697c5	-0.14706333
143	0xbe1d640d	-0.15370198
144	0x3d8418b1	0.06450022
145	0x3e16e16d	0.1473443
146	0x3e4b4c92	0.19853428
147	0x3e1e2920	0.15445375
148	0x3ddc00eb	0.107423626
149	0xbe01f9c1	-0.1269293
150	0x3ce55bbe	0.027997848
151	0xbe282827	-0.16421567
152	0xbd7c470b	-0.06159119
153	0x3d1d5009	0.038406406
154	0xbd41ef43	-0.04734732
155	0x3d18597d	0.037194718
156	0xbdfabd34	-0.12243119
157	0xbe3c2447	-0.18373214
158	0xbe4d96f0	-0.2007711
159	0xbe3e2411	-0.18568446
160	0x3c8c3173	0.017113423
161	0x3ba32796	0.0049790842
162	0xbdf1a4d1	-0.11799014
163	0x3de8a8c5	0.11360315
164	0xbe5351c7	-0.20636664
165	0xbcc80c34	-0.024419881
166	0x3e0fe2af	0.14051317
167	0x3ddf8057	0.10913151
168	0xbd2c8b07	-0.042124774
169	0xbe33e188	-0.17566502
170	0x3dc091bf	0.09402799
171	0x3e5cdd4b	0.21568792
172	0xbc83d179	-0.016091095
173	0xbb65c279	-0.0035058542
174	0x3dc510aa	0.09622319
175	0x3e3fbd08	0.18724453
176	0xbe0fb078	-0.14032161
177	0xbe116d43	-0.14201836
178	0x3e476ece	0.19475862
179	0xb8a4a1a1	-7.850235e-05
180	0x3dde5163	0.10855367
181	0xbd3223b0	-0.043491066
182	0x3e46722d	0.19379492
183	0xbd000641	-0.031255964
184	0x3e1e8074	0.15478688
185	0xbe3219c4	-0.17392641
186	0xbd6fdd5f	-0.058560725
187	0xbe3af08c	-0.18255824
188	0xbe67034c	-0.22559851
189	0xbe1fd12f	-0.15607141
190	0xbdedc3b2	-0.116095915
191	0x3e13e305	0.1444207
192	0x3e29cc30	0.16581798
193	0x3c23fef7	0.010009519
194	0xbe5fd3cc	-0.21858138
195	0x3e48504e	0.19561884
196	0xbe4778a7	-0.19479619
197	0x3b1d434c	0.002399641
198	0xbde46a67	-0.11153107
199	0xbe2a3cf1	-0.1662481
200	0xbd90ef99	-0.070769496
201	0xbbd8f3b3	-0.006620848
202	0x3d9d5447	0.0768209
203	0xbdf45bdd	-0.11931584
204	0x3e0ed775	0.13949378
205	0xbe4bfde1	-0.19921066
206	0x3e313d22	0.17308477
207	0x3e00545c	0.1253218
208	0x3dee8966	0.116473004
209	0x3e2d6641	0.16933538
210	0xbe07dea8	-0.1326853
211	0x3d9bd5a6	0.076091096
212	0xbdfd2490	-0.12360489
213	0xb9522e0a	-0.00020044312
214	0xbe634811	-0.2219546
215	0xbe0540ca	-0.13012996
216	0xbe18a8ce	-0.14908144
217	0x3d3ec676	0.046575986
218	0x3e3b2f43	0.18279748
219	0x3dac8e8c	0.08425626
220	0x3deb5479	0.11490721
221	0x3e194216	0.14966616
222	0x3d0c2eab	0.034224194
223	0x3e6f0f8f	0.23345779
224	0xbdd04a39	-0.10170407
225	0xbc44e4ce	-0.012017442
226	0xbd2ba001	-0.04190064
227	0xbe35c696	-0.17751536
228	0x3e5b7467	0.21431123
229	0x3d949dcc	0.0725666
230	0x3dba7fb0	0.09106386
231	0xbcda7598	-0.026667401
232	0xbe441916	-0.19150195
233	0xbe5791c7	-0.21051703
234	0xbe43ec9b	-0.19133227
235	0xbd6a0ea8	-0.057142884
236	0x3e1c023a	0.15235224
237	0x3d1233ae	0.035693817
238	0xbd21f595	-0.039540846
239	0xbdce281a	-0.100662425
240	0xbe43762e	-0.1908805
241	0xbe3c2743	-0.18374352
242	0xbe1ee43a	-0.15516749
243	0x3c8963ec	0.01677128
244	0xbdcc34c7	-0.09971004
245	0xbd71cc80	-0.059032917
246	0xbd748d0a	-0.059704818
247	0x3e4e6780	0.2015667
248	0xbe47d9b0	-0.19516635
249	0xbcf2c2b3	-0.029633855
250	0xbd3e0a35	-0.046396453
251	0x3e4d915a	0.20074978
252	0x3e0b73ef	0.13618444
253	0xbdd31192	-0.10306086
254	0xbe56847b	-0.20948975
255	0xbd2820a4	-0.041046754

dptb.embedding.descriptor.embedding_net.out_layer.bias f4 [30]
0	0x3d6dc5ca	0.058049954
1	0x3e17fc7f	0.14842413
2	0x3e236ccc	0.15959471
3	0x3def3352	0.116797104
4	0xbe2df118	-0.16986501
5	0x3d0a205b	0.033722263
6	0xbc94281a	-0.018085528
7	0x3e00ea36	0.12589344
8	0x3ccb1860	0.024791896
9	0xbe2fccbb	-0.17167942
10	0xbe4f9a16	-0.20273623
11	0x3dfe54f8	0.1241855
12	0x3e1fa078	0.15588558
13	0x3e2a4331	0.16627194
14	0xbe06996d	-0.13144465
15	0xbe196841	-0.14981176
16	0x3d170373	0.036868524
17	0xbdd2aa43	-0.10286381
18	0xbe61405b	-0.21997206
19	0x3e04ea93	0.12980108
20	0x3d57d46a	0.05269281
21	0xbcb8c3ab	-0.02255424
22	0xbd0d3374	-0.034472898
23	0xbe4a7952	-0.19772843
24	0x3c3366a4	0.010949764
25	0xbe2aaa26	-0.16666469
26	0xbe17ca1f	-0.14823197
27	0xbe2506c7	-0.16115867
28	0x3e2a1b19	0.166119
29	0xbe010362	-0.12598947

dptb.node_prediction_h.layers.0.layer.in_layer.weight f4 [16, 900]
0	0x3cd6fcee	0.026243653
1	0x3c19a692	0.009378092
2	0xbd103e12	-0.035215445
3	0xbd10207d	-0.035187233
4	0x3ca54617	0.020175023
5	0x3d03ac07	0.03214648
6	0xbc17a1fa	-0.009254927
7	0x3c48f0fd	0.012264487
8	0x3cb8bd1e	0.022551116
9	0x3cfb60e1	0.030685844
10	0xbc774766	-0.015092706
11	0x3c85af3c	0.01631891
12	0xbcb6b2c0	-0.022302032
13	0x3cca4879	0.02469276
14	0x3cf13b01	0.02944708
15	0xbc186083	-0.009300354
16	0xbc78e5a8	-0.015191473
17	0xbc2e4096	-0.010635516
18	0xbcb27b02	-0.02178717
19	0xbc5d34e7	-0.013501382
20	0xbcf1f2b9	-0.029534684
21	0x3cf668e8	0.03007932
22	0x3bfce475	0.007717664
23	0x3c851d26	0.01624925
24	0x3ca46b8d	0.020070815
25	0xbc59af44	-0.0132864155
26	0xbcdfea87	-0.027333511
27	0xbcc33637	-0.023829563
28	0x3c8d321e	0.017235812
29	0x3be6d3e1	0.007044301
30	0xbcc4470b	-0.023959657
31	0xbbba6d76	-0.0056893183
32	0x3d01af2f	0.03166121
33	0x3cd8f8fd	0.026485914
34	0x3cd46b60	0.025930107
35	0x3c723796	0.0147837605
36	0x3c45295f	0.012033789
37	0xbb6f0f59	-0.0036477654
38	0x3cc891e0	0.024483621
39	0xbc45aadf	-0.012064665
40	0xbcc53b2c	-0.024076067
41	0x3c4c15e0	0.012456387
42	0x3c3fbaa4	0.011702213
43	0xbc8ac75a	-0.016940761
44	0xbd23a7bf	-0.039954897
45	0xbc534e73	-0.012897122
46	0x3a225c14	0.000619353
47	0x39648932	0.00021794884
48	0x3c15c7f2	0.009141909
49	0x3ba03ba6	0.004889923
50	0xbc3d3cd2	-0.011550145
51	0x3c3e4d1c	0.011615064
52	0x3ccdcfb8	0.025123462
53	0xbb2c2b2a	-0.0026270845
54	0x3b846089	0.004039828
55	0xbcd514a0	-0.026010811
56	0xbbaef060	-0.0053387135
57	0x3a3a24b2	0.0007100805
58	0x3cda3a20	0.026639044
59	0x3ca88944	0.020573266
60	0xbcce10de	-0.025154527
61	0x3cc9ea9b	0.024648001
62	0x3af76155	0.0018873612
63	0xbcd8d15f	-0.026467023
64	0x3a25969b	0.00063166925
65	0x3bed27d1	0.0072374125
66	0x3c9bf520	0.019037783
67	0xbc985c96	-0.018598836
68	0xbd052f84	-0.032516018
69	0xbc943c74	-0.018095233
70	0xbd054a63	-0.032541644
71	0x3c076d07	0.00826574
72	0x3b601932	0.0034194705
73	0xbd02c94a	-0.031930245
74	0x3c88e1d4	0.016709246
75	0xbb680b95	-0.0035407294
76	0xbcef0aef	-0.029180018
77	0x3cbd57ee	0.023113217
78	0xbceed011	-0.029151948
79	0xbcdfda23	-0.027325695
80	0x3abe22f0	0.0014506262
81	0x3d084cb9	0.033276293
82	0x3a99ac66	0.0011724352
83	0x3c2e39b5	0.010633876
84	0x3be75c5f	0.007060572
85	0xbbcee21a	-0.0063135745
86	0x3c4d6e5d	0.01253852
87	0xbcbe5e5a	-0.02323835
88	0xbc70e1b8	-0.014702253
89	0xbcd6e88c	-0.026233934
90	0x3cec44fa	0.028841484
91	0xbce8688f	-0.02837017
92	0xbc306f5e	-0.0107687395
93	0x3ce2d5a8	0.02768977
94	0xbc8203d9	-0.015870975
95	0xbc566dda	-0.013087714
96	0x3cc514c5	0.024057755
97	0x3b237ea3	0.0024947308
98	0x3bf09214	0.0073416326
99	0x3c46ba6f	0.01212941
100	0x3bfe59f3	0.0077621876
101	0xbc46fb30	-0.012144849
102	0xbc05b82b	-0.008161585
103	0xbcf54811	-0.02994159
104	0xbce9b080	-0.028526545
105	0x3cc7494b	0.024326941
106	0xbc4a1650	-0.012334421
107	0x3c4beeab	0.01244704
108	0xbc872e38	-0.016501531
109	0x3c19bc12	0.009383218
110	0xbcd279dc	-0.025692873
111	0x3cfbb9ea	0.0307283
112	0x3cd34cb9	0.02579342
113	0x3c920b67	0.017827703
114	0x3cb8f723	0.022578781
115	0x3c547577	0.012967459
116	0xbbc32776	-0.005955632
117	0x3cdc3615	0.026881257
118	0x3c8609c5	0.01636208
119	0x3ca1ddb2	0.019759033
120	0x3c769e45	0.015052383
121	0x3d0a3f5f	0.03375184
122	0x3cc9b0f2	0.024620507
123	0x3d01bb88	0.031672984
124	0xbceed74b	-0.029155394
125	0xbc10c596	-0.008836171
126	0x3cf9f05c	0.03051012
127	0xbcd60414	-0.026124991
128	0xbbc7083f	-0.006073981
129	0xbce3b412	-0.027795825
130	0x3c8f4380	0.017488241
131	0x3b5252eb	0.003209288
132	0x3c85c840	0.016330838
133	0x3b85c25e	0.0040820083
134	0x3aa037e2	0.0012223686
135	0xbc9b2b54	-0.018941559
136	0x3d047b7f	0.032344338
137	0x3c8bff5f	0.017089544
138	0x3c229e7d	0.009925482
139	0x3c439dcf	0.01193948
140	0x3c6e6999	0.014551544
141	0xbc768a97	-0.015047691
142	0x3c043ae4	0.008070681
143	0x3d17b5af	0.0370385
144	0x3ca617c8	0.020275012
145	0x3cada65b	0.021197489
146	0x3cab4c72	0.020910475
147	0xbc36379c	-0.011121657
148	0xbd2b35a8	-0.041799217
149	0x3cf7e457	0.030260248
150	0x3c7cbdd2	0.015426116
151	0xbabd5ede	-0.0014447828
152	0xbc930b4b	-0.01794972
153	0xbb715df5	-0.0036829684
154	0xbc183e12	-0.0092921425
155	0xbcd33df8	-0.025786385
156	0x3c1e39f2	0.00965737
157	0xbc9634bd	-0.018335694
158	0x3a319a7f	0.0006775036
159	0xbc2c71d0	-0.010525182
160	0xbcdf001e	-0.027221736
161	0x3c863617	0.016383214
162	0x3cf942ad	0.030427301
163	0x3ca5785b	0.020198992
164	0xbc9c46b2	-0.019076679
165	0x3c29dab6	0.010367086
166	0x3d4b081f	0.04956829
167	0x3c6b5963	0.014364573
168	0xbc4849e6	-0.01222465
169	0x3cb86df7	0.022513373
170	0x3cbd20a3	0.023086851
171	0x3c764043	0.01502997
172	0x3ca6fdf6	0.02038477
173	0xbbe352a1	-0.0069373404
174	0xbc2e5451	-0.01064022
175	0x3c7885a3	0.01516858
176	0xba1b6344	-0.00059275725
177	0x3cf81d2b	0.030287346
178	0xbc5aacec	-0.013346892
179	0x3c1e8c9a	0.009677077
180	0xbb8df6c8	-0.004332397
181	0xbcedb1e3	-0.029015487
182	0xbb098f3a	-0.002098991
183	0x3c3f0ab0	0.011660263
184	0x3cbb95d4	0.022898592
185	0xbc864586	-0.016390573
186	0xbcf11cd0	-0.029432684
187	0x3d0eb4d7	0.03484043
188	0x3c1cdf7f	0.00957477
189	0x3d00d1ed	0.0314502
190	0x3b8ced28	0.004300732
191	0x3bc64a5d	0.0060513453
192	0xbb4b9b4c	-0.0031067906
193	0xbbf1a2b3	-0.0073741316
194	0xbc9857dd	-0.018596584
195	0xbc49f76f	-0.012327059
196	0x3b87f4f5	0.004149074
197	0x3c3ae0db	0.011406149
198	0xbc8184dd	-0.015810424
199	0xbab15106	-0.0013528175
200	0x3c89d3a7	0.016824557
201	0xbcea7d51	-0.028624209
202	0xbb9e0cbe	-0.0048232963
203	0x3aa069d4	0.001223857
204	0x3b7ba5dd	0.0038398423
205	0xbcdcc41a	-0.026948977
206	0xbb2b5cc1	-0.0026147815
207	0xbb4c9a71	-0.0031219984
208	0x3caf94a7	0.021433188
209	0xbc002b77	-0.007822863
210	0x3cdc4fdc	0.026893549
211	0xbac10687	-0.0014726677
212	0x3bd1a596	0.006397913
213	0xbc4bac86	-0.0124312695
214	0xbba5979b	-0.005053473
215	0xbcbfdd39	-0.023420917
216	0xbc933af7	-0.017972453
217	0xbc7590d0	-0.014988139
218	0x3be2c44a	0.006920372
219	0xbd1f5ae9	-0.038905058
220	0x3c88df6e	0.016708102
221	0xbcfb8aa2	-0.030705754
222	0x3cf9fca9	0.030515986
223	0x3ca1291a	0.019672919
224	0x3c6e591b	0.014547612
225	0xbc452fcf	-0.012035324
226	0x3cac3e67	0.02102585
227	0xbcea9fd3	-0.028640663
228	0x3bcddd47	0.006282482
229	0xbaf63e79	-0.0018786929
230	0x3c405ef3	0.011741388
231	0xbca4ec20	-0.020132124
232	0x3c06d29e	0.008228926
233	0x3b80e0cc	0.003933048
234	0xbcd52ae8	-0.026021436
235	0xbcb484ca	-0.022035975
236	0xbd043942	-0.032281168
237	0xba58df6e	-0.000827304
238	0xbd108cf3	-0.03529067
239	0xbca8b2fe	-0.020593163
240	0xbc89354b	-0.016749045
241	0xbc93f539	-0.018061267
242	0xbb7dc2d5	-0.0038720865
243	0xbcae5abb	-0.021283498
244	0xbc83370c	-0.01601746
245	0xbd20adac	-0.039228126
246	0x3d02945f	0.03187978
247	0xbc5d2f13	-0.013499993
248	0xbcb27ca9	-0.021787958
249	0x3cac0715	0.02099947
250	0x3c60d538	0.01372271
251	0x3bf2fecd	0.0074156285
252	0xbce217dd	-0.02759927
253	0x3c8b4a4c	0.017003201
254	0x3cd56959	0.02605121
255	0xbc47eff9	-0.01220321

dptb.node_prediction_h.layers.0.layer.in_layer.bias f4 [16]
0	0x3cb45674	0.02201388
1	0xb9c82876	-0.00038177118
2	0x3d01f7b9	0.031730387
3	0xbcbe3497	-0.023218436
4	0xbcb40a25	-0.021977494
5	0xbc428859	-0.011873328
6	0x3cbd89b9	0.02313696
7	0x3b45712e	0.0030127275
8	0xbc817cff	-0.015806673
9	0x3d086cec	0.033307
10	0xbb4ce13a	-0.0031262175
11	0xbb9ecf9c	-0.0048465263
12	0x3af93da4	0.0019015563
13	0x3c71f902	0.014768841
14	0x3a4e5a16	0.00078717
15	0xb9ae4a81	-0.00033243376

dptb.node_prediction_h.layers.0.layer.out_layer.weight f4 [16, 16]
0	0x3e1fbfe0	0.15600538
1	0x3e479f48	0.19494355
2	0x3d68059a	0.056645967
3	0x3da35b3b	0.07976385
4	0x3d16dfe1	0.0368346
5	0x3db8e6ea	0.09028418
6	0xbe434e1b	-0.19072764
7	0xbd2a9a9a	-0.041651346
8	0xbd122279	-0.035677407
9	0x3c7b5dae	0.015342159
10	0x3e691441	0.22761633
11	0x3e0c4699	0.13698806
12	0xbba37b3d	-0.0049890564
13	0xbcf9b797	-0.03048305
14	0x3ccbef23	0.024894303
15	0x3e213e76	0.15746483
16	0xbe5d91db	-0.2163767
17	0x3e5d410e	0.21606848
18	0x3dcdb9ba	0.1004519
19	0xbdf6c33b	-0.12048956
20	0x3cd2d21e	0.025734957
21	0x3e589ec4	0.21154314
22	0x3e1aa984	0.15103728
23	0xbda87056	-0.082245514
24	0x3d964b58	0.073385894
25	0xbda7fb52	-0.082022324
26	0xbe3e8d4d	-0.1860859
27	0x3d09c051	0.033630673
28	0x3d9f313c	0.077730626
29	0xbcc85df0	-0.024458855
30	0x3dcf7f0d	0.10131655
31	0x3e15f38d	0.14643688
32	0x3dc8ac8b	0.09798535
33	0xbe41659c	-0.18886417
34	0xbbe1e78f	-0.006894059
35	0xbcdf54ec	-0.027262174
36	0xbe49d5cd	-0.19710465
37	0xbe770e8e	-0.24126646
38	0xbe750a07	-0.23929606
39	0xbe4ceb0f	-0.20011543
40	0xbdf2056e	-0.11817442
41	0xbe2043e0	-0.15650892
42	0x3e524389	0.20533575
43	0x3e63d730	0.22250056
44	0x3e0daf62	0.13836434
45	0xbd70f56e	-0.05882781
46	0x3c6850b7	0.0141794
47	0xbe4d4226	-0.20044765
48	0xbd30696e	-0.043069296
49	0x3e71e013	0.23620634
50	0x3db71824	0.08940151
51	0x3e32b4f5	0.17451842
52	0xbe1c31a5	-0.15253313
53	0xb7facb3c	-2.989696e-05
54	0xbe1d74a9	-0.15376534
55	0x3d96fd6c	0.07372555
56	0x3e0fc7e0	0.1404109
57	0x3dfbe0a3	0.122987054
58	0x3d4ee973	0.050515603
59	0xbe188bec	-0.14897126
60	0xbe4a2e55	-0.19744237
61	0x3e3143ec	0.17311066
62	0xbdf2a067	-0.118470006
63	0xbdcb3223	-0.09921672
64	0xbe8daf72	-0.27672917
65	0xbe65e439	-0.22450341
66	0x3e1f08e8	0.15530741
67	0x3e43394d	0.19064827
68	0xbd3073e1	-0.04307926
69	0xbd77278b	-0.060340445
70	0xbd350805	-0.0441971
71	0xbcdce782	-0.02696586
72	0xbdf1647f	-0.11786746
73	0x3ca870c1	0.020561578
74	0xbe4aa76a	-0.19790426
75	0x3e4cc0de	0.19995448
76	0x3df74e32	0.120754614
77	0xbd1faa4c	-0.038980767
78	0xbe16ac64	-0.147142
79	0x3de1536b	0.11002239
80	0x3e029a59	0.12754191
81	0xbd8861d6	-0.06659286
82	0x3cdc9c46	0.026929986
83	0xbd86ab48	-0.06575638
84	0xbe856427	-0.26052973
85	0x3e6a98cf	0.22909854
86	0xbc89e9b5	-0.016835073
87	0x3e07e10a	0.1326944
88	0x3c5e5580	0.0135701895
89	0x3ca9da35	0.020733932
90	0x3e4f4e6c	0.2024476
91	0xbce12314	-0.027482547
92	0xbe1d3e55	-0.15355809
93	0xbda42570	-0.08014953
94	0xbe3c1823	-0.18368582
95	0xbd9056dd	-0.07047818
96	0x3e4e59fc	0.20151514
97	0x3da91f84	0.08257964
98	0xbdfde977	-0.123980455
99	0xbd10cbe5	-0.0353507
100	0x3dccee45	0.10006384
101	0xbe39416f	-0.18091367
102	0xbd18a4b0	-0.037266433
103	0x3d60ded4	0.054900005
104	0x3e4710da	0.19440022
105	0xbd1cdd6c	-0.0382971
106	0x3e0b7104	0.13617331
107	0x3e31d1d7	0.17365204
108	0x3e275b7e	0.16343495
109	0x3e62595f	0.22104405
110	0xbdf8910e	-0.12137042
111	0x3dfcfae9	0.12352545
112	0x3e60c71b	0.21950953
113	0x3e2cb0ad	0.16864271
114	0xbc6cb82e	-0.014448209
115	0x3c58b78a	0.013227353
116	0x3d219dff	0.039457317
117	0xbe6c47cf	-0.23074268
118	0x3e300e10	0.17192864
119	0x3d370e54	0.0446914
120	0xbcd24b6d	-0.025670731
121	0x3e1abb41	0.15110494
122	0xbe15edd3	-0.14641504
123	0xbccfdb6d	-0.025373185
124	0xbe7525ab	-0.2394015
125	0xba853948	-0.0010164166
126	0xbc34eb39	-0.01104241
127	0xbe504e4d	-0.2034237
128	0xbe66057a	-0.22463027
129	0xbdf5a358	-0.11994046
130	0xbe17caa0	-0.14823389
131	0xbb64a249	-0.0034886769
132	0xbe6f4d54	-0.23369342
133	0x3e18804d	0.14892693
134	0xbd3b9dc8	-0.04580477
135	0xbe600095	-0.21875222
136	0x3ddcb31b	0.10776349
137	0x3de46224	0.11151531
138	0xbdf69159	-0.120394416
139	0x3db2dac3	0.08733132
140	0x3caf1ffa	0.021377552
141	0xbd0d0117	-0.034424867
142	0xbe21fff0	-0.15820289
143	0xbdb99fd5	-0.09063689
144	0x3e3ba393	0.18324117
145	0x3da24ae0	0.079244375
146	0xbe651eb5	-0.22374995
147	0xbd7bad4c	-0.061444566
148	0x3dd24dd1	0.102687486
149	0xbdb39a61	-0.0876968
150	0x3e5e0b2e	0.21683952
151	0xbc9b3aa6	-0.018948864
152	0x3da9614f	0.08270513
153	0xbded7fc3	-0.11596634
154	0xbe406d35	-0.18791659
155	0xbe8db8cf	-0.2768006
156	0xbe45329a	-0.19257584
157	0x3da37b0a	0.07982452
158	0xbc4512be	-0.012028394
159	0xbe915137	-0.28382275
160	0x3e8135bc	0.2523631
161	0x3df8dce6	0.12151508
162	0xbe1a89e4	-0.15091664
163	0xbe2b7dcf	-0.16747211
164	0xbe44b167	-0.19208299
165	0xbc57a1ae	-0.013161106
166	0xbe4504d8	-0.19240129
167	0xbe276f20	-0.16350985
168	0x3ddabffc	0.10681149
169	0x3e40c1f9	0.18823995
170	0x3d206125	0.039155144
171	0xbe0d84d4	-0.13820201
172	0xbe11b3bb	-0.14228718
173	0x3dc9a346	0.09845595
174	0x3db27e21	0.087154634
175	0xbca8b930	-0.020596117
176	0xbc946ff2	-0.018119786
177	0xbdd2f38f	-0.10300361
178	0x3e1e1ad3	0.1543992
179	0x3d24a8dc	0.0402001
180	0xbe85c0ad	-0.26123562
181	0xbdfaf624	-0.12253979
182	0x3e26383f	0.16232394
183	0xbe1d9f4c	-0.15392798
184	0x3e0ad419	0.13557471
185	0x3b9d88dd	0.004807575
186	0x3d3a6c19	0.045513246
187	0x3dd71d26	0.105036065
188	0x3e2f131b	0.17097132
189	0x3e0941dd	0.13404031
190	0x3e118faa	0.1421496
191	0x3d42464a	0.047430314
192	0x3d870c31	0.06594122
193	0x3a3f2d75	0.00072928454
194	0xbea4d319	-0.32192305
195	0x3e67d66f	0.22640394
196	0xbe11c991	-0.14237048
197	0x3e15b60e	0.1462023
198	0x3e6b5e76	0.22985253
199	0xbd9a3137	-0.07528918
200	0x3e0b1c00	0.135849
201	0xbe341c87	-0.17589007
202	0x3e0930d9	0.1339754
203	0xbe114b18	-0.14188802
204	0xbe209b65	-0.15684278
205	0xbe4fe105	-0.20300682
206	0x3e962bee	0.2933039
207	0x3e525f86	0.20544252
208	0x3e8ded54	0.2772013
209	0xbe76e69f	-0.24111412
210	0x3e8101d3	0.25196704
211	0x3d3eb2fd	0.046557415
212	0xbe852268	-0.26002812
213	0x3e724dd1	0.23662497
214	0x3e22a9f6	0.15885147
215	0x3e44630e	0.19178411
216	0x3e1cbfcf	0.15307544
217	0xbe6bb2a4	-0.23017365
218	0x3e509336	0.20368657
219	0xbe200498	-0.15626752
220	0xbe0cd1a5	-0.13751848
221	0x3e649c8c	0.22325343
222	0xbe2c3d21	-0.16820194
223	0x3db1d999	0.086840816
224	0xbe1702ae	-0.14747116
225	0xbe7d14af	-0.24714921
226	0x3e537995	0.20651849
227	0xbe6fe78b	-0.2342817
228	0x3c8bcaaa	0.017064411
229	0x3dfcdc59	0.123467155
230	0x3e3d38f7	0.18478762
231	0x3d1d4224	0.038393155
232	0xbe87db3d	-0.26534453
233	0x3da29993	0.07939448
234	0xbe5f82d6	-0.21827254
235	0xbe6f035e	-0.23341128
236	0xbb2c5ce0	-0.0026300475
237	0x3d3e51ae	0.046464615
238	0xbcf1beb0	-0.029509872
239	0x3e452d97	0.19255672
240	0xbdb88f6d	-0.09011731
241	0xbe56e320	-0.20985079
242	0x3d12ee06	0.035871528
243	0xbe7ac80b	-0.24490373
244	0x3e3dd822	0.1853948
245	0xbe4ab13b	-0.1979417
246	0x3d2ffd5a	0.042966224
247	0xbe6aa734	-0.22915345
248	0xbd310dd1	-0.043226067
249	0xbe2cafb2	-0.16863897
250	0xbc5579d0	-0.013029531
251	0xbd7c92bf	-0.061663385
252	0x3e72a3cf	0.236953
253	0xbe0cbba1	-0.1374345
254	0xbe60a2c8	-0.21937096
255	0xbcd09d53	-0.025465643

dptb.node_prediction_h.layers.0.layer.out_layer.bias f4 [16]
0	0xbdd39daf	-0.1033281
1	0xbe5a7c9e	-0.213366
2	0x3d8c5d5e	0.06853746
3	0x3e4bd2c7	0.19904624
4	0x3e6ebb7b	0.23313706
5	0xbddc8b5b	-0.107687674
6	0x3e55abb1	0.20866276
7	0xbe00f61b	-0.12593882
8	0x3ca2c0cb	0.019867321
9	0xbdbf434f	-0.0933901
10	0xbdffce48	-0.12490517
11	0xbe269e72	-0.1627138
12	0xbdcfa03e	-0.10137986
13	0x3e42dc84	0.19029433
14	0xbde8c611	-0.11365903
15	0xbc0e0128	-0.008667268

dptb.node_prediction_h.out_layer.linear.weight f4 [3, 16]
0	0xbd4d24ff	-0.05008411
1	0xbe4e5f9e	-0.20153663
2	0xbd3a87b2	-0.045539565
3	0x3e0ab69c	0.13546222
4	0xbdd697b0	-0.10478151
5	0xbdd8b234	-0.105808645
6	0xbde98bee	-0.114036426
7	0xbe496802	-0.19668582
8	0xbe20a579	-0.15688123
9	0xbe3353f3	-0.17512493
10	0x3e1cb5bb	0.153037
11	0xbe29f976	-0.16599068
12	0x3d9b5ea8	0.075864136
13	0xbd1d2392	-0.038364
14	0xbde4957f	-0.111613266
15	0xbc475f5a	-0.01216873
16	0x3e16dc91	0.14732577
17	0xbd08d701	-0.03340817
18	0xbe1279f7	-0.14304338
19	0x3e132a38	0.14371574
20	0xbe14f362	-0.14545968
21	0xbdf94101	-0.12170602
22	0x3e660d63	0.22466044
23	0xbe56e803	-0.20986943
24	0xbe67e65b	-0.22646467
25	0xbdf3f1a9	-0.119113274
26	0x3d7589ee	0.059945993
27	0xbe2c129d	-0.16803975
28	0x3e81e3cc	0.25369108
29	0xbe27bc7f	-0.163805
30	0xbe75e1d9	-0.24011935
31	0xbe0dded9	-0.13854541
32	0xbb823740	-0.0039738715
33	0x3e0c4852	0.13699463
34	0x3db9eef8	0.09078783
35	0x3e39ae4c	0.18132895
36	0x3dbf567c	0.093426675
37	0xbe3ea70e	-0.18618414
38	0x3d73d500	0.059529305
39	0xbe75241c	-0.23939556
40	0x3dd1dd9c	0.10247347
41	0x3cccd1c0	0.02500236
42	0xbdb5b5a8	-0.08872539
43	0x3d8d9f78	0.06915182
44	0x3dcecb78	0.10097402
45	0xbe0059ee	-0.12534305
46	0x3e72bd86	0.2370511
47	0xbdbc2124	-0.091860086

dptb.node_prediction_h.out_layer.linear.bias f4 [3]
0	0xbdccc63c	-0.09998748
1	0xbe6f77ff	-0.23385619
2	0xbe7875b2	-0.24263647

dptb.edge_prediction_h.layers.0.layer.in_layer.weight f4 [16, 901]
0	0xbc33e9d5	-0.010981043
1	0xbbe400ed	-0.006958118
2	0xbca46a49	-0.020070212
3	0x3b776b5d	0.0037753202
4	0xbb4ac65d	-0.0030940988
5	0xbce24357	-0.02762
6	0x3cb3aadc	0.021932058
7	0x3d0f0f2d	0.034926582
8	0x3c8f5327	0.017495705
9	0xbc02c61f	-0.007981806
10	0xbcb50576	-0.02209733
11	0xbc2eaa99	-0.010660791
12	0x3acebe63	0.0015773292
13	0x3c9ece59	0.019385504
14	0x3b77be2b	0.0037802558
15	0xbc8517a3	-0.016246622
16	0x3b1704c8	0.0023043621
17	0x3c431b92	0.011908429
18	0xbc96ccd7	-0.018408222
19	0x3b992550	0.0046736374
20	0xbcd96dc1	-0.026541593
21	0xbbfc531b	-0.0077003366
22	0x3b08d7d3	0.0020880594
23	0xbc56fe0f	-0.013122096
24	0xbcc6a9d3	-0.0242509
25	0xbce0ca5e	-0.027440246
26	0xbc012d96	-0.007884404
27	0x3bad4e23	0.0052888556
28	0xbb64306d	-0.0034818903
29	0xbcdc630f	-0.026902704
30	0x3cf52b36	0.029927831
31	0xbce83c5e	-0.028349098
32	0x3ccf3923	0.0252958
33	0x3c9fe061	0.019516172
34	0xbbbe88d3	-0.0058146506
35	0x3d127aef	0.03576177
36	0x3c24a6f1	0.010049568
37	0xbcf056bb	-0.029338231
38	0xbd02cced	-0.031933714
39	0xbc6c597a	-0.01442563
40	0xbcaaeccc	-0.020864867
41	0x3c8b3bf1	0.016996356
42	0xbcb331bd	-0.021874303
43	0xbc1f757a	-0.009732598
44	0xbd08a766	-0.03336277
45	0xbc78aeec	-0.015178423
46	0xbcdfe945	-0.027332911
47	0x3c002da2	0.00782338
48	0xbc7333cd	-0.014843893
49	0x3cf6ab61	0.030111017
50	0x3c5cc7f5	0.013475408
51	0xbcbf4f63	-0.023353284
52	0x3c38d865	0.011282061
53	0x3d0e8d04	0.03480245
54	0x3c70ec89	0.014704832
55	0xbcf062c9	-0.02934398
56	0xbd0c5a90	-0.034266055
57	0xbd1bf5d1	-0.038076226
58	0xbcbfb900	-0.023403645
59	0xbc8b1136	-0.01697598
60	0xbd1a2df2	-0.037641473
61	0x3cf3e40b	0.029771825
62	0x3cc4c0a0	0.024017632
63	0x3c58b035	0.013225605
64	0xbcf78aea	-0.030217607
65	0x3b1a51d2	0.0023547304
66	0x3c9a040e	0.018800762
67	0xbc095eb6	-0.008384397
68	0x3a9849e0	0.0011618696
69	0xbc2fdffc	-0.010734554
70	0xbc6f23ae	-0.014595909
71	0xbc64660f	-0.013940348
72	0xbbcdc0bb	-0.006279079
73	0xbcc7262c	-0.024310194
74	0xbccd6559	-0.02507274
75	0x3bf742f0	0.0075458214
76	0x3a569bba	0.0008186657
77	0xbcd793af	-0.026315538
78	0xbc9fbc8d	-0.019499088
79	0x3d0a6e8c	0.033796832
80	0xbd03b028	-0.032150418
81	0x3c9f97d9	0.019481586
82	0x3cc3ebcf	0.023916153
83	0x3c82c5b5	0.015963415
84	0x3ce1c8f0	0.027561635
85	0xbca55ad6	-0.020184916
86	0x3c1fcd34	0.009753514
87	0x3cf8ac97	0.030355735
88	0xbcf1fc93	-0.029539382
89	0x3c2d9816	0.010595342
90	0xbca59d69	-0.02021666
91	0xbcbc4117	-0.022980256
92	0x3bb4d68e	0.005518741
93	0xbcae25bb	-0.021258226
94	0x3c89fc86	0.016844045
95	0x3cb8cc1e	0.022558268
96	0xbcac9eaf	-0.02107176
97	0x3c301e35	0.010749389
98	0xbcd21a3b	-0.025647273
99	0x3cdf29fc	0.0272417
100	0xbceb0888	-0.028690591
101	0xbca7793f	-0.020443557
102	0x3c804b13	0.015660798
103	0xbae6e0f2	-0.0017614646
104	0xbc03e437	-0.008050016
105	0x3c241cea	0.010016659
106	0xbcf2dd75	-0.029646615
107	0xbccd2f26	-0.025046896
108	0xbc2580ab	-0.010101478
109	0x3cd89ecc	0.026442908
110	0xbcc0c29e	-0.0235303
111	0xbb829d02	-0.003986002
112	0xbbe4c1dd	-0.006981118
113	0xbc337b36	-0.010954669
114	0xbc966cca	-0.018362422
115	0xbc9aec84	-0.018911608
116	0x3d0e1fce	0.0346983
117	0x3ccbcca8	0.024877861
118	0x3c59648d	0.013268602
119	0x3c2188fe	0.009859322
120	0xbc58ca7a	-0.013231868
121	0xbbbd2d97	-0.005773257
122	0xbca1c81d	-0.019748742
123	0x3cfcde4e	0.030867722
124	0xbc73187a	-0.014837379
125	0x3ce70060	0.028198421
126	0x3cbb8c9c	0.022894196
127	0xbc9e40a5	-0.019317934
128	0xbca6143c	-0.02027332
129	0xbcc42fdc	-0.023948602
130	0x3cb0dcb8	0.021589622
131	0xbcfb2579	-0.030657517
132	0xbb5dbf1d	-0.0033835836
133	0xbc74b252	-0.014935093
134	0xbc0e2959	-0.00867685
135	0xbb7b624f	-0.0038358157
136	0x3c92a944	0.017902978
137	0x3c13f30b	0.009030114
138	0xbceb3f54	-0.02871672
139	0x3cd1773e	0.025569554
140	0xbc970f15	-0.018439809
141	0x3cf35e99	0.029708194
142	0xbc68225e	-0.01416835
143	0x3c5800aa	0.013183752
144	0xbae1a3f5	-0.0017215001
145	0xbc153e17	-0.009109042
146	0x3c505282	0.012714984
147	0x3bc093cb	0.0058769933
148	0xbc80a110	-0.0157018
149	0xbc62df80	-0.013847232
150	0xbb4e6fe8	-0.0031499807
151	0x3cd8c375	0.026460389
152	0xbc9ed0df	-0.019386707
153	0xbb5d9893	-0.0033812865
154	0xbca02c73	-0.019552445
155	0x3ba8afef	0.005147926
156	0x3d085415	0.033283312
157	0x3c4f1765	0.012639855
158	0x3cab4756	0.020908039
159	0xbcc90374	-0.02453778
160	0xbacf08b9	-0.0015795446
161	0x3cf8fd05	0.030394087
162	0x3cc84a03	0.024449354
163	0x3c895f05	0.016768942
164	0x3c274fdf	0.010211914
165	0x3c8e3de3	0.017363494
166	0x3d27e365	0.040988345
167	0xbc9842a2	-0.01858646
168	0x3c8e79a1	0.017391982
169	0x3cd97689	0.02654578
170	0x3ba49533	0.0050226687
171	0xbb02f558	-0.0019982662
172	0xbccc2292	-0.024918828
173	0x395f65ed	0.00021304908
174	0x3b00f485	0.0019676995
175	0x3c3f205e	0.011665432
176	0xbc69d5a2	-0.014272125
177	0x3c649434	0.01395135
178	0xbcd2eba2	-0.025747124
179	0x3d0a5414	0.03377159
180	0x3c490dd5	0.012271364
181	0x3c893d53	0.016752874
182	0xbcc34cac	-0.023840271
183	0x3ce8b029	0.028404312
184	0xbc8b5938	-0.017010316
185	0x3cfca978	0.030842528
186	0xbc83a0b3	-0.016067838
187	0x3cc62148	0.024185792
188	0xbca8bc8f	-0.020597724
189	0x3cd024f4	0.025408246
190	0xbcd26dff	-0.025687216
191	0x3d145111	0.036210123
192	0x3c457d4c	0.012053799
193	0xbcc9ec74	-0.024648882
194	0xbbf381dd	-0.0074312524
195	0xbc213fdb	-0.0098418845
196	0xbce0bd26	-0.027433943
197	0x3cefcde3	0.02927298
198	0x3bf4ef5b	0.0074748225
199	0xbb146aa3	-0.0022646568
200	0xbca1386e	-0.019680228
201	0xbbd01eb8	-0.006351318
202	0x3d0333e6	0.032031916
203	0x3cb8e254	0.02256886
204	0x3c398acf	0.011324598
205	0xbc02e771	-0.00798975
206	0x3b57cdd6	0.0032929084
207	0x3c8cdf1e	0.017196234
208	0xbc2bf747	-0.010495967
209	0x3cd65df6	0.026167851
210	0xbc6fa529	-0.01462678
211	0x3c623ca9	0.013808408
212	0x3cb1b47d	0.021692509
213	0xbc078613	-0.008271712
214	0x3cc5be19	0.024138497
215	0x3c75abbf	0.014994561
216	0x3cd08590	0.025454313
217	0xbc1d4415	-0.009598752
218	0xbb1507cd	-0.0022740245
219	0xbccd300c	-0.025047325
220	0x3c0d58ed	0.008627159
221	0xbcd8209b	-0.026382735
222	0xbccd2f5f	-0.025047002
223	0xbc1d43b9	-0.009598666
224	0x3b1e23ee	0.0024130302
225	0x3cc5f2c9	0.02416362
226	0xbcb8ae14	-0.022543944
227	0xbcdaf638	-0.026728734
228	0x3c939834	0.018016912
229	0x3b29909f	0.0025873554
230	0xbce65a18	-0.028119132
231	0x3cba145d	0.022714788
232	0xbd039339	-0.032122824
233	0x3ccf2a49	0.025288718
234	0xbc032982	-0.008005502
235	0xbcb63993	-0.02224425
236	0xbc9e7d35	-0.019346813
237	0xba7c1815	-0.00096166256
238	0x3c5853e8	0.013203599
239	0xbd1af823	-0.037834298
240	0xba97e63e	-0.0011589003
241	0x3c3056e1	0.010762901
242	0xbd04c4aa	-0.032414116
243	0x3c7ba873	0.015359986
244	0x3c0a3905	0.008436446
245	0xbcc023c2	-0.02345455
246	0x3ccf419f	0.025299845
247	0x3cd0383c	0.02541744
248	0x3ce63096	0.02809934
249	0x3bba4d73	0.005685502
250	0x3c193f1d	0.009353426
251	0xbc9232d9	-0.017846512
252	0xba1087a7	-0.0005513378
253	0x3c55add5	0.013041933
254	0x3cb1ab63	0.021688169
255	0x3c87149b	0.016489318

dptb.edge_prediction_h.layers.0.layer.in_layer.bias f4 [16]
0	0x3b33f974	0.0027461918
1	0xbc15e186	-0.009148007
2	0x3b4add16	0.0030954531
3	0xbd4b4456	-0.049625717
4	0xbd115c7a	-0.035488583
5	0xbb3f2e9e	-0.0029172073
6	0xbb4cba09	-0.0031238815
7	0xbb2eedc6	-0.0026692017
8	0x3b88cf40	0.0041750968
9	0xba11a21c	-0.0005555467
10	0xbd26b438	-0.040699214
11	0x3d09957a	0.033589818
12	0xbcc42ec0	-0.023948073
13	0xbcbb308f	-0.022850303
14	0xbd012703	-0.031531345
15	0x3c7dc2b0	0.015488312

dptb.edge_prediction_h.layers.0.layer.out_layer.weight f4 [16, 16]
0	0x3e1bee65	0.15227659
1	0x3dd43473	0.103615664
2	0xbaa4ea1f	-0.001258198
3	0xbe473ae5	-0.1945606
4	0xbe315197	-0.1731628
5	0xbe69c903	-0.22830586
6	0x3c8a1916	0.016857665
7	0x3e47b109	0.19501127
8	0xbe052b80	-0.13004875
9	0xbd012ac7	-0.031534936
10	0x3e7f667e	0.24941441
11	0xbda22dab	-0.07918867
12	0xbdb3a9f3	-0.087726496
13	0x3d6c18ba	0.05764077
14	0xbe001173	-0.12506656
15	0xbdf85493	-0.12125506
16	0xbd74eaef	-0.059794363
17	0x3cb37321	0.021905484
18	0xbe316f2b	-0.17327563
19	0xbe7272d3	-0.23676614
20	0x3c8617be	0.016368743
21	0xbe1675d3	-0.14693384
22	0x3e5f9b37	0.21836554
23	0xbbde422f	-0.006782792
24	0xbe1ba6c8	-0.15200341
25	0xbdc3bc28	-0.09557372
26	0x3d07a1a4	0.033113137
27	0xbd3d2e61	-0.04618681
28	0xbe098ce8	-0.13432658
29	0xbdf4d7ac	-0.11955199
30	0xbe2957e2	-0.16537431
31	0xbe56bc75	-0.20970328
32	0x3b47a990	0.0030466057
33	0x3d47b9ef	0.048761304
34	0x3e6b3c6b	0.22972266
35	0xb9a76baf	-0.00031932953
36	0xbe3541b0	-0.17700839
37	0xbd195b4c	-0.037440583
38	0x3d8f13bf	0.06986188
39	0x3e720f9a	0.23638764
40	0x3d99a30a	0.075018
41	0xbc1f1536	-0.009709647
42	0x3e6332c7	0.22187339
43	0x3de72541	0.112864025
44	0x3e4c1051	0.19928099
45	0xbd869c11	-0.06572736
46	0x3d52b87c	0.05144547
47	0xbe23dbe1	-0.16001846
48	0x3cd3cc9e	0.025854405
49	0x3e12c9d3	0.14334802
50	0xbe0bb8ac	-0.13644665
51	0xbde506fe	-0.11182974
52	0xbe7d87b6	-0.24758801
53	0x3d7b96a4	0.06142296
54	0xbdf660bf	-0.120301716
55	0xbddd1fd9	-0.1079709
56	0xbdfc15fb	-0.1230888
57	0x3bdc61e0	0.006725535
58	0xba6ec975	-0.0009108999
59	0xbe0a5f26	-0.13512859
60	0xbdd4c288	-0.103886664
61	0x3c985640	0.018595815
62	0xbe76a2d7	-0.24085556
63	0xbcf83340	-0.030297875
64	0x3dddf7e0	0.10838294
65	0xbdc968aa	-0.09834416
66	0xbd382a97	-0.04496249
67	0x3e7d4d43	0.24736504
68	0x3e551f98	0.20812833
69	0xbe09a924	-0.13443428
70	0x3dac6fb2	0.08419742
71	0x3c3b6335	0.011437227
72	0xbc93ba41	-0.018033149
73	0xbe259ae6	-0.1617237
74	0x3c8fc885	0.01755167
75	0x3c71442d	0.014725727
76	0xbdaf9fc7	-0.08575397
77	0x3e7f3514	0.24922591
78	0x3dd9dc1b	0.10637685
79	0xbe6383d1	-0.22218253
80	0xbcedfee1	-0.0290522
81	0x3cb5098b	0.022099277
82	0xbd5182d3	-0.051150154
83	0x3b3f271a	0.0029167593
84	0x3db9a899	0.090653606
85	0xbd80e304	-0.062933
86	0xbe7306bd	-0.23733039
87	0xbc9a72f4	-0.018853642
88	0x3db945e6	0.09046535
89	0x3e4897eb	0.19589202
90	0xbe293221	-0.16523029
91	0x3ce451d9	0.02787106
92	0xbdf832be	-0.12119053
93	0xbc06eab8	-0.008234672
94	0x3e702765	0.23452528
95	0xbc625631	-0.013814495
96	0x3d7afa0c	0.06127362
97	0xbe4eeeaa	-0.2020823
98	0xba867d1b	-0.0010260673
99	0xbe79426c	-0.24341744
100	0xbd9f0c79	-0.07766051
101	0x3d8525ba	0.065013364
102	0x3de727c8	0.112868845
103	0x3dd6c677	0.10487073
104	0x3df1d38e	0.11807929
105	0x3e5d736b	0.2162606
106	0xbdc7e608	-0.09760672
107	0xbc08f399	-0.008358859
108	0x3df552f1	0.119787104
109	0xbe413825	-0.18869074
110	0x3e5814aa	0.21101633
111	0x3e127f8a	0.14306465
112	0x3e33c04c	0.17553824
113	0x3d587466	0.05284538
114	0x3e4624f7	0.19350038
115	0x3cbf30e1	0.023338737
116	0xbe718d6f	-0.23589109
117	0xbdfc1bce	-0.12309991
118	0xbe80517e	-0.25062174
119	0x3e4d5a70	0.2005403
120	0x3e37c4f8	0.17946231
121	0xbd775d89	-0.060391936
122	0xbe5048c1	-0.20340253
123	0x3e4dc915	0.20096238
124	0x3c07c5d2	0.00828691
125	0xba1e8228	-0.00060466165
126	0xbe012785	-0.12612732
127	0x3e1a7732	0.15084532
128	0xbe377675	-0.17916282
129	0xbdccb76f	-0.09995925
130	0x3d957cb7	0.07299178
131	0x3e717692	0.23580387
132	0xbe66a66f	-0.22524427
133	0x3deec65f	0.1165893
134	0x3d1a6425	0.03769316
135	0x3e215429	0.15754761
136	0x3e496b3e	0.19669816
137	0xbe238cef	-0.1597173
138	0xbe6fe271	-0.23426224
139	0xbdf5f21f	-0.120090716
140	0xbd407a18	-0.046991438
141	0xbe3d1dc8	-0.18468392
142	0x3e4cd1bd	0.20001884
143	0xbe05d108	-0.1306802
144	0x3e79a1d0	0.24378133
145	0x3e73be64	0.23803097
146	0xbdac2d74	-0.08407107
147	0xbd634118	-0.055482
148	0xbd69a9ac	-0.057046577
149	0x3d8b1187	0.067904525
150	0x3d50b19e	0.05095064
151	0x3d44fb3b	0.048091155
152	0xbe8813ca	-0.26577598
153	0x3dafae51	0.0857817
154	0x3e0d6754	0.13808948
155	0x3e22bacc	0.1589157
156	0xbe2c5a95	-0.1683143
157	0xbcfb8e7c	-0.03070759
158	0xbe0db7e7	-0.13839684
159	0x3d91fe35	0.07128564
160	0xbe52d97d	-0.20590778
161	0x3ddc9502	0.107706085
162	0xbe23c7de	-0.15994212
163	0xbced2d9b	-0.02895241
164	0x3c58d822	0.013235124
165	0x3e688c86	0.22709855
166	0x3dd46372	0.1037053
167	0xbdfe7008	-0.12423712
168	0xbdd733e0	-0.10507941
169	0xbd988e72	-0.07449044
170	0x3e33f1d7	0.17572723
171	0xbe5047bf	-0.20339869
172	0xbde11f96	-0.10992353
173	0x3cdad2b2	0.026711795
174	0x3da8916f	0.08230864
175	0x3dc45242	0.09586002
176	0x3e190e29	0.14946808
177	0xbde31577	-0.110880785
178	0xbe0a01cd	-0.1347725
179	0xbceb9b42	-0.028760556
180	0xbe446ce4	-0.19182163
181	0x3e016cd4	0.12639171
182	0x3cc146ce	0.023593333
183	0x3c807104	0.01567889
184	0xbe2e01f3	-0.16992931
185	0xbbf9cd1b	-0.0076233274
186	0xbe5e78ee	-0.21725819
187	0x3e10a0e9	0.14123882
188	0xbe3c9c5e	-0.18419024
189	0x3c897013	0.016777074
190	0x3d09c969	0.033639345
191	0x3e06e6d1	0.13173987
192	0xbe4f553a	-0.20247355
193	0xbe1810bd	-0.14850135
194	0xbc5c25f0	-0.013436779
195	0x3d3709c4	0.044687048
196	0x3dc769fc	0.09737012
197	0x3da87c47	0.08226829
198	0x3e1caf1a	0.15301171
199	0xbe690cab	-0.22758739
200	0x3dd0fb95	0.102042355
201	0xbde1dff1	-0.110290416
202	0xbe054732	-0.1301544
203	0x3e4049d7	0.18778168
204	0x3d61cd6d	0.05512755
205	0xbe267780	-0.16256523
206	0xbdd8673f	-0.10566568
207	0xbd549de0	-0.051908374
208	0x3e60ceb9	0.21953858
209	0x3d43001a	0.04760752
210	0x3e25a166	0.1617485
211	0x3e44c0d5	0.19214185
212	0x3e720d53	0.23637895
213	0x3e0a905f	0.13531636
214	0xbe216315	-0.15760453
215	0xbdb58d14	-0.08864799
216	0xbdc0d41d	-0.094154574
217	0x3d53b403	0.051685344
218	0x3cf64b8a	0.030065317
219	0x3e6aab49	0.22916903
220	0x3bfbd916	0.007685791
221	0xbdc17c7a	-0.0944757
222	0xbdeee6b1	-0.11665095
223	0xbdcc7c7c	-0.09984681
224	0xbe2fa819	-0.17153968
225	0x3e0ce892	0.13760594
226	0xbe22d1a6	-0.15900287
227	0x3e743a43	0.2385035
228	0x3dec9cf8	0.11553377
229	0xbcf89aeb	-0.030347308
230	0xbe03614d	-0.12830086
231	0x3e0787b0	0.13235354
232	0x3e0b2b9f	0.13590859
233	0xbe1798c4	-0.14804369
234	0xbe4aea51	-0.19815947
235	0xbe42fede	-0.19042537
236	0x3dde6116	0.108583614
237	0x3df3a334	0.11896363
238	0x3d4553a7	0.04817548
239	0x3df80bf7	0.12111657
240	0x3e671eed	0.22570391
241	0xbdf0e12f	-0.117617
242	0x3df57791	0.11985696
243	0x3db02c85	0.086022414
244	0x3de1ffc7	0.11035114
245	0xbe521826	-0.20517024
246	0xbe53590b	-0.20639436
247	0xbd9f76e3	-0.07786348
248	0x3db148c6	0.086564586
249	0x3d3f0b5b	0.04664169
250	0x3e4e7f03	0.20165639
251	0x3e13b686	0.14425096
252	0x3d8e0618	0.06934756
253	0x3d9e8fc3	0.07742264
254	0xbe44e495	-0.19227822
255	0x3e836eb9	0.25670412

dptb.edge_prediction_h.layers.0.layer.out_layer.bias f4 [16]
0	0xbdce0305	-0.1005917
1	0xbe3ed8e7	-0.18637429
2	0x3e1da465	0.15394743
3	0xbe446383	-0.19178586
4	0x3e3ca922	0.18423894
5	0x3e14504c	0.14483756
6	0xbdd00ae7	-0.101583295
7	0xbe314e58	-0.17315042
8	0x3dde7570	0.10862243
9	0xbdb0b3c3	-0.08628037
10	0x3dae3253	0.08505692
11	0x3e2bd36e	0.16779873
12	0xbe13b658	-0.14425027
13	0x3d584652	0.052801438
14	0xbc95eefc	-0.018302433
15	0x3ddf23a3	0.10895469

dptb.edge_prediction_h.out_layer.linear.weight f4 [10, 16]
0	0x3e4a4f24	0.19756752
1	0xbe6d8c63	-0.23198085
2	0xbe64bc07	-0.22337352
3	0x3da87002	0.08224489
4	0xbe06c0c8	-0.13159478
5	0x3ddf45b0	0.10901964
6	0x3da43065	0.08017043
7	0x3e1b1a2d	0.15146704
8	0x3e162033	0.1466072
9	0x3db282a1	0.08716322
10	0xbe1ea838	-0.15493858
11	0x3e03a06a	0.12854162
12	0x3e44656b	0.19179313
13	0xbe10f895	-0.14157327
14	0xbe34af5b	-0.17645018
15	0xbd601a0a	-0.054712333
16	0x3dec24e3	0.11530473
17	0xbda7e3b9	-0.081977315
18	0xbdf46e4a	-0.119350985
19	0xbe35f459	-0.17768992
20	0x3e0a9ab5	0.13535579
21	0xbd107a40	-0.035272837
22	0x3ce21960	0.02759999
23	0x3e2cf781	0.1689129
24	0x3da7f68d	0.08201323
25	0x3daaf0d5	0.08346716
26	0xbcc8832f	-0.024476616
27	0x3cdb3bb8	0.026761875
28	0xbcacbf67	-0.021087361
29	0xbd4b53da	-0.049640514
30	0xbd419c11	-0.047267977
31	0xbe172581	-0.147604
32	0x3d6c5b15	0.05770405
33	0x3e5d0e97	0.21587597
34	0x3e232c44	0.15934855
35	0x3dd81ce8	0.105523884
36	0x3dd1ef62	0.10250737
37	0x3bc0c861	0.005883262
38	0x3e3de19f	0.18543099
39	0xbdbd3015	-0.092376865
40	0xbe4386c1	-0.19094373
41	0x3d3aee1d	0.04563724
42	0x3e7544ce	0.23952028
43	0x3e4f46c4	0.20241839
44	0xbd705179	-0.05867145
45	0xbb9bd5c0	-0.0047557056
46	0xbbc88e79	-0.0061204997
47	0xbe270690	-0.16311097
48	0x3e4ded4d	0.20110054
49	0x3e6adc13	0.22935514
50	0xbde47a30	-0.11156118
51	0xbd117468	-0.035511404
52	0xbe0900bb	-0.13379185
53	0x3e4f3ddb	0.2023844
54	0x3e6f7c9a	0.23387375
55	0x3d872ac1	0.065999515
56	0xbe46cf63	-0.19415049
57	0x3d948f75	0.07253925
58	0xbde7c819	-0.113174625
59	0xbe8389e9	-0.25691155
60	0xbe0a6ec2	-0.13518813
61	0x3d1bcf70	0.038039625
62	0xbe07bac8	-0.13254845
63	0x3d7f65ec	0.06235306
64	0x3e272947	0.1632434
65	0x3e6b14d0	0.22957158
66	0xbe86d26b	-0.2633241
67	0x3ca7a059	0.020462202
68	0x3d8f275c	0.06989929
69	0x3e63d51d	0.22249265
70	0xbcfa7eb4	-0.030577995
71	0x3d0f0212	0.034914084
72	0x3d9feddf	0.07809042
73	0xbcc2a88b	-0.023762008
74	0xbe4c18cd	-0.19931336
75	0xbe181818	-0.14852941
76	0xbdc750a7	-0.0973218
77	0xbd2fd74d	-0.042929936
78	0xbe7cb289	-0.24677481
79	0x3e33889f	0.17532586
80	0xbe5763f7	-0.21034227
81	0x3e65e0bf	0.22449015
82	0xbe6b35c8	-0.22969735
83	0x3d41c156	0.04730352
84	0x3e420a9f	0.18949364
85	0xbe1f5a3d	-0.15561767
86	0x3e4826d6	0.19546065
87	0xbd2a24a4	-0.04153885
88	0xbc5209c3	-0.01281971
89	0x3e00782e	0.12545845
90	0x3dd798a7	0.10527163
91	0xbe0004e5	-0.12501867
92	0x3dcbbae0	0.09947753
93	0xbe172949	-0.14761843
94	0xbd5b5450	-0.053547204
95	0x3d91a514	0.07111564
96	0xbd518c91	-0.051159445
97	0xbe3fa52d	-0.18715353
98	0xbe140a76	-0.14457116
99	0x3d848302	0.064703
100	0xbe07424d	-0.13208885
101	0x3dcae6b9	0.09907288
102	0xbddf3645	-0.10899023
103	0x3e8c3e06	0.2739107
104	0xbe3b3b5a	-0.1828436
105	0xbcb04de7	-0.021521522
106	0xbe6835db	-0.22676794
107	0xbc958fe3	-0.018257087
108	0x3a7c2c6b	0.0009619656
109	0xbe4d933d	-0.20075698
110	0xbe750586	-0.23927888
111	0xbe1d3416	-0.153519
112	0x3e1cf5ad	0.15328093
113	0xbe5720a1	-0.2100854
114	0x3dfe391b	0.12413236
115	0xbe4fc76a	-0.20290914
116	0xbe1f652f	-0.15565942
117	0xbcfe5683	-0.031047111
118	0x3e0082ad	0.12549849
119	0x3de38c71	0.111107714
120	0xbe48ce9a	-0.19610062
121	0xbe549261	-0.20758964
122	0x3da4b10f	0.08041584
123	0x3e44b7e2	0.1921077
124	0xbde3443d	-0.11097
125	0xbd094b5f	-0.033519145
126	0xbdb8248d	-0.089913465
127	0x3e648e6d	0.22319956
128	0xbdd38e1f	-0.10329842
129	0x3e55d75a	0.20882931
130	0x3e8a3a07	0.26997396
131	0x3e0d0988	0.13773167
132	0xbe61ac08	-0.22038281
133	0xbe5c4ba5	-0.21513231
134	0xbd39f6f5	-0.045401532
135	0xbc1cc02f	-0.0095673045
136	0x3c6c9a14	0.014441032
137	0xbd97f128	-0.07419044
138	0xbe55acd7	-0.20866714
139	0xbe3d797b	-0.18503372
140	0x3e4e2f9e	0.20135352
141	0xbe39ab1d	-0.18131681
142	0xbdd4d783	-0.10392668
143	0xbda56fe1	-0.0807798
144	0xbd6f2b55	-0.058390934
145	0x3e070a6f	0.13187574
146	0xbdcebe18	-0.10094851
147	0x3e10193e	0.14072129
148	0x3e4333c8	0.19062722
149	0xbdcb5598	-0.09928435
150	0x3e43e683	0.19130902
151	0x3e0cef95	0.13763268
152	0xbe5c26c9	-0.2149917
153	0x3db8d54d	0.09025059
154	0xbe63e8d1	-0.22256781
155	0x3e26f63f	0.16304873
156	0x3ceb9a9c	0.028760247
157	0x3e5038aa	0.20334116
158	0x3da63634	0.08115807
159	0x3d6cba95	0.057795126

dptb.edge_prediction_h.out_layer.linear.bias f4 [10]
0	0xbd5b36d8	-0.0535191
1	0x3c90a478	0.01765655
2	0xbe763984	-0.24045378
3	0x3e0b10f6	0.13580689
4	0x3d97e0ee	0.07415949
5	0x3d4a3f72	0.049376912
6	0x3c81cd09	0.015844839
7	0xbe8338c1	-0.25629237
8	0x3def8041	0.11694384
9	0x3d0bfda8	0.034177452

nnsk.hopping_param f4 [1, 10, 2]
0	0x3ffc0928	1.9690294
1	0x40a67a31	5.202416
2	0xc00c9c46	-2.1970382
3	0xc086272d	-4.192282
4	0xbf95632a	-1.1670887
5	0x3ff522ef	1.9151286
6	0xc04f3aa0	-3.2379532
7	0xc101eec5	-8.120793
8	0x403432f5	2.8156102
9	0xc0d9ff26	-6.812396
10	0xbff988e8	-1.9494905
11	0xc024d841	-2.575699
12	0x405cd6f9	3.450621
13	0xc0bcf98c	-5.9054623
14	0x3f8d21b8	1.1025915
15	0xbe38e256	-0.1805509
16	0xc025cbd4	-2.5905657
17	0xc08526c4	-4.160982
18	0x3fe52287	1.7901162
19	0xc0af30fc	-5.4747295

nnsk.strain_param f4 [1, 10, 2]
0	0xbfae90d1	-1.3637944
1	0x3c9a50e9	0.01883741
2	0x415b306d	13.699323
3	0x386fa6d0	5.7137397e-05
4	0xc1253093	-10.324359
5	0xc0c563fa	-6.168454
6	0x3f0360b2	0.5131942
7	0xbfc7ff8e	-1.5624864
8	0x3ed96849	0.42462376
9	0x3e7069c9	0.23477854
10	0xbffe0730	-1.9845943
11	0x3b89878e	0.0041970676
12	0x4012a25c	2.2911596
13	0x40762fe3	3.8466728
14	0x40461ca3	3.0954978
15	0x3fb497eb	1.4108862
16	0x3f2425b8	0.64120054
17	0x3eea5f9f	0.45776078
18	0x3fd1a12a	1.6377308
19	0xbda551ad	-0.08072219
