examples/silicon/ref_ckpts/dptb/checkpoint/mix.ep50.pth (torch, 391616 bytes, 56 tensors)

dptb.embedding.descriptor.embedding_net.layers.0.layer.in_layer.weight f4 [10, 3]
0	0x3e1440a4	0.14477783
1	0x3f1cabfe	0.6119994
2	0xbefd4139	-0.49463823
3	0xbe1a5a3e	-0.15073487
4	0xbe8d0ea7	-0.2755024
5	0xbee1e727	-0.44121668
6	0x3d711157	0.058854427
7	0xbf0444ba	-0.5166737
8	0xbe18d613	-0.14925413
9	0xbe9e395a	-0.3090313
10	0x3e088622	0.13332418
11	0x3f0af697	0.54282516
12	0x3da4191c	0.08012602
13	0xbe91e1da	-0.28492624
14	0x3ea2ecc8	0.31821275
15	0xbee41aad	-0.44551602
16	0xbe7a8596	-0.24465021
17	0x3d1ee5b5	0.038793284
18	0x3f146dc9	0.5798002
19	0xbec9178b	-0.39275774
20	0x3ebd8355	0.3701426
21	0x3eaaf2b5	0.33388296
22	0xbeca5c18	-0.39523387
23	0x3e9bb217	0.3040931
24	0xbe4cd992	-0.20004871
25	0x3eee9dec	0.4660486
26	0x3eedc732	0.46441036
27	0x3efe582f	0.49676654
28	0xbd88cd29	-0.06679756
29	0xbd569eff	-0.052397724

dptb.embedding.descriptor.embedding_net.layers.0.layer.in_layer.bias f4 [10]
0	0x3d28afe7	0.04118338
1	0xbef039db	-0.4691914
2	0x3e0d1397	0.13777004
3	0x3eb9af61	0.36266616
4	0x3e826aec	0.254722
5	0x3eef4b6c	0.4673723
6	0x3d01855b	0.03162132
7	0x3ec3d0a4	0.38245118
8	0x3ddb89ba	0.10719629
9	0x3e4dcdaa	0.20097986

dptb.embedding.descriptor.embedding_net.layers.0.layer.out_layer.weight f4 [20, 10]
0	0xbe8a1508	-0.2696917
1	0xbe70fb73	-0.2353342
2	0xbe05b7a9	-0.13058342
3	0xbe5d29ac	-0.21597928
4	0x3e2e9346	0.17048368
5	0x3e653422	0.22383168
6	0x3e2d9afd	0.16953655
7	0xbde5d873	-0.11222925
8	0x3d4e63fa	0.050388314
9	0x3e2fc26a	0.17164007
10	0x3c73f75a	0.014890516
11	0x3e548732	0.20754698
12	0x3ea5c6d7	0.32378265
13	0xbe925eb5	-0.2858788
14	0xbe870594	-0.26371443
15	0xbe81febf	-0.25389668
16	0xbcbd5c6c	-0.02311536
17	0x3d665bec	0.056240007
18	0xbe43be18	-0.19115484
19	0xbc84cc63	-0.01621074
20	0x3e090d21	0.13383915
21	0x3e89bd94	0.2690245
22	0xbe7dd9ef	-0.24790166
23	0x3e16afb8	0.14715469
24	0xbe9ef03b	-0.31042656
25	0xbe0e4685	-0.13894089
26	0xbe666355	-0.2249883
27	0x3e3ac397	0.18238674
28	0xbda88920	-0.082292795
29	0xbe6dbb88	-0.23216069
30	0xbe726037	-0.23669516
31	0xbdfae04e	-0.12249814
32	0x3e8c6564	0.27421105
33	0x3da6a5d9	0.08137102
34	0x3e7a6f81	0.24456598
35	0xbe8d9f90	-0.276608
36	0x3e336696	0.17519602
37	0x3e0f6336	0.1400269
38	0xbe325cfe	-0.17418286
39	0x3d6a83f8	0.05725476
40	0x3e1c5778	0.15267742
41	0xbe246504	-0.1605416
42	0x3d3b1358	0.045672745
43	0xbdd52a53	-0.10408463
44	0x3d9ad7c4	0.07560685
45	0x3d456400	0.04819107
46	0x3e832aae	0.256185
47	0x3dbe8403	0.09302523
48	0x3e01ac99	0.12663497
49	0x3e0c128c	0.1367895
50	0xbe497acf	-0.19675754
51	0xbe58485e	-0.21121356
52	0xbe4fc24a	-0.20288959
53	0xbe2fba54	-0.17160922
54	0xbeaca057	-0.3371608
55	0xbe463ae6	-0.19358405
56	0x3b9f4e59	0.0048616347
57	0x3a758493	0.00093657634
58	0xbe8559d5	-0.260451
59	0xbe91127d	-0.28334418
60	0xbd4c8fa0	-0.04994166
61	0x3e076329	0.1322142
62	0x3d6ed67d	0.05831002
63	0xbe5b3e36	-0.2141045
64	0x3e0b0fad	0.13580199
65	0x3dafdfa2	0.085875764
66	0xbe70c633	-0.23513107
67	0xbe02e8a8	-0.12784064
68	0xbe3060b2	-0.17224386
69	0xbe2eb43e	-0.17060944
70	0xbe453f67	-0.19262467
71	0x3e5a4286	0.21314439
72	0x3e5b8aa8	0.21439612
73	0xbb162a4d	-0.0022913397
74	0x3e0423db	0.12904303
75	0x3da0b657	0.078472786
76	0x3e93aa9b	0.288411
77	0xbdf7f075	-0.121064104
78	0x3dc2269d	0.09480021
79	0xbdacf235	-0.08444635
80	0xbde0ec4b	-0.10982569
81	0x3defddf5	0.11712257
82	0xbe679b07	-0.22617732
83	0xbe8e3f33	-0.27782592
84	0xbd037cd9	-0.032101486
85	0x3d40439c	0.046939477
86	0xbe1065fe	-0.14101407
87	0x3dba5026	0.09097318
88	0x3e2b0be6	0.16703758
89	0xbe7a5b75	-0.2444895
90	0xbc7b4b66	-0.015337801
91	0xbe0461fd	-0.12928005
92	0x3a8fc25b	0.0010967957
93	0xbe4e98d7	-0.20175491
94	0x3e006f29	0.12542404
95	0x3eabd2a3	0.3355914
96	0xbeb2612a	-0.34839755
97	0x3e3241ea	0.17407957
98	0xbe78b64c	-0.2428829
99	0xbe534031	-0.20629956
100	0xbcb699a1	-0.022290053
101	0xbdd277a2	-0.102767244
102	0x3d3e2854	0.04642518
103	0xbe73fae6	-0.23826179
104	0xbc5eae71	-0.013591395
105	0x3d89f5e1	0.06736351
106	0x3e5db8e6	0.21652564
107	0x3d81b796	0.06333844
108	0x3d3ebc3f	0.046566244
109	0x3c50de2a	0.012748281
110	0x3e129189	0.1431333
111	0xbd0e9b19	-0.03481588
112	0x3e8d95ac	0.27653253
113	0x3e4dcf84	0.20098692
114	0x3e606a69	0.21915592
115	0xbdb2c642	-0.08729221
116	0x3e860116	0.26172704
117	0xbc807554	-0.015680946
118	0x3d3dcb2f	0.04633635
119	0xbe9b2211	-0.30299428
120	0x3e90968c	0.28239858
121	0x3da03144	0.07821897
122	0x3e9994b3	0.2999626
123	0xbddb0647	-0.10694557
124	0xbdeb74a8	-0.1149686
125	0xbe4c29d8	-0.19937837
126	0xbe18e8e5	-0.14932592
127	0xbd501676	-0.05080267
128	0xbe0183cc	-0.12647933
129	0xbe776938	-0.24161232
130	0xbe984dcc	-0.29746854
131	0xbe453434	-0.19258195
132	0xbe726cd7	-0.23674332
133	0x3c32b762	0.01090798
134	0x3e7d63e1	0.24745132
135	0x3e3db8a3	0.18527465
136	0x3e5e6a1b	0.21720164
137	0x3e8b8111	0.27246907
138	0xbc684b1d	-0.014178065
139	0x3b424747	0.0029644535
140	0xbdb5b205	-0.08871845
141	0xbde107ec	-0.10987839
142	0xbc8cebe0	-0.017202318
143	0xbe48f9f4	-0.196266
144	0xbb97b129	-0.0046292734
145	0xbe4abbcf	-0.19798206
146	0x3e831f41	0.25609782
147	0xbd655c27	-0.055996086
148	0x3e6288f0	0.2212255
149	0x3daa0e2d	0.08303485
150	0x3d0ca8a5	0.03434052
151	0x3dff679b	0.12470933
152	0x3dc7a3d1	0.097480424
153	0x3d9b5928	0.075853646
154	0x3e34779a	0.1762375
155	0xbe7fbfc7	-0.24975501
156	0xbea8a929	-0.3294156
157	0xbd46312e	-0.048386745
158	0xbe8d6180	-0.2761345
159	0xbe3df7b6	-0.18551525
160	0xbe576908	-0.2103616
161	0xbdfb24e6	-0.12262897
162	0x3e4eb3d3	0.20185785
163	0x3d215277	0.039385285
164	0xbd1f6fe3	-0.038925063
165	0xbdc549e7	-0.096332364
166	0xbe8f0d56	-0.27939862
167	0xbea4d070	-0.32190275
168	0xbd34f462	-0.044178374
169	0xbdf7088d	-0.12062178
170	0xbe9495b7	-0.29020473
171	0xbe21d5da	-0.15804234
172	0xbd0a548f	-0.033772048
173	0xbe341e19	-0.17589606
174	0xbe736cea	-0.23772016
175	0xbe5e2f6f	-0.21697782
176	0x3e5a8d2f	0.2134292
177	0x3e7d114b	0.24713628
178	0x3e51220a	0.20423141
179	0xbe440553	-0.19142656
180	0xbe9befa0	-0.30456257
181	0xbe6f43db	-0.23365729
182	0x3c988284	0.018616922
183	0x3e0083af	0.12550233
184	0x3cf9344b	0.030420443
185	0xbe88ba8e	-0.2670483
186	0xbe8b385c	-0.27191436
187	0x3e738ad7	0.23783432
188	0x3e9db98b	0.3080562
189	0xbdbffcef	-0.09374415
190	0x3e5f5189	0.21808447
191	0x3c37fcc9	0.011229702
192	0xbd640333	-0.055667114
193	0xbc18973f	-0.009313404
194	0x3ce108de	0.027470049
195	0xbd3c34c8	-0.045948774
196	0xbe5b56a1	-0.21419765
197	0xbe0718e3	-0.13193087
198	0xbe019d9f	-0.12657784
199	0xbe527998	-0.20554197

dptb.embedding.descriptor.embedding_net.layers.0.layer.out_layer.bias f4 [20]
0	0xbc13164b	-0.008977483
1	0xbe3a8b2c	-0.18217152
2	0xbe282e60	-0.1642394
3	0xbe8fc2b1	-0.28078225
4	0xbe8e7932	-0.2782684
5	0xbe34fc8d	-0.17674465
6	0xbe8dba5b	-0.2768124
7	0x3e00b464	0.12568814
8	0xbe819e9f	-0.2531633
9	0xbe9cdae6	-0.30635756
10	0xbe8b6593	-0.27225932
11	0x3e30eac6	0.17277059
12	0xbe2d9196	-0.16950068
13	0xbc89734b	-0.016778609
14	0xbea70556	-0.32621258
15	0xbc843856	-0.016140144
16	0xbe47e8c2	-0.19522384
17	0xbe3b6a3e	-0.18302247
18	0x3e8b12c0	0.27162743
19	0xbd239229	-0.03993431

dptb.embedding.descriptor.embedding_net.out_layer.weight f4 [30, 20]
0	0xbdc12e7c	-0.09432694
1	0x3e133bfc	0.14378351
2	0x3df31563	0.118693136
3	0x3db35ba1	0.08757711
4	0xbd4e7043	-0.05040003
5	0xbe0a2cfe	-0.13493726
6	0xbdbff2f2	-0.0937251
7	0x3c8987a2	0.016788308
8	0x3db61338	0.088903844
9	0xbdb6f21b	-0.08932897
10	0x3cb9d16f	0.022682874
11	0x3e02457f	0.12721823
12	0x3c9d3420	0.019189894
13	0xbc75db1b	-0.015005852
14	0xbd83a57a	-0.064280465
15	0xbe364977	-0.17801462
16	0xbe3806cb	-0.17971341
17	0xbdeac0e2	-0.11462571
18	0x3e26a047	0.16272078
19	0xbde5b804	-0.11216739
20	0x3d92a98e	0.07161246
21	0xbe42381b	-0.18966715
22	0x3e57a4d6	0.21058974
23	0x3e24bae8	0.16086924
24	0xbdc4074e	-0.09571706
25	0x3d4ab168	0.049485594
26	0x3e479b72	0.19492891
27	0xbe500f0b	-0.20318238
28	0x3dcbee81	0.099576004
29	0x3e5c26d3	0.21499185
30	0xbe052b17	-0.13004719
31	0xbe2cf1d1	-0.1688912
32	0xbce62a7b	-0.028096428
33	0x3dfea942	0.12434627
34	0x3e3836e6	0.17989692
35	0xbdf90f2e	-0.121610984
36	0x3d5fedd6	0.054670177
37	0xbdf8c53f	-0.12146997
38	0xbe6be05e	-0.23034808
39	0xbcf1c0ab	-0.029510817
40	0xbdf10588	-0.11768633
41	0x3dddf1be	0.10837124
42	0xbd1e5c67	-0.03866234
43	0xbe461e31	-0.19347455
44	0xbc8c20cd	-0.017105484
45	0xbe2d6eba	-0.1693677
46	0xbdf3450a	-0.118784025
47	0xbc2e2c85	-0.0106307315
48	0xbde4dcd8	-0.11174935
49	0x3b225135	0.0024767641
50	0x3e4081e6	0.18799552
51	0x3e5c6a01	0.21524812
52	0xbde50694	-0.11182895
53	0xbda2f163	-0.07956197
54	0x3dd1125b	0.10208579
55	0xbdbbd277	-0.09171002
56	0xbde79613	-0.11307921
57	0xbcbe703a	-0.023246873
58	0xbd3bd23d	-0.045854796
59	0xbc1ef548	-0.009702034
60	0xbd97b8cb	-0.07408293
61	0xbe4f65e5	-0.20253713
62	0xbe603133	-0.21893768
63	0x3e41e660	0.18935537
64	0x3dbd7794	0.09251323
65	0x3e2f1da2	0.17101148
66	0x3e308752	0.1723912
67	0xbdabf444	-0.08396199
68	0xbe4ad7ab	-0.19808833
69	0x3e243536	0.16035923
70	0x3e2ceff4	0.1688841
71	0x3db11e8e	0.08648406
72	0xbd133d2f	-0.03594702
73	0x3e3249e9	0.17411007
74	0xbe579566	-0.21053085
75	0xbcfd6efd	-0.030936712
76	0xbe8b4380	-0.27199936
77	0xbdcae0c3	-0.09906151
78	0xbe0bde50	-0.13659024
79	0x3d057d23	0.032590043
80	0x3e02caf2	0.1277273
81	0x3e5af1a6	0.21381244
82	0x3db608d4	0.088884026
83	0xbd2ca518	-0.042149633
84	0xbe4d71d5	-0.20062955
85	0xbd0584e3	-0.032597434
86	0x3e07b240	0.1325159
87	0x3deaf037	0.114715986
88	0x3deeff99	0.11669845
89	0xbe3065e1	-0.17226364
90	0x3e0294e6	0.12752113
91	0xbdb37824	-0.087631494
92	0x3e60abf2	0.21940592
93	0x3e5934ea	0.21211591
94	0xbe2d0c23	-0.16899161
95	0xbe4260b7	-0.18982206
96	0x3e71d9f9	0.23618306
97	0xbcc9dea3	-0.024642294
98	0x3e0effdc	0.1396479
99	0xbd835f68	-0.06414682
100	0xbd84c256	-0.06482379
101	0x3d9fc192	0.078005925
102	0xbe61c29a	-0.22046891
103	0xbe488d6e	-0.19585201
104	0xbe31ef2d	-0.17376395
105	0x3e2d3fd8	0.16918886
106	0xbe194501	-0.14967729
107	0x3d019e0c	0.031644866
108	0x3d8425eb	0.06452545
109	0x3d969b97	0.07353895
110	0x3dc4226e	0.095768794
111	0xbd17744f	-0.036976155
112	0xbe303e6f	-0.17211317
113	0x3e0f08eb	0.13968246
114	0x3c120505	0.00891233
115	0xbd6ac384	-0.057315364
116	0x3e1266b3	0.14296989
117	0xbcdb9c48	-0.02680792
118	0xbdc89f2f	-0.09795987
119	0x3e4275d4	0.1899026
120	0xbc8ef5a4	-0.017451115
121	0x3de39f74	0.11114398
122	0x3e3f02c2	0.18653396
123	0xbd97e86c	-0.07417378
124	0xbd095607	-0.033529308
125	0x3e0938dd	0.13400598
126	0x3e29ee07	0.16594706
127	0xbc962dcc	-0.018332385
128	0x3e44f178	0.19232738
129	0xbcf76cec	-0.030203305
130	0xbdcd54bc	-0.100259274
131	0x3cab88c0	0.02093923
132	0xbe11c1c7	-0.14234076
133	0xbdca86ec	-0.098890156
134	0x3ddf474a	0.10902269
135	0xbc497296	-0.012295386
136	0xbd467243	-0.048448812
137	0xbe0c7974	-0.13718206
138	0x3e49269f	0.19643639
139	0x3e19cf7e	0.15020558
140	0x3d916a9e	0.07100414
141	0x3dca1cd5	0.098687805
142	0xbde2e110	-0.110780835
143	0xbdf02167	-0.11725121
144	0x3dd177ad	0.102279045
145	0x3e3b3105	0.18280418
146	0x3e57845e	0.21046588
147	0x3e488b4a	0.19584385
148	0x3de83688	0.11338526
149	0xbd535be3	-0.051601302
150	0x3d54416c	0.051820204
151	0xbe175e09	-0.14781965
152	0xbd2e1d3e	-0.042508356
153	0x3da3458c	0.079722494
154	0xbc8332e5	-0.01601548
155	0x3d8dceb2	0.069241896
156	0xbdc139a4	-0.09434822
157	0xbe18a031	-0.14904858
158	0xbe10d1e9	-0.14142574
159	0xbe1046bd	-0.14089485
160	0xbc21ed94	-0.009883303
161	0xbd3ecb84	-0.046580806
162	0xbe0ed077	-0.1394671
163	0x3dbaa47a	0.09113403
164	0xbe7b702c	-0.24554509
165	0xbd31da1b	-0.043420892
166	0x3e161f9e	0.14660498
167	0x3da91c3f	0.08257341
168	0xbd3425e9	-0.043981466
169	0xbe33511e	-0.17511413
170	0x3d954d3f	0.07290124
171	0x3e42be0a	0.19017807
172	0xbd0729af	-0.032998737
173	0xbc15481f	-0.009111433
174	0x3d9f5999	0.07780761
175	0x3e2b378f	0.16720413
176	0xbe1aad16	-0.1510509
177	0xbe1594f6	-0.14607605
178	0x3e4b4588	0.19850743
179	0xbc81d5c1	-0.015848996
180	0x3e13b723	0.1442533
181	0xbd847149	-0.0646692
182	0x3e685700	0.22689438
183	0xbb5bb945	-0.0033527177
184	0x3e3c4849	0.1838695
185	0xbe1dc86b	-0.15408485
186	0xbdac876f	-0.084242694
187	0xbe1840f3	-0.14868526
188	0xbe3b42ef	-0.18287252
189	0xbdf4a59e	-0.119456515
190	0xbd7166b0	-0.05893582
191	0x3e60b35a	0.21943417
192	0x3e491043	0.1963511
193	0x3d63f448	0.055652887
194	0xbe44da43	-0.19223885
195	0x3e6a445c	0.2287764
196	0xbe1ba249	-0.15198626
197	0x3d243957	0.040093746
198	0xbd9e929d	-0.07742808
199	0xbdf868dc	-0.12129375
200	0xbd87bc9c	-0.06627771
201	0xbd1882b9	-0.03723404
202	0x3d9dacd5	0.07698981
203	0xbe01c6af	-0.12673448
204	0x3e078fca	0.13238445
205	0xbe4c4bd7	-0.19950806
206	0x3e037a0d	0.12839527
207	0x3e184d25	0.14873178
208	0x3e0f83cd	0.14015122
209	0x3e5e046e	0.21681377
210	0xbdeca81c	-0.11555502
211	0x3db02d88	0.086024344
212	0xbdf80f4c	-0.12112293
213	0x3b3d270a	0.002886238
214	0xbe4bfc9f	-0.19920586
215	0xbe00215d	-0.12512727
216	0xbe0881d9	-0.13330783
217	0x3d8f2805	0.06990055
218	0x3e40193c	0.18759626
219	0x3dfae12e	0.12249981
220	0x3e02b0df	0.12762783
221	0x3e3c05ba	0.1836156
222	0x3d269afe	0.040675156
223	0x3e796aaf	0.24357103
224	0xbdb7765c	-0.08958122
225	0xbc67d0e2	-0.014148923
226	0xbcef8a60	-0.029240787
227	0xbe32b7e3	-0.1745296
228	0x3e500c72	0.20317248
229	0x3d66a072	0.056305356
230	0x3db9ec72	0.090783015
231	0xbcce4dfb	-0.025183668
232	0xbe40e57e	-0.18837544
233	0xbe55bdeb	-0.20873229
234	0xbe3ff99d	-0.18747564
235	0xbd7615cd	-0.060079385
236	0x3e0e9d70	0.13927245
237	0x3d599d89	0.053128753
238	0xbd400e7a	-0.046888806
239	0xbdba14b1	-0.09085978
240	0xbe3724a1	-0.17885067
241	0xbe388e68	-0.18023074
242	0xbdf1ee3d	-0.118130185
243	0x3d3cc31b	0.046084505
244	0xbdad330c	-0.08457002
245	0xbcb171cf	-0.021660713
246	0xbd8a56a7	-0.06754809
247	0x3e67f199	0.22650756
248	0xbe4489e4	-0.19193226
249	0xbb22c3fa	-0.002483605
250	0xbcceb53f	-0.02523291
251	0x3e81a422	0.25320536
252	0x3e21ec85	0.15812881
253	0xbd7668d2	-0.06015856
254	0xbe3a9275	-0.18219931
255	0xbcbe26c3	-0.023211842

dptb.embedding.descriptor.embedding_net.out_layer.bias f4 [30]
0	0x3deabc66	0.114617154
1	0x3e42109f	0.18951653
2	0x3e589907	0.21152125
3	0x3dc49ce6	0.096002385
4	0xbe2fbd85	-0.1716214
5	0x3cbcbe06	0.023039829
6	0xbc6c96db	-0.014440264
7	0x3e20b04e	0.15692255
8	0x3c29fa2e	0.010374589
9	0xbe1b3636	-0.15157399
10	0xbe42325f	-0.18964528
11	0x3e18fff9	0.14941396
12	0x3e4379b6	0.19089398
13	0x3e275694	0.1634162
14	0xbe2b7764	-0.16744763
15	0xbe04117b	-0.12897293
16	0x3d696683	0.05698253
17	0xbdd2d83d	-0.102951504
18	0xbe2dc723	-0.16970496
19	0x3dc12085	0.09430031
20	0x3da5a6a5	0.080884255
21	0xbde73ede	-0.11291288
22	0xbd3c6407	-0.04599383
23	0xbe531b05	-0.20615776
24	0x3d6a9bb2	0.05727739
25	0xbe553eb3	-0.20824699
26	0xbe7df69e	-0.24801108
27	0xbe311264	-0.17292172
28	0x3e13fd1d	0.14452024
29	0xbde74892	-0.112931386

dptb.node_prediction_h.layers.0.layer.in_layer.weight f4 [16, 900]
0	0x3d0aff8d	0.03393512
1	0xbc185364	-0.009297226
2	0xbbde7aa6	-0.006789523
3	0xbcf11ceb	-0.029432734
4	0x3cac1f2a	0.021010954
5	0x3d138d1e	0.03602325
6	0xbca7024a	-0.020386834
7	0xb844bd68	-4.690644e-05
8	0x3d388e62	0.04505766
9	0x3ce71f93	0.028213298
10	0xbc746fed	-0.014919263
11	0x3cef6f69	0.02922793
12	0xbc406f09	-0.011745223
13	0x3cb13023	0.021629399
14	0x3cc4d8f6	0.024029236
15	0x3b7a008b	0.0038147296
16	0xbc8ee640	-0.017443776
17	0xbc8f18e0	-0.017467916
18	0xbc3d065b	-0.01153716
19	0xbc9ba6a0	-0.019000351
20	0xbce92f22	-0.028464857
21	0x3c9acc14	0.01889614
22	0x3c3490bc	0.0110208355
23	0xbc3d2cfc	-0.01154637
24	0x3d35af8e	0.044356875
25	0xbd3abcd2	-0.04559023
26	0xbd232976	-0.039834462
27	0xbd436856	-0.047706924
28	0x3cc64685	0.024203548
29	0xbb994c4b	-0.0046782843
30	0xbd2ea1fd	-0.042634953
31	0xbc37dd3d	-0.011222181
32	0x3b6aecd7	0.0035846734
33	0x3d3e8533	0.046513747
34	0x3c54b51f	0.012982636
35	0xbc836934	-0.016041376
36	0x3d243b25	0.040095467
37	0x3d2265e8	0.039647967
38	0xbc943c47	-0.018095149
39	0x3c2ebaac	0.010664623
40	0xbd09af5c	-0.0336145
41	0x3d380e2e	0.044935398
42	0xbc179f0a	-0.009254226
43	0x3ce20cb7	0.027593954
44	0xbbca1ca1	-0.0061679636
45	0x3cf48dfa	0.029852856
46	0x3c4974d2	0.012295919
47	0xbcc2b5bb	-0.023768296
48	0x3d1b61b6	0.03793498
49	0x3cf7307d	0.030174488
50	0xbd95a74b	-0.07307299
51	0x3c93ece9	0.018057304
52	0x3d90196c	0.07036099
53	0x3bc79d6a	0.0060917633
54	0xbc7d7176	-0.015468946
55	0xbba418c0	-0.0050078332
56	0x3c86f3f9	0.016473757
57	0x3cbbbc8b	0.022917053
58	0xbd00f5d1	-0.03148443
59	0x3cc2d050	0.023780972
60	0x3b5663eb	0.0032713364
61	0xbb60b08e	-0.0034284922
62	0xba6591a2	-0.0008757358
63	0xbd2f550c	-0.042805716
64	0x3a626e72	0.00086376735
65	0x3c9251f3	0.017861342
66	0xbb8f3e51	-0.0043714424
67	0xbcd0d4ce	-0.025492098
68	0xbc2b01ff	-0.010437488
69	0xbd1672e6	-0.03673067
70	0xbcacf60d	-0.02111342
71	0xbc82e7d1	-0.01597968
72	0x3cda6626	0.026660036
73	0xbdc6cc36	-0.09706919
74	0x3adab9b8	0.0016687429
75	0x3c4bb5a8	0.012433447
76	0xbc8f6a61	-0.01750678
77	0x3d2021d4	0.03909476
78	0xbccdf376	-0.025140505
79	0xbcc5150f	-0.024057893
80	0x3cd6783f	0.026180385
81	0x3cca4e4b	0.024695536
82	0xbd9062bf	-0.07050084
83	0xbbf209bf	-0.0073864157
84	0x3cfd5d61	0.030928316
85	0xbcfaed3a	-0.030630697
86	0xb8cec30d	-9.8591765e-05
87	0xbd37a648	-0.044836313
88	0x3cbbf930	0.02294597
89	0xbc3c144b	-0.011479448
90	0x3d0db47c	0.03459595
91	0xbc08ae39	-0.008342319
92	0xbcde1067	-0.02710743
93	0x3b03598a	0.0020042383
94	0x3a3ad893	0.0007127609
95	0xbc30324f	-0.010754182
96	0x3d0e185e	0.034691207
97	0x3d3f45aa	0.046697296
98	0xbd1163d1	-0.035495583
99	0x3d64cda3	0.055860173
100	0xbba2b3a8	-0.0049652644
101	0x3d082675	0.0332398
102	0xbcae1b1f	-0.021253167
103	0xba955d6c	-0.001139564
104	0xbca0b1b8	-0.019615993
105	0x3cd53aed	0.026029075
106	0x3aad7aad	0.0013235413
107	0xbd00fcf1	-0.031491224
108	0xbd01db10	-0.031703055
109	0xbaeb8889	-0.0017969768
110	0xbd51a78a	-0.05118517
111	0x3d02847a	0.03186462
112	0x3d7fb4cb	0.062428277
113	0x3d832fa3	0.0640557
114	0x3ccf37b7	0.025295122
115	0x3d00a917	0.031411257
116	0xbc24eabc	-0.010065731
117	0x3d46b84f	0.048515614
118	0xbcb14ec2	-0.021644
119	0x3c5c5e63	0.013450238
120	0x3c82282f	0.015888302
121	0x3caa6dd4	0.020804323
122	0x3ccb97ac	0.024852596
123	0x3d45a8f0	0.048256814
124	0xbd3aba67	-0.045587923
125	0xbc928d5f	-0.017889677
126	0x3b08a9b4	0.0020853104
127	0xbcb75142	-0.022377614
128	0x3bceb4a4	0.006308155
129	0xbd00e21e	-0.031465642
130	0x3d8aa896	0.067704365
131	0xbc56426c	-0.01307736
132	0x3cf772ba	0.030206073
133	0xbcf1b19c	-0.029503636
134	0xbc9eeadb	-0.019399097
135	0xbd0d3a1b	-0.03447924
136	0x3d2c0687	0.041998412
137	0x3a8f3f97	0.0010928985
138	0xbc5f7982	-0.01363981
139	0xb8ed2fc8	-0.000113099406
140	0x3b7d2bd5	0.0038630862
141	0xbb37bd3d	-0.0028036379
142	0x3d132073	0.035919618
143	0x3c8d6098	0.017257974
144	0x3da1fdd6	0.079097435
145	0xbb32295c	-0.0027185297
146	0x3c9c8682	0.019107107
147	0xbcb1c029	-0.021698074
148	0xbd4231bc	-0.04741071
149	0x3d115f2c	0.035491154
150	0x3c9e20ee	0.019302811
151	0xbd042d74	-0.03226991
152	0xbbf00d95	-0.007325838
153	0xbab0df0e	-0.001349421
154	0xbc96499e	-0.01834565
155	0xbc9b17ee	-0.018932309
156	0xbcb6b5d6	-0.022303503
157	0xbcbe0403	-0.023195272
158	0x3d5897c9	0.05287913
159	0xbd22d401	-0.039752964
160	0xbc4be180	-0.0124439
161	0xbca3a68c	-0.019976877
162	0x3d5adc51	0.053432766
163	0xbcad33ed	-0.021142924
164	0xbd27fc44	-0.041012064
165	0xbcbdf516	-0.023188155
166	0x3d30280f	0.043006953
167	0x3d7e553a	0.062092997
168	0xbcae5025	-0.02127845
169	0x3bf41543	0.0074488237
170	0x3d1f01ca	0.038820066
171	0x39245f62	0.00015675792
172	0xbcc73d56	-0.02432124
173	0xbd940d7d	-0.07229135
174	0x3b1ac5d6	0.0023616455
175	0xbcb1383d	-0.021633262
176	0xbc346462	-0.011010261
177	0x3996ff76	0.00028800563
178	0x3be52eeb	0.0069941184
179	0xbb8b1c3b	-0.0042453087
180	0xbc7d5e00	-0.015464306
181	0xba7a09cd	-0.00095382036
182	0xbcd0f6b4	-0.025508262
183	0x3cb6a16a	0.022293765
184	0xbbb51546	-0.0055262176
185	0xbd460c38	-0.048351496
186	0xbd61472f	-0.054999527
187	0x3d0a3f31	0.03375167
188	0x3b17adcc	0.0023144362
189	0x3c614a86	0.013750678
190	0x3cb288f1	0.021793814
191	0xb9b7c998	-0.0003505468
192	0xbcc827cd	-0.024433041
193	0x3cd291ea	0.025704343
194	0x3be7fce4	0.0070797075
195	0xbc65658e	-0.014001263
196	0xbc4fbdfc	-0.012679573
197	0x3d2e63d8	0.042575687
198	0xbcbb1363	-0.022836393
199	0x3c668c2b	0.014071505
200	0xbc9e3ad2	-0.019315157
201	0xbc72ba12	-0.01481487
202	0x3cd58832	0.02606592
203	0x3d272be5	0.040813345
204	0xbbc95cfc	-0.006145118
205	0x3af5ea9f	0.0018761939
206	0x3c837406	0.016046535
207	0x3d0e0eaa	0.034681953
208	0x3c253caf	0.010085269
209	0x3c0002b4	0.0078131445
210	0x3c6eea1c	0.014582183
211	0x3d2b4ea4	0.041823044
212	0xba01d92d	-0.0004953321
213	0x3d02229e	0.031771295
214	0xbaab307d	-0.0013060715
215	0xbce7ac81	-0.028280498
216	0xbc9c2655	-0.019061247
217	0xbccbfddb	-0.024901321
218	0xbbdb1e01	-0.0066869264
219	0xbd049cd8	-0.03237614
220	0x3d23bb9a	0.039973833
221	0xbd14a884	-0.03629352
222	0x3ae0b653	0.0017144181
223	0x3d4969d4	0.04917319
224	0x3b5bc08d	0.0033531517
225	0x3c2a974d	0.0104120495
226	0x3be8b742	0.007101924
227	0xbd344b2c	-0.044017002
228	0x3c44fd63	0.012023303
229	0xbae18dcd	-0.0017208398
230	0xbbb3fa29	-0.005492468
231	0xbc3bf836	-0.011472752
232	0x3ce9735d	0.028497392
233	0xbc8a0109	-0.016846197
234	0xbca93819	-0.020656632
235	0xbc5683fe	-0.013092993
236	0xbd0b74b2	-0.034046836
237	0x3c2b1cd8	0.010443889
238	0xbd6f91e5	-0.058488745
239	0xbc0cd848	-0.008596487
240	0x3bbca92f	0.005757473
241	0xbd7861b0	-0.060640037
242	0x3c9525b4	0.018206455
243	0xbd8351b4	-0.06412068
244	0xbb6e3deb	-0.0036352824
245	0x3c548f29	0.012973585
246	0x3cc9aebe	0.024619456
247	0xbcde1010	-0.027107269
248	0xbcd9a6e2	-0.026568834
249	0x3a146cfa	0.0005661991
250	0x3cc9cc2c	0.02463349
251	0xbd0325a1	-0.032018308
252	0xbbfae1e6	-0.0076563237
253	0xbc85384d	-0.016262198
254	0x3c1a62ae	0.009422941
255	0xbd20e426	-0.03928008

dptb.node_prediction_h.layers.0.layer.in_layer.bias f4 [16]
0	0x3cb66e0b	0.02226927
1	0x3c433b32	0.011915969
2	0x3d9bc292	0.07605471
3	0x3d4de4f3	0.05026717
4	0xbd3370b8	-0.04380867
5	0xbc5bf140	-0.013424218
6	0xbc88b1e8	-0.016686395
7	0x3d69c79b	0.057075124
8	0x3be7a616	0.0070693595
9	0x3c204dfd	0.009784219
10	0x3d622aaf	0.055216487
11	0x3d555312	0.052081175
12	0xbce76422	-0.02824599
13	0x3d7ecac5	0.062205095
14	0x3becea5b	0.007230086
15	0xbae2aab2	-0.0017293303

dptb.node_prediction_h.layers.0.layer.out_layer.weight f4 [16, 16]
0	0x3e69fe46	0.22850904
1	0x3e738f1e	0.23785064
2	0x3d6b0433	0.05737705
3	0x3cdaf794	0.026729383
4	0x3d219a89	0.039454017
5	0x3dfa2fdf	0.12216162
6	0xbe07d557	-0.13264976
7	0xbe0105f0	-0.12599921
8	0xbd621889	-0.05519918
9	0x3d2ebaa0	0.04265845
10	0x3e1aa678	0.15102565
11	0x3dd11e28	0.1021083
12	0x3da35f97	0.07977217
13	0xbd94510b	-0.0724202
14	0x3d9e6936	0.07734911
15	0x3e4c2650	0.1993649
16	0xbe24215c	-0.1602835
17	0x3e83f611	0.2577367
18	0x3de87ab2	0.11351527
19	0xbe11ef5b	-0.14251463
20	0x3cc125a8	0.023577526
21	0x3e808d9a	0.25108033
22	0x3e4ea4a9	0.2018
23	0xbe0c664b	-0.13710897
24	0x3d6e786c	0.058220312
25	0xbd8920da	-0.06695719
26	0xbe72df92	-0.23718098
27	0x3c921d57	0.017836256
28	0x3e1e5016	0.15460238
29	0xbd46e3a7	-0.04855695
30	0x3e14ec40	0.14543247
31	0x3e351e6b	0.17687385
32	0x3da66092	0.08123888
33	0xbe0aaf6a	-0.13543478
34	0xbd5dc47e	-0.054142468
35	0x3cc7c2c3	0.024384862
36	0xbe34a83b	-0.176423
37	0xbe665fab	-0.22497432
38	0xbe7147a7	-0.2356249
39	0xbe479d28	-0.19493544
40	0xbdca57ea	-0.098800495
41	0xbe2fb925	-0.17160471
42	0x3e53965f	0.20662831
43	0x3e6716ab	0.22567241
44	0x3dd21b44	0.10259107
45	0xbd459fad	-0.04824798
46	0x3d5b569a	0.053549387
47	0xbe253016	-0.16131625
48	0xbdf375c4	-0.118876964
49	0x3e264a64	0.16239315
50	0x3ddb9ab7	0.10722869
51	0x3e7649f3	0.24051647
52	0xbe274794	-0.16335899
53	0xbd361cc7	-0.044461038
54	0xbe6630ea	-0.22479597
55	0x3e31596c	0.17319268
56	0x3e299e9c	0.16564411
57	0x3dc45917	0.09587305
58	0x3e1fd16c	0.15607232
59	0xbdb8ce01	-0.09023667
60	0xbe9b91fb	-0.30384812
61	0x3e74ddde	0.2391276
62	0xbe3c9b50	-0.18418622
63	0xbe12e3cd	-0.14344712
64	0xbe9ce253	-0.30641422
65	0xbe81fdd6	-0.25388974
66	0x3e36c54d	0.17848702
67	0x3e975db5	0.2956368
68	0xbb8dc9af	-0.004327021
69	0xbdafa0e3	-0.085756086
70	0xbd9af29c	-0.07565805
71	0x3d3c4343	0.045962583
72	0xbd4c4179	-0.049867127
73	0xbd2ad717	-0.041709032
74	0xbe0326e2	-0.12807801
75	0x3ea1e049	0.31616428
76	0x3d95f384	0.073218375
77	0x3d79ba37	0.060968604
78	0xbe396b3e	-0.18107316
79	0x3e07056e	0.13185665
80	0x3e4ec7a4	0.20193344
81	0xbc32aba4	-0.01090518
82	0x3d2f94d9	0.04286656
83	0xbdccbeee	-0.099973544
84	0xbe8673fb	-0.2626036
85	0x3e8728e8	0.26398396
86	0x3d230a94	0.03980501
87	0x3d924d36	0.07143633
88	0xbc670f1d	-0.014102724
89	0x3d4e7544	0.050404802
90	0x3e0e855a	0.13918057
91	0xbd6a172f	-0.057151016
92	0xbd881e1f	-0.0664637
93	0xbdf2d79f	-0.11857533
94	0xbdf00879	-0.11720366
95	0xbcb8fdef	-0.022582022
96	0x3e44b8c1	0.19211103
97	0x3d568eec	0.052382395
98	0xbde292de	-0.11063169
99	0x3cbec393	0.023286616
100	0x3e027ed0	0.12743688
101	0xbe537595	-0.20650323
102	0xbd758024	-0.059936658
103	0x3dc326bd	0.09528873
104	0x3e74b033	0.2389534
105	0xbd9aec99	-0.07564659
106	0x3e34b6dd	0.17647882
107	0x3e7b84f9	0.24562444
108	0x3e0f7f7c	0.14013475
109	0x3e9231d9	0.28553656
110	0xbe0e0acb	-0.13871305
111	0x3e1531ff	0.14569853
112	0x3e86f459	0.26358297
113	0x3e4a4b75	0.19755347
114	0xbc4ef0fa	-0.0126306955
115	0x3b90c9c3	0.004418583
116	0x3d4034d6	0.04692539
117	0xbe4c1431	-0.19929577
118	0x3e55f361	0.20893623
119	0x39b37042	0.0003422518
120	0xbcfb3a2c	-0.030667387
121	0x3e21585b	0.15756361
122	0xbe40153e	-0.18758103
123	0xbd1961af	-0.037446674
124	0xbe2cb26e	-0.1686494
125	0xbc8b9d59	-0.017042803
126	0x3ce5e2a5	0.028062174
127	0xbe2f8cd7	-0.1714357
128	0xbe41918f	-0.18903182
129	0xbdc4b783	-0.096053146
130	0xbe053d23	-0.13011603
131	0x3c4830c0	0.012218654
132	0xbe41a165	-0.18909223
133	0x3e1cef83	0.15325741
134	0xbc950a28	-0.01819332
135	0xbe665e50	-0.22496915
136	0x3df5fb33	0.12010803
137	0x3dbdb4f4	0.0926303
138	0xbe0a1109	-0.13483061
139	0x3dd09897	0.10185354
140	0x3d1d87e2	0.038459666
141	0xbc8f1b58	-0.017469093
142	0xbe0956e9	-0.1341206
143	0xbd48bafe	-0.049006455
144	0x3e6ec4f5	0.2331732
145	0x3df170ce	0.11789094
146	0xbe7226cd	-0.23647614
147	0xbdbccae5	-0.092183866
148	0x3dfa8362	0.122320905
149	0xbd6a5ce2	-0.057217486
150	0x3e80a51e	0.25125974
151	0xbd982f80	-0.07430935
152	0x3d9dde4d	0.07708416
153	0xbddd7c09	-0.108146735
154	0xbe8091ac	-0.2511114
155	0xbe997e9b	-0.29979405
156	0xbdbd50ad	-0.09243903
157	0x3d3f1a39	0.046655867
158	0x3ced15d8	0.02894108
159	0xbe772e28	-0.24138701
160	0x3e7da58e	0.24770185
161	0x3debc4a1	0.11512113
162	0xbe5ed1af	-0.21759675
163	0xbe7485ab	-0.23879115
164	0xbe41c863	-0.18924098
165	0xbc022592	-0.007943528
166	0xbe463904	-0.19357687
167	0xbe50ff00	-0.20409775
168	0x3d8c8ad5	0.068624176
169	0x3e619cbf	0.2203245
170	0xbaaf24e5	-0.0013362436
171	0xbe780f78	-0.24224651
172	0xbde5ed97	-0.11226957
173	0x3cdfbf25	0.027312825
174	0x3dc0583f	0.093918316
175	0xbd6b803f	-0.057495352
176	0x3d831e9f	0.06402325
177	0xbd0e5826	-0.034752034
178	0x3e2c54d2	0.16829231
179	0xbc500262	-0.012695881
180	0xbe88aa5b	-0.2669247
181	0xbd999b62	-0.0750034
182	0x3e703aa5	0.23459871
183	0xbe6d7015	-0.23187287
184	0x3dca2f35	0.09872285
185	0x3d1cff0a	0.03832916
186	0xbd15202d	-0.03640764
187	0x3d85d629	0.065349884
188	0x3e8fe09f	0.2810106
189	0x3d97f96e	0.07420622
190	0x3e5a614f	0.21326183
191	0x3dc58f96	0.096465275
192	0x3d84299a	0.06453247
193	0xbdc17919	-0.09446926
194	0xbe8206a0	-0.2539568
195	0x3e087ad6	0.13328108
196	0xbe340470	-0.17579818
197	0x3dae411f	0.085085146
198	0x3e56afa6	0.20965442
199	0xbd6592dd	-0.056048263
200	0x3dac18b2	0.08403148
201	0xbe08aef3	-0.13347988
202	0x3e1bc223	0.15210776
203	0xbe1c9da9	-0.15294518
204	0xbe11060b	-0.14162461
205	0xbe617b3c	-0.22019666
206	0x3e537aea	0.20652357
207	0x3dedf9f8	0.116199434
208	0x3e51e404	0.20497137
209	0xbe756ae3	-0.23966555
210	0x3e668fc3	0.22515778
211	0x3df66de3	0.12032678
212	0xbe78e01b	-0.2430424
213	0x3e6bc108	0.23022854
214	0x3de9be5d	0.11413262
215	0x3e78f717	0.24313007
216	0x3e3a9277	0.18219934
217	0xbe876a07	-0.2644808
218	0x3e8771e2	0.26454073
219	0xbe0fe8cc	-0.14053649
220	0xbe689f74	-0.22717077
221	0x3e83412f	0.2563567
222	0xbe3f0a9a	-0.18656388
223	0x3d42048b	0.047367614
224	0xbdf06c8e	-0.11739455
225	0xbe64dce2	-0.22349885
226	0x3e24fa17	0.16111027
227	0xbe69e8fb	-0.22842781
228	0x3d62472c	0.055243656
229	0x3e11d511	0.14241435
230	0x3e560b46	0.20902738
231	0x3ad00e69	0.0015873435
232	0xbe80adf6	-0.25132722
233	0x3d875166	0.066073224
234	0xbe8401d1	-0.25782636
235	0xbe81297c	-0.25226963
236	0x3d6c6b17	0.057719316
237	0x3d1b61d4	0.037935093
238	0x3be90b72	0.00711196
239	0x3e62eb0f	0.2215998
240	0xbdcd7e12	-0.10033812
241	0xbe450b57	-0.19242607
242	0xbd43ea63	-0.04783095
243	0xbe95b2f9	-0.29238108
244	0x3e43156a	0.19051138
245	0xbe305ef0	-0.17223716
246	0x3d5aadd8	0.053388447
247	0xbe89f788	-0.26946664
248	0xbd7093cd	-0.058734704
249	0xbe1d3778	-0.15353191
250	0xbd7f63a3	-0.06235088
251	0xbe1c6ce5	-0.15275915
252	0x3e78b635	0.24288256
253	0xbe422147	-0.18958007
254	0xbe5b4a2b	-0.21415012
255	0xbd2f86ca	-0.042853154

dptb.node_prediction_h.layers.0.layer.out_layer.bias f4 [16]
0	0xbdd1a291	-0.10236085
1	0xbe57d0d7	-0.2107576
2	0x3d69b7ed	0.05706017
3	0x3e6edd68	0.23326647
4	0x3e73a994	0.23795158
5	0xbdc748c2	-0.09730674
6	0x3e575ccb	0.21031491
7	0xbe06caa1	-0.13163234
8	0xbad4ed36	-0.0016245011
9	0xbe05f9a6	-0.13083515
10	0xbe2e5283	-0.17023663
11	0xbe254801	-0.16140749
12	0xbd436668	-0.047705084
13	0x3e3a19a0	0.18173838
14	0xbe232ae1	-0.15934326
15	0xbd69fe2a	-0.057127155

dptb.node_prediction_h.out_layer.linear.weight f4 [3, 16]
0	0x3b94602d	0.0045280666
1	0x3bd5c921	0.0065242206
2	0xbbcd382c	-0.0062627997
3	0xbc053d66	-0.008132314
4	0xbbe02c34	-0.006841207
5	0x3b7937c4	0.0038027624
6	0xbbb5cbf8	-0.0055479966
7	0x3baa3917	0.005194794
8	0x3be57eda	0.0070036473
9	0x3c06e4c5	0.008233254
10	0x3c16c4cd	0.009202194
11	0x3bafd98f	0.005366511
12	0x3bebdccd	0.0071979524
13	0xbc06897d	-0.008211491
14	0x3c0985b0	0.00839369
15	0x3c5726a0	0.0131317675
16	0x3c5c4a69	0.013445475
17	0x3ca3f73e	0.020015355
18	0xbce65e14	-0.028121032
19	0xbcec9ad4	-0.028882422
20	0xbcbfbe24	-0.023406096
21	0x3c398cce	0.011325074
22	0xbcaaeba3	-0.020864313
23	0x3ca7967a	0.020457495
24	0x3ca6f236	0.020379167
25	0x3cf9c73b	0.030490508
26	0x3d0b606b	0.0340275
27	0x3c80d416	0.01572613
28	0x3ce163e6	0.027513456
29	0xbcfd1f0e	-0.030898597
30	0x3d043d40	0.032284975
31	0x3d3d2076	0.046173535
32	0x3ab867d4	0.0014069029
33	0xbaa0bbf9	-0.0012263051
34	0x3a2f8f3e	0.0006697065
35	0xbb0d6e2f	-0.0021580567
36	0x3ab4161e	0.0013739502
37	0xb824c169	-3.9280774e-05
38	0x38951b21	7.109927e-05
39	0xb9ee4564	-0.00045446598
40	0x3ab56d10	0.0013841707
41	0xbac90252	-0.0015335775
42	0x3a1c2215	0.00059560064
43	0x3a1f3584	0.0006073343
44	0x3a5b20b0	0.0008359058
45	0x39c270cd	0.00037086607
46	0x39a4ea44	0.0003145506
47	0xba0c054e	-0.00053413666

dptb.node_prediction_h.out_layer.linear.bias f4 [3]
0	0xba17427c	-0.00057701
1	0xbbf879bd	-0.0075828717
2	0x399d68ef	0.00030023555

dptb.edge_prediction_h.layers.0.layer.in_layer.weight f4 [16, 901]
0	0xbd5e58bd	-0.054283846
1	0xbd5961b6	-0.0530717
2	0xbc7e4a3d	-0.0155206295
3	0x3b30a835	0.0026955728
4	0xbd68d2f1	-0.056841794
5	0x3cfa4f1a	0.030555297
6	0x3c48fbf6	0.012267103
7	0xbbb240c3	-0.005439849
8	0x3c21b421	0.009869606
9	0xbc78da79	-0.015188807
10	0xbb1978c3	-0.0023417927
11	0xbd2ffda8	-0.042966515
12	0x3b006a37	0.001959456
13	0xbd2e260b	-0.04251675
14	0xbbafedfd	-0.0053689466
15	0xba7fdbf9	-0.00097602565
16	0xbc15e488	-0.009148724
17	0xbc9c3df9	-0.01907252
18	0xbd2fe80f	-0.042945918
19	0x3ce7608c	0.02824428
20	0x3bbe5ef2	0.005809658
21	0xbc7f58a4	-0.015585098
22	0xbc520b6b	-0.012820105
23	0x3d66eeb8	0.056380004
24	0xbcc801c3	-0.024414903
25	0x3bf5c48e	0.007500238
26	0x3d286bcd	0.04111843
27	0x3c276763	0.01021752
28	0x3d792c49	0.06083325
29	0xbc6e379f	-0.014539628
30	0xbc9068be	-0.01762807
31	0x3c4120f4	0.011787642
32	0xbcc3d8e4	-0.023907132
33	0x3c2c634c	0.010521721
34	0xbc364df1	-0.011126981
35	0xbce1d526	-0.027567457
36	0x3c2b5bc2	0.0104588885
37	0xbca3ee08	-0.020010963
38	0x3d1de007	0.038543727
39	0x3c00bc03	0.0078573255
40	0xbb77bc90	-0.00378016
41	0x3d011148	0.03151062
42	0xbcd3fba0	-0.02587682
43	0x3d28019e	0.041017167
44	0xbccf38ea	-0.025295693
45	0x3bd5d97b	0.00652617
46	0x3b7ed032	0.0038881418
47	0x3c18ebb0	0.009333536
48	0xbc9d5ba1	-0.019208731
49	0x3ca47c3a	0.020078767
50	0xbc6ec5d1	-0.01457353
51	0xbc996108	-0.018723026
52	0xbcb5dde3	-0.02220053
53	0x3d1abac6	0.037775777
54	0xbce74651	-0.028231772
55	0x3b244b66	0.0025069355
56	0xbbc71c6f	-0.0060763876
57	0xbc8a8897	-0.016910834
58	0xbc9b1daf	-0.018935053
59	0xbd4390d0	-0.047745526
60	0x3d18b28a	0.037279643
61	0x3cc8ac5e	0.024496254
62	0xbc44468f	-0.011979713
63	0x39190369	0.00014592487
64	0x3ab29a62	0.0013626332
65	0xbc64d023	-0.013965639
66	0xbcc27dde	-0.023741659
67	0x3cf2358c	0.029566549
68	0xbb704471	-0.0036661888
69	0x3cef9c15	0.02924923
70	0x3ce9f680	0.028559923
71	0xbcea1d60	-0.02857846
72	0xbcc3d89b	-0.023906996
73	0xbc397923	-0.011320385
74	0x3cab20a1	0.020889582
75	0xbd29fbf6	-0.041500054
76	0x3c040540	0.008057892
77	0x3c16bc45	0.00920016
78	0xbc950c24	-0.018194266
79	0x3b8581cf	0.0040743123
80	0x3cb34748	0.021884575
81	0x3c9cc10d	0.019135023
82	0xbbe5fb6d	-0.0070184977
83	0x3be48b8e	0.006974644
84	0xbce7af59	-0.028281854
85	0x3c65b939	0.014021211
86	0xbc7c5af0	-0.015402541
87	0x3cf99c37	0.030469997
88	0x3bd1574f	0.006388582
89	0x3c50477d	0.012712357
90	0x3d0a9b3a	0.03383944
91	0x3af11b07	0.0018394896
92	0xbc42c7ed	-0.011888486
93	0xbd4725a1	-0.04861987
94	0xbbda6c06	-0.0066657094
95	0x3c929bfd	0.017896647
96	0xbc879025	-0.016548226
97	0x3c47268d	0.012155187
98	0xbd0acc40	-0.033886194
99	0x3bec6d0b	0.0072151474
100	0x3d1ede40	0.038786173
101	0x3d20dd63	0.03927363
102	0x3caee713	0.02135042
103	0x3c1221d1	0.008919195
104	0x3cd2c131	0.025726886
105	0x3d05eb90	0.032695353
106	0x3c7ebb7d	0.01554763
107	0xbc4f1c14	-0.012640972
108	0x3bf9c96b	0.007622888
109	0x3c8bc972	0.01706383
110	0x3d0fe071	0.035126153
111	0xbcc6ba96	-0.024258893
112	0x3d03028b	0.031984847
113	0x3d9cc0aa	0.07653935
114	0x3ca094ca	0.019602198
115	0x3bd7c09c	0.00658424
116	0xbcc8cb0b	-0.024510881
117	0xbb9ea42e	-0.004841349
118	0xbb9cb3c9	-0.0047821742
119	0xbc90da5c	-0.017682247
120	0xbd59e1cf	-0.053193863
121	0x3ca0c087	0.019623054
122	0xbc86d236	-0.016457658
123	0x3cd16155	0.025559107
124	0xbd19067e	-0.037359707
125	0x3d6dad12	0.05802638
126	0xbc8875c9	-0.016657727
127	0xbb8dad40	-0.0043236315
128	0xbc0ee71e	-0.008722095
129	0x3d0f4a43	0.03498293
130	0x3d0d117f	0.034440514
131	0x3d3be6eb	0.045874517
132	0xbcf91557	-0.030405683
133	0x3c918bfa	0.017766941
134	0xbcc5a4dc	-0.024126463
135	0x3cef7ffa	0.029235829
136	0x3d70cde6	0.05879011
137	0xbca1a506	-0.01973201
138	0xbd128a15	-0.035776217
139	0xbc11720f	-0.008877291
140	0xbcb85ad2	-0.022504244
141	0x3d2d20f7	0.042267766
142	0x3bfbaad4	0.0076802764
143	0x3bcb4cb7	0.0062042135
144	0x3acaa182	0.001545951
145	0x3b97b832	0.004630112
146	0x3cb44f5e	0.022010501
147	0x3cbb329c	0.02285128
148	0x3d0d83f3	0.034549665
149	0x3cfa8892	0.0305827
150	0x3b870740	0.0041207373
151	0x3c0089c1	0.007845343
152	0xbce249e4	-0.027623124
153	0x3cc0c18b	0.023529788
154	0x3ca39f04	0.019973285
155	0x3c7e8406	0.0155344065
156	0x3cc467ed	0.023975337
157	0xbc84e88e	-0.016224172
158	0x3d0e9f08	0.034819633
159	0x3ba4f8a1	0.0050345217
160	0x3d23410d	0.03985696
161	0xbc8f7e8e	-0.0175164
162	0x3a929917	0.001118454
163	0xbd570240	-0.05249238
164	0xbabb5cec	-0.0014294661
165	0x3c475551	0.012166337
166	0xb9b94c41	-0.00035342763
167	0x3c438566	0.01193366
168	0xbc8646c7	-0.016391171
169	0x3cae5de2	0.021285001
170	0xbc5fbad3	-0.013655382
171	0xbcc724e9	-0.024309592
172	0x3c0608d1	0.008180813
173	0x3d238e9b	0.03993092
174	0xbcdf34a4	-0.02724678
175	0x3ca8c8e6	0.020603608
176	0xbc885727	-0.01664312
177	0x3cfd42ee	0.030915704
178	0xbc0dc7d4	-0.0086536
179	0x3c60ee67	0.013728715
180	0xbd16a460	-0.036777854
181	0x3bbba82d	0.005726835
182	0x3cae261b	0.021258404
183	0xbd1a5726	-0.037680767
184	0x3bf805ad	0.007569036
185	0x3c788a4b	0.01516969
186	0xbd3aecbd	-0.045635927
187	0xbbc3c6bd	-0.005974619
188	0xbc1c4659	-0.009538257
189	0xbc84b390	-0.016198903
190	0x3d124255	0.03570779
191	0x3d34c7d0	0.04413587
192	0x3cf84bca	0.030309577
193	0x3c935bdb	0.017988136
194	0x3b209877	0.0024504939
195	0xbbb43cd8	-0.005500417
196	0xbc00c1a4	-0.0078586675
197	0x3d1f28bf	0.038857218
198	0x3ca3ecbd	0.020010347
199	0x3c7f4f70	0.015582904
200	0x3ca721cf	0.020401863
201	0xbb9564f4	-0.0045591537
202	0xbbecbce9	-0.0072246683
203	0x393c3417	0.00017948482
204	0xbbbdf3fa	-0.0057969065
205	0xbbcf7913	-0.006331572
206	0xbc31b2af	-0.010845824
207	0xbc152827	-0.009103811
208	0xbbef350b	-0.0073000244
209	0x3c488575	0.01223885
210	0xbd52765a	-0.0513824
211	0xbc8388ae	-0.016056385
212	0x3c9e1f8d	0.019302154
213	0xbc72cd54	-0.014819462
214	0xbd497253	-0.049181294
215	0xbc48dcf0	-0.012259707
216	0xbccb33de	-0.024805006
217	0xbd0990e9	-0.033585463
218	0x3ce8bfb5	0.028411726
219	0xbc8de7f5	-0.01732252
220	0x3d97954d	0.07401524
221	0x3bdcba7d	0.0067360983
222	0x3c07fbcf	0.008299782
223	0xbd3b27cb	-0.045692246
224	0xbcd5892b	-0.026066383
225	0x3bbaffa7	0.0057067457
226	0x3ca4f6f6	0.020137291
227	0xbd0d55d4	-0.03450568
228	0xbd01e3b1	-0.031711284
229	0xbca7bf40	-0.020476937
230	0x3cafdc30	0.021467298
231	0x3ce5f926	0.028072905
232	0x3ca17c1b	0.019712498
233	0x3d641002	0.05567933
234	0x3c8b2352	0.016984615
235	0xbb2e99f0	-0.0026642047
236	0x3cebb8ce	0.028774645
237	0x3cb3b003	0.021934515
238	0xbcfefe4f	-0.031127123
239	0x3ccd68e2	0.025074426
240	0x3d02d272	0.031938978
241	0xbc2f20e1	-0.010688991
242	0x3d08c887	0.033394363
243	0xbc9c6e26	-0.019095492
244	0xbc9f4674	-0.019442774
245	0x3be80d99	0.007081699
246	0xb99dbad5	-0.00030084574
247	0x3cbd55f0	0.023112267
248	0x3b36ef02	0.0027913456
249	0x3cbbe134	0.022934534
250	0x3cf39fc4	0.029739268
251	0x3c5e1c5d	0.013556567
252	0x3d245aac	0.040125534
253	0x3cd3ce3b	0.025855174
254	0xba02517d	-0.0004971249
255	0x3d23f4ec	0.040028498

dptb.edge_prediction_h.layers.0.layer.in_layer.bias f4 [16]
0	0xbc82c359	-0.01596229
1	0xbd34e409	-0.044162784
2	0x3cdcc2af	0.026948301
3	0x3bf52b83	0.0074819936
4	0x3c8d7ea7	0.017272307
5	0x3cced944	0.025250085
6	0xbc196ec3	-0.009364787
7	0xbd326791	-0.0435558
8	0xbcad01ce	-0.021119025
9	0x3d4630ea	0.04838649
10	0xbcaeb2b6	-0.02132545
11	0x3cb4daa4	0.022076912
12	0x3ac0ca3d	0.0014708709
13	0xbcec8cae	-0.028875675
14	0xbd240176	-0.040040456
15	0xbd2020a8	-0.039093643

dptb.edge_prediction_h.layers.0.layer.out_layer.weight f4 [16, 16]
0	0xbe2bc415	-0.16774018
1	0xbd1219f2	-0.035669275
2	0x3d28b9bf	0.041192766
3	0xbe39eeca	-0.18157497
4	0xbd5ea9e2	-0.05436123
5	0x3d51b43e	0.051197283
6	0xbe88b82a	-0.26703006
7	0x3a43fe2e	0.00074765354
8	0x3d718edb	0.05897413
9	0xbce9eba9	-0.028554754
10	0x3c95ac3a	0.0182706
11	0x3e7ddcbe	0.24791238
12	0x3e37b11b	0.17938654
13	0xbe3d1a03	-0.18466954
14	0x3d712683	0.05887462
15	0x3d473590	0.048635066
16	0xbd365336	-0.04451295
17	0xbe2fc7fa	-0.17166129
18	0x3d1c57a1	0.038169507
19	0x3bbd56d9	0.0057781753
20	0xbd92d85f	-0.07170176
21	0x3e7b3f92	0.24535969
22	0x3dc33f17	0.09533518
23	0xbe71966b	-0.23592536
24	0xbd345ddb	-0.04403482
25	0x3a953f62	0.0011386687
26	0xbdb9adfb	-0.09066387
27	0xbbee4e85	-0.007272544
28	0x3dbefac3	0.09325173
29	0xbd784da5	-0.060620923
30	0xbe725d58	-0.2366842
31	0xbd29c86b	-0.0414509
32	0x3e2e0119	0.16992606
33	0x3e685420	0.22688341
34	0xbe338d3e	-0.17534348
35	0x3d054fdb	0.03254686
36	0xbe08f474	-0.13374501
37	0xbd0d71d7	-0.034532394
38	0x3e4fcbb4	0.2029255
39	0xba9fd018	-0.0012192754
40	0x3d92a482	0.071602836
41	0xbe787fda	-0.24267522
42	0xbc24abdf	-0.010050743
43	0xbe846077	-0.25854847
44	0xbdb2a005	-0.087219276
45	0x3df6e475	0.120552935
46	0x3e108d65	0.14116438
47	0x3e08fd47	0.13377868
48	0x3e2096c7	0.15682517
49	0x3e80f7ba	0.25189
50	0xbe13dfca	-0.14440838
51	0x3d6d334d	0.057910252
52	0x3d7ad316	0.061236463
53	0xbe351739	-0.1768464
54	0x3e8b3def	0.2719569
55	0x3dac9362	0.084265485
56	0x3e5ee64e	0.21767542
57	0x3c909d81	0.017653229
58	0x3dfbc65a	0.12293692
59	0x3cb68073	0.022278046
60	0xbe40b186	-0.1881772
61	0xbde3181a	-0.110885814
62	0xbe83288e	-0.25616878
63	0x3e17c1fd	0.14820094
64	0x3e267d72	0.16258791
65	0xbd875731	-0.06608427
66	0xbe5725dd	-0.21010537
67	0x3e48784b	0.19577138
68	0x3c87ad59	0.01656215
69	0x3ce87e81	0.028380634
70	0xbdf4107f	-0.11917209
71	0x3e34ef14	0.17669326
72	0xbe503ba1	-0.20335247
73	0xbd9c3bbe	-0.076285824
74	0x3d9a481d	0.07533286
75	0x3e665efe	0.22497174
76	0xbe70d48f	-0.23518585
77	0x3dd212f1	0.10257519
78	0x3b9d99f2	0.0048096115
79	0x3e3c6e2e	0.18401405
80	0x3e4db16c	0.20087212
81	0xbe23df73	-0.16003208
82	0xbe61e1c9	-0.22058786
83	0xbe1f1065	-0.15533598
84	0xbc9f4a91	-0.019444736
85	0xbe450d06	-0.1924325
86	0x3e35c32a	0.1775023
87	0xbda8dc8f	-0.08245193
88	0x3e52c045	0.20581158
89	0x3e5f9942	0.21835807
90	0xbd715626	-0.05892005
91	0xbd489ba7	-0.048976567
92	0xbdb0ba77	-0.08629315
93	0x3d879b64	0.06621435
94	0x3d7ac643	0.061224233
95	0x3dc13aa9	0.09435017
96	0xbe3d3720	-0.1847806
97	0x3dc0beca	0.0941139
98	0x3dffdfff	0.12493896
99	0x3e242242	0.16028693
100	0xbe2e4681	-0.17019083
101	0xbd476a3e	-0.048685305
102	0xbe034339	-0.12818612
103	0x3d78c15b	0.060731273
104	0xbe40bce2	-0.18822053
105	0x3d930cb0	0.07180154
106	0xbe0f87ed	-0.14016695
107	0xbcddff3c	-0.027099244
108	0x3b879d3b	0.0041386164
109	0x3e6debd2	0.2323449
110	0x3dce3b25	0.10069875
111	0xbde20fde	-0.11038183
112	0xbe21eae0	-0.15812254
113	0xbd7694c2	-0.06020046
114	0x3e387412	0.18013027
115	0xbe4d82cb	-0.20069425
116	0xbdbfadab	-0.093592964
117	0x3ccdedb3	0.025137758
118	0x3dacf51a	0.08445187
119	0x3dfef761	0.124495275
120	0x3e0d31d6	0.13788542
121	0xbdbd23fa	-0.092353776
122	0xbe051c74	-0.12999135
123	0xbd5d230e	-0.05398851
124	0xbe53ac14	-0.20671111
125	0x3e04fca2	0.12986997
126	0xbaf047d1	-0.001833195
127	0x3d3a44eb	0.04547588
128	0xbde5e79b	-0.11225816
129	0xbc8c6a63	-0.017140573
130	0xbe7904e7	-0.24318276
131	0x3e1bafba	0.15203753
132	0xbe5aaec5	-0.21355732
133	0x3c05527c	0.008137342
134	0x3d45d5ad	0.04829948
135	0x3dcdc616	0.100475475
136	0xbe49a3c4	-0.19691378
137	0xbe357e87	-0.17724048
138	0xbd63e4d8	-0.055638164
139	0x3dc327e2	0.095290914
140	0x3dfd1fb7	0.12359565
141	0x3d9231c9	0.07138402
142	0x3e35e429	0.17762817
143	0xbe7e6107	-0.248417
144	0x3e0ed9bd	0.13950248
145	0xbde53882	-0.11192419
146	0xbe14491d	-0.14481016
147	0x3e444ce1	0.19169952
148	0x3d0df7f9	0.034660313
149	0xbe2a615d	-0.16638704
150	0xbdb3430c	-0.087530226
151	0xbd909eba	-0.07061525
152	0x3e619667	0.2203003
153	0x3c9baff1	0.019004794
154	0x3e21476a	0.15749899
155	0x3e559b50	0.20860028
156	0x3e72d54a	0.23714176
157	0x3e0da3eb	0.13832061
158	0xbe17f887	-0.148409
159	0xbdc6f0f3	-0.09713926
160	0xbdfd5b09	-0.12370879
161	0x3d375df2	0.044767328
162	0x3db0cb53	0.08632531
163	0x3e40da5e	0.188333
164	0x3d7c83a0	0.061648965
165	0xbe0eb2c1	-0.13935377
166	0xbe280e5e	-0.1641173
167	0xbd278f96	-0.04090842
168	0xbe6403ed	-0.22267123
169	0x3e01e20c	0.12683886
170	0xbdbc7376	-0.0920171
171	0x3e68ce3c	0.22734922
172	0x3d478e3c	0.04871963
173	0xbd0317b6	-0.032005034
174	0xbdf9bacb	-0.12193831
175	0x3e514e03	0.20439915
176	0x3d5fed3c	0.054669604
177	0xbe1480a9	-0.14502205
178	0xbe569d92	-0.20958546
179	0xbe324507	-0.17409144
180	0x3dc37013	0.09542861
181	0x3def6025	0.1168826
182	0x3da85538	0.08219379
183	0x3e0f3b01	0.13987352
184	0x3e6523d1	0.22376944
185	0xbd9b82e0	-0.07593322
186	0x3dfbab48	0.12288529
187	0x3da96aa3	0.082722925
188	0x3deea853	0.11653199
189	0xbe6df1a7	-0.23236714
190	0xbe5cfbe1	-0.21580459
191	0xbdbbd26f	-0.091709964
192	0x3d5b8ae8	0.05359927
193	0x3d2db22f	0.042406257
194	0x3e5cc2c0	0.21558666
195	0x3e129fec	0.14318818
196	0x3d9a11ca	0.07522924
197	0x3d9d7eb2	0.07690181
198	0xbe46f613	-0.19429807
199	0x3e8a05eb	0.2695764
200	0xbdd75aa0	-0.10515332
201	0xbe114182	-0.14185145
202	0x3e489aa5	0.19590242
203	0xbe7afa08	-0.24509442
204	0x3e410795	0.18850549
205	0x3e1045a6	0.14089069
206	0xbe019ac3	-0.12656693
207	0xbe2f8e73	-0.17144184
208	0x3e084742	0.13308433
209	0xbdc8655d	-0.097849585
210	0x3da52831	0.080643065
211	0x3e36e393	0.1786025
212	0xbe52c89a	-0.20584336
213	0x3d984c10	0.07436383
214	0x3d076541	0.033055548
215	0x3d9eef8b	0.07760533
216	0x3e7e5ba3	0.24839644
217	0xbe848d41	-0.25889018
218	0xbe9129c3	-0.28352174
219	0x3e1067b9	0.14102067
220	0xbe0db6b0	-0.13839221
221	0x3ded44ea	0.1158541
222	0x3e0f18c7	0.13974296
223	0x3e12759b	0.14302675
224	0x3e22734e	0.15864298
225	0x3def8b96	0.11696546
226	0xbe3ddcca	-0.18541256
227	0x3e06b16d	0.1315362
228	0x3e4b70d8	0.19867265
229	0xbe380869	-0.17971958
230	0xbe2f70db	-0.17132895
231	0xbdd9f37c	-0.10642144
232	0x3dccbd21	0.09997011
233	0xbe18bf2a	-0.14916673
234	0xbdc9ebd6	-0.09859435
235	0xbe561835	-0.20907672
236	0x3e4bb0bf	0.19891642
237	0x38d8bd8c	0.000103349885
238	0x3c25ff7a	0.010131711
239	0x3ddebaad	0.10875449
240	0x3de23f96	0.11047284
241	0x3cfcb486	0.030847799
242	0x3c9438cb	0.018093487
243	0x3d1a4daf	0.03767174
244	0xbd653c19	-0.055965517
245	0x3c11a2dd	0.008888927
246	0xbd953a84	-0.072865516
247	0xbdfc6aac	-0.123250335
248	0x3d273041	0.040817503
249	0x3e44a5d5	0.19203885
250	0x3e34d39f	0.17658852
251	0x3de87ccf	0.1135193
252	0x3e111078	0.14166439
253	0xbceffb73	-0.029294705
254	0x3e057622	0.13033345
255	0xbdcbd070	-0.09951866

dptb.edge_prediction_h.layers.0.layer.out_layer.bias f4 [16]
0	0xbe25eba2	-0.16203168
1	0x3d34bc93	0.04412515
2	0x3e590d1b	0.21196406
3	0x3e19e019	0.15026893
4	0xbd8d1d06	-0.068903014
5	0x3d9b6df3	0.075893305
6	0x3cc8bb91	0.024503501
7	0xbe1b631f	-0.1517453
8	0x3e3bd509	0.18342985
9	0x3e609e0d	0.21935292
10	0xbd376ed3	-0.044783425
11	0xbd31be35	-0.043394286
12	0xbdfaf4c8	-0.122537196
13	0x3e3ba3f0	0.18324256
14	0x3e4972e0	0.19672728
15	0x3d80cd55	0.06289164

dptb.edge_prediction_h.out_layer.linear.weight f4 [10, 16]
0	0xbaede609	-0.0018150221
1	0xbc0754eb	-0.008259992
2	0x3b0336a1	0.0020021575
3	0x3ac56343	0.001505949
4	0x3b357c10	0.0027692355
5	0xbabfeab0	-0.0014642086
6	0xbada1e54	-0.0016641119
7	0x3bf08cc6	0.0073410003
8	0xbbf65d9a	-0.0075184824
9	0xbbec724f	-0.007215775
10	0xbb9e3cf1	-0.004829042
11	0xbad5be3e	-0.0016307307
12	0x3c0f4b8c	0.008746039
13	0xbb0b1424	-0.0021221722
14	0xbb207b84	-0.0024487684
15	0xbc676ade	-0.0141246
16	0xbb9e606a	-0.004833271
17	0xbbf1993b	-0.007373003
18	0x3ba3a1d2	0.0049936557
19	0x3b68741f	0.0035469604
20	0x3ac61361	0.0015111977
21	0xbb72383c	-0.0036959788
22	0x3a52ecda	0.0008046158
23	0x3c01f3cd	0.007931662
24	0xbc09afdc	-0.008403745
25	0xbc2fb814	-0.01072504
26	0xbb80f69f	-0.0039356495
27	0xb9a29d13	-0.00031016077
28	0x3c521795	0.012823005
29	0xbabdab5a	-0.0014470622
30	0x3abe15db	0.0014502363
31	0xbc866ada	-0.016408373
32	0x3c9aebae	0.018911209
33	0xbd9ca8f6	-0.07649414
34	0xbc749359	-0.014927709
35	0x3ac34e35	0.0014900627
36	0x3d52d866	0.051475905
37	0x3a81c255	0.0009899834
38	0xbd3afdc9	-0.045652185
39	0x3d51e04e	0.051239304
40	0xbd2e825c	-0.04260479
41	0xbd09d266	-0.033647917
42	0xbc914336	-0.017732244
43	0x3ceea53c	0.029131524
44	0x3d726f88	0.059188396
45	0xbbc8a3fc	-0.006123064
46	0xbcd02304	-0.025407322
47	0xbd608083	-0.05481006
48	0xbc116106	-0.00887323
49	0x3ccbeb90	0.024892598
50	0x3c8174c7	0.015802754
51	0x3b562aa9	0.0032679236
52	0xbc506b72	-0.012720929
53	0xb9246480	-0.00015677698
54	0x3c16bda6	0.009200489
55	0xbc0072d8	-0.007839881
56	0x3bd96fe8	0.0066356547
57	0x3bbe4f1f	0.005807772
58	0x3b36f9aa	0.0027919807
59	0xbc3930fb	-0.011303182
60	0xbc16feb4	-0.009215999
61	0x3badfd48	0.0053097345
62	0x3c4c3ee6	0.012466168
63	0xb913ce78	-0.00014095928
64	0xbb77b872	-0.0037799147
65	0xbab97d36	-0.0014151696
66	0x3b073f9f	0.0020637286
67	0x3b2d96cf	0.0026487594
68	0xbbcf24b4	-0.006321514
69	0xbb8708c6	-0.004120919
70	0x3ac47a55	0.0014990071
71	0xbb52af25	-0.0032147851
72	0x3addfe34	0.001693672
73	0x3b0c84e9	0.0021441525
74	0x3a1bc31e	0.00059418555
75	0x39e69a82	0.00043984136
76	0xbafd5630	-0.0019328054
77	0x3ab4694e	0.0013764293
78	0x3b447369	0.0029976016
79	0xbba9232b	-0.005161663
80	0xbb1dfa34	-0.0024105432
81	0xbd475f37	-0.04867479
82	0xbb9001bd	-0.0043947385
83	0x3c71d5b0	0.01476042
84	0x3c24f84c	0.010068964
85	0xbc613e53	-0.013747769
86	0xbc3b2c5e	-0.011424152
87	0x3c62f74a	0.013852904
88	0xbc55f3a0	-0.013058573
89	0xbbe739cb	-0.00705645
90	0xbc89943e	-0.01679432
91	0x3beb718d	0.007185167
92	0x3c9aacb2	0.018881176
93	0xba8083bc	-0.0009804885
94	0xba842c73	-0.0010084048
95	0xbcbfb755	-0.02340285
96	0x3a11db13	0.00055639556
97	0xbc9a595b	-0.018841436
98	0x3b4b618c	0.0031033484
99	0xb9eff57f	-0.0004576854
100	0x3be6ddad	0.007045469
101	0x3b059c27	0.0020387264
102	0xbbbfa349	-0.0058483225
103	0x3c5e1135	0.013553907
104	0xbc47cea7	-0.012195266
105	0xbc51a984	-0.012796763
106	0xbb9bbc2e	-0.0047526574
107	0xba32a484	-0.0006814676
108	0x3c8b25bf	0.016985772
109	0xbb99731d	-0.004682912
110	0xbbd378d4	-0.006453613
111	0xbcb79d49	-0.022413867
112	0x3cf9054c	0.030398034
113	0xbd505f19	-0.050871942
114	0xbce4f026	-0.027946543
115	0xbbb27b6d	-0.0054468424
116	0x3d8c0697	0.068371944
117	0xbc5da48b	-0.013528
118	0xbd789e21	-0.06069768
119	0x3d9758cb	0.07389983
120	0xbda5ea1f	-0.08101296
121	0xbd9ffb73	-0.07811632
122	0xbb3d6fc5	-0.002890573
123	0x3d1c9d9e	0.038236253
124	0x3dd0ef29	0.10201866
125	0xbd4a29a2	-0.04935611
126	0xbd211ede	-0.039336078
127	0xbd5cfb82	-0.053950794
128	0xbc6e108a	-0.01453031
129	0x3cb49d75	0.022047738
130	0x3d01f61c	0.03172885
131	0x3c1580de	0.009124963
132	0x3abffe06	0.0014647848
133	0xbb57161a	-0.003281957
134	0x3c2adc74	0.010428537
135	0x3c8cadf2	0.017172787
136	0xbc7c152e	-0.015385909
137	0xbcdc0bc0	-0.026861072
138	0xbc325f0a	-0.010886917
139	0xbd0ff8d9	-0.03514943
140	0x3c592d1d	0.013255385
141	0x3bca6664	0.0061767567
142	0x3c1f7127	0.009731567
143	0xbce13086	-0.027488958
144	0xbb5001b9	-0.0031739308
145	0xbc80047f	-0.015627144
146	0x3c247c87	0.010039455
147	0xbacc98f3	-0.0015609547
148	0x3880aebc	6.1360624e-05
149	0x3b8e4565	0.0043417686
150	0x3c8ef562	0.017450992
151	0x3c022fd0	0.00794597
152	0x3a000a5a	0.0004884355
153	0xbc44992c	-0.01199941
154	0xbb571637	-0.0032819638
155	0xbca8aa4d	-0.020589018
156	0xb97b1008	-0.00023943197
157	0xbbd55c7c	-0.006511269
158	0xba752325	-0.0009351245
159	0xbb999736	-0.004687215

dptb.edge_prediction_h.out_layer.linear.bias f4 [10]
0	0xbb5a66ce	-0.0033325437
1	0xbac27f50	-0.0014838967
2	0xbc662724	-0.014047418
3	0xbafe9f8c	-0.0019426211
4	0x3972ab3f	0.00023142713
5	0x3c5d20a6	0.0134965535
6	0xbb16609b	-0.0022945765
7	0xbced844a	-0.028993744
8	0x3c902da4	0.017599888
9	0xb8448634	-4.6855028e-05

nnsk.hopping_param f4 [1, 10, 2]
0	0x3ffa53eb	1.955686
1	0x40a0efeb	5.029287
2	0xc0130b1e	-2.2975535
3	0x4076ea27	3.8580415
4	0xbf51158b	-0.81673497
5	0xbf813eef	-1.0097331
6	0xc0539115	-3.30573
7	0xc0bc6fb2	-5.8886347
8	0x40325e48	2.7870045
9	0x40ceef79	6.4667325
10	0xbfeb9e1f	-1.840763
11	0xc01673ac	-2.35081
12	0x405de6c8	3.4672108
13	0x40a9134c	5.2836056
14	0x3fa72fa7	1.3061417
15	0x3f0dbe13	0.55368155
16	0xc032ffe5	-2.7968686
17	0xc0822021	-4.066422
18	0x40060660	2.094139
19	0x409c205a	4.878949
