examples/silicon/ref_ckpts/dptb/checkpoint/mix.ep50.pth (torch, 391680 bytes, 56 tensors)

nnenv.embedding.descriptor.embedding_net.layers.0.layer.in_layer.weight f4 [10, 3]
0.14388429 0.5721544 -0.5344821 -0.1700723 -0.2871321 -0.45284623 0.07538773 -0.51435035
-0.1469307 -0.3126317 0.13432474 0.5438253 0.064175576 -0.33736044 0.26577854 -0.45739758
-0.22179271 0.0616506 0.53076243 -0.41933486 0.34356552 0.38104516 -0.35148117 0.3478458
-0.21739638 0.4510211 0.44938287 0.44675347 -0.07599648 -0.061596658
00000000: 6756 133e b678 123f d2d3 08bf 6f27 2ebe
00000010: fb02 93be 76db e7be e264 9a3d 77ac 03bf
00000020: 0075 16be 4311 a0be 6d8c 093e 2338 0b3f
00000030: 7c6e 833d 82ba acbe 2014 883e 0430 eabe
00000040: a11d 63be 5785 7c3d 0ce0 073f 0fb3 d6be
00000050: d2e7 af3e 5a18 c33e 57f5 b3be d818 b23e
00000060: 289d 5ebe 3dec e63e 8315 e63e dfbc e43e
00000070: 0ba4 9bbd c74c 7cbd

nnenv.embedding.descriptor.embedding_net.layers.0.layer.in_layer.bias f4 [10]
0.055305887 -0.4672594 0.15812694 0.37169182 0.20617674 0.4556386 0.008557348 0.40800658
0.06531762 0.19232202
00000000: 6d88 623d a03c efbe 07ec 213e 644e be3e
00000010: ff1f 533e 7649 e93e 1e34 0c3c 3de6 d03e
00000020: 3fc5 853d 10f0 443e

nnenv.embedding.descriptor.embedding_net.layers.0.layer.out_layer.weight f4 [20, 10]
-0.26649043 -0.2044686 -0.113993175 -0.25919434 0.1312229 0.21888025 0.12481458 -0.18134208
0.02350814 0.1513543 0.028562065 0.19830576 0.3144585 -0.2878448 -0.24229163 -0.25318637
-0.029832346 0.079416856 -0.179216 -0.018046606 0.13345182 0.298726 -0.21567143 0.15204681
-0.32318804 -0.1337761 -0.18528768 0.19273686 -0.07239925 -0.22439392 -0.24575156 -0.1490762
0.26956624 0.11247549 0.19828936 -0.30503157 0.17177254 0.113120325 -0.1846871 0.06424496
0.15508592 -0.13314532 0.049154148 -0.14760895 0.0569665 0.055024847 0.2485268 0.11844472
0.091200285 0.12216948 -0.20889862 -0.23758993 -0.1694289 -0.12180229 -0.31130886 -0.20041253
0.010730444 -0.01368655 -0.27463198 -0.27891254 -0.04689139 0.1219793 0.077530734 -0.22116661
0.1485412 0.07061258 -0.23628916 -0.12254574 -0.17987506 -0.18140018 -0.1803346 0.20348082
0.24440564 -0.014546745 0.14843337 0.07844332 0.2697183 -0.11879453 0.112920605 -0.09400868
-0.10910895 0.14257036 -0.25248647 -0.26909086 -0.033913005 0.047646917 -0.1294204 0.10352679
0.1763489 -0.23878665 -0.018383622 -0.12213042 0.01866811 -0.24414685 0.08919298 0.3259879
-0.34311575 0.17124906 -0.25383604 -0.20077394 -0.0017650602 -0.16225252 0.011062354 -0.2193549
0.0129338745 0.069366045 0.21905819 0.11703159 0.058403183 0.028348336 0.13368192 -0.027672093
0.27685243 0.17656375 0.21756728 -0.08457596 0.26597887 -0.038935233 0.033461906 -0.30523252
0.29531163 0.0588578 0.26988992 -0.09127847 -0.03597544 -0.19547999 -0.13792852 -0.04007932
-0.1039303 -0.25140327 -0.31480148 -0.19202293 -0.21369879 -0.010054686 0.24978833 0.17819284
0.22639374 0.23986416 -0.013902517 0.0036292863 -0.08512387 -0.079695 0.00444824 -0.2321745
-0.056834802 -0.20680295 0.26173684 -0.06663772 0.1769844 0.08211044 0.03354177 0.09491333
0.06334517 0.07752462 0.19680135 -0.25925425 -0.28957495 -0.027810067 -0.27172995 -0.14670081
-0.21642405 -0.12994869 0.16101639 0.06131299 -0.03411475 -0.07661656 -0.29743427 -0.30345884
-0.037945565 -0.113493346 -0.28503537 -0.13809884 -0.018288927 -0.21947849 -0.22138028 -0.20015351
0.2127646 0.24983178 0.1784963 -0.20063475 -0.3011962 -0.22345565 0.017053777 0.11905495
0.021964043 -0.25944942 -0.25823358 0.25976133 0.29188958 -0.09094547 0.22317262 0.04560699
-0.040794827 -0.007510771 0.051720493 -0.03126753 -0.19784163 -0.12166611 -0.1242961 -0.19503987
00000000: 6f71 88be 3760 51be 4175 e9bd 1fb5 84be
00000010: 4c5f 063e 2522 603e c99e ff3d bdb1 39be
00000020: 2594 c03c 9ffc 1a3e fefa e93c aa10 4b3e
00000030: b400 a13e 6560 93be 4c1b 78be a5a1 81be
00000040: f762 f4bc 4ea5 a23d 6684 37be 7ad6 93bc
00000050: 98a7 083e 9df2 983e f9d8 5cbe 29b2 1b3e
00000060: e778 a5be 9afc 08be 0ebc 3dbe d05c 453e
00000070: 0f46 94bd 85c7 65be 4ca6 7bbe 6ea7 18be
00000080: 9604 8a3e 8d59 e63d 5e0c 4b3e 192d 9cbe
00000090: 24e5 2f3e a1ab e73d 9d1e 3dbe dd92 833d
000000a0: d8ce 1e3e 3f57 08be dc55 493d cd26 17be
000000b0: b455 693d bc61 613d cf7d 7e3e 2593 f23d
000000c0: 37c7 ba3d fe33 fa3d 85e9 55be c64a 73be
000000d0: c57e 2dbe 7b73 f9bd e063 9fbe f138 4dbe
000000e0: bfce 2f3c 8d3d 60bc 909c 8cbe a0cd 8ebe
000000f0: 3011 40bd 49d0 f93d 6fc8 9e3d 8079 62be
00000100: 2f1b 183e 549d 903d c9f5 71be 43f9 fabd
00000110: 2b31 38be f8c0 39be a2a9 38be 475d 503e
00000120: 7945 7a3e 7955 6ebc ebfe 173e e4a6 a03d
00000130: 8418 8a3e 8c4a f3bd eb42 e73d 9f87 c0bd
00000140: 8374 dfbd f7fd 113e e845 81be 47c6 89be
00000150: 5de8 0abd 6a29 433d c886 04be db05 d43d
00000160: ce94 343e 7d84 74be 4099 96bc 831f fabd
00000170: dded 983c a201 7abe cfaa b63d e3e7 a63e
00000180: deac afbe ea5b 2f3e ccf6 81be af97 4dbe
00000190: 9859 e7ba 8625 26be e03e 353c 929e 60be
000001a0: 9ae8 533c c90f 8e3d ca50 603e 42ae ef3d
000001b0: 2d38 6f3d c53a e83c eae3 083e 96b0 e2bc
000001c0: 9abf 8d3e 21cd 343e f5c9 5e3e 2936 adbd
000001d0: 622e 883e 8d7a 1fbd 5a0f 093d 7047 9cbe
000001e0: 1633 973e e014 713d 032f 8a3e 35f0 babd
000001f0: fc5a 13bd e82b 48be 223d 0dbe 372a 24bd
00000200: 69d9 d4bd eeb7 80be a92d a1be a9a1 44be
00000210: dbd3 5abe 69bc 24bc 83c8 7f3e 2f78 363e
00000220: c3d3 673e f39e 753e 62c7 63bc 52d9 6d3b
00000230: 6c55 aebd 2237 a3bd 8bc2 913b 27bf 6dbe
00000240: 9ccb 68bd 27c4 53be 5f02 863e 5b79 88bd
00000250: 663b 353e 8529 a83d 1863 093d ec61 c23d
00000260: 1dbb 813d 3ac5 9e3d 4b86 493e f9bc 84be
00000270: 2b43 94be f0d1 e3bc 3020 8bbe bd38 16be
00000280: 449e 5dbe 4511 05be 7be1 243e 5423 7b3d
00000290: e8bb 0bbd 25e9 9cbd 4e49 98be f55e 9bbe
000002a0: cf6c 1bbd 336f e8bd 28f0 91be c869 0dbe
000002b0: a9d2 95bc f8be 60be 83b1 62be 0bf5 4cbe
000002c0: f7de 593e e7d3 7f3e bcc7 363e 3273 4dbe
000002d0: 6336 9abe 8fd1 64be 5db4 8b3c 15d3 f33d
000002e0: f0ed b33c 8ed6 84be 3137 84be 70ff 843e
000002f0: 8d72 953e 9e41 babd 5d87 643e 65ce 3a3d
00000300: 7a18 27bd ea1c f6bb ded8 533d 6212 00bd
00000310: ff96 4abe 152c f9bd f48e febd 88b8 47be

nnenv.embedding.descriptor.embedding_net.layers.0.layer.out_layer.bias f4 [20]
-0.03714996 -0.16062944 -0.1622895 -0.27296147 -0.28000373 -0.17068917 -0.26409552 0.14455815
-0.23833333 -0.32218793 -0.22883353 0.15729119 -0.14274772 -0.052755877 -0.3433332 0.020912444
-0.19058016 -0.1629714 0.2642417 -0.035603188
00000000: 8e2a 18bd 0b7c 24be 382f 26be 9bc1 8bbe
00000010: a65c 8fbe 24c9 2ebe 8737 87be 0d07 143e
00000020: a70d 74be d1f5 a4be 5653 6abe f110 213e
00000030: 752c 12be 8c16 58bd 5fc9 afbe 9350 ab3c
00000040: 7227 43be fae1 26be b04a 873e a6d4 11bd

nnenv.embedding.descriptor.embedding_net.out_layer.weight f4 [30, 20]
-0.098286524 0.11842699 0.11806556 0.080684416 -0.05900816 -0.13982871 -0.10548301 0.012769914
0.08920523 -0.12632489 0.017865013 0.15760368 0.025296312 -0.036932908 -0.0828694 -0.18080743
-0.20062831 -0.095776215 0.17748144 -0.10599057 0.086920395 -0.15783216 0.2231537 0.17530446
-0.093094364 0.05759778 0.18701719 -0.19004425 0.0942433 0.17420077 -0.11344282 -0.19858281
-0.023762703 0.14083034 0.15378734 -0.11377711 0.09293683 -0.1455065 -0.19983974 -0.08823581
-0.11813698 0.089489274 -0.04977453 -0.21386363 -0.010382399 -0.1803137 -0.111167476 -0.05353867
-0.11435605 0.07453893 0.19412094 0.21248037 -0.0625483 -0.073090576 0.13738173 -0.10866827
-0.17429408 -0.0706177 -0.017708251 0.031195933 -0.068585604 -0.17801312 -0.21374187 0.20132983
0.09699988 0.1772741 0.14515276 -0.057287958 -0.21246348 0.16636807 0.19723459 0.10208316
0.008289541 0.20087938 -0.22392687 -0.07643679 -0.23673014 -0.123757675 -0.14524259 0.015241381
0.12438079 0.19848955 0.07487665 -0.05065338 -0.21206032 -0.04218901 0.12746401 0.09046124
0.11905941 -0.13588515 0.08187751 -0.10014875 0.21420227 0.23363976 -0.16259359 -0.21229768
0.21665423 -0.011522411 0.1407574 -0.09163692 -0.07074311 0.05911818 -0.24302687 -0.21144544
-0.18276435 0.15370092 -0.135923 -0.030880988 0.058751095 0.12608524 0.11288439 -0.032235373
-0.20644493 0.18591982 -0.0016110197 -0.062623486 0.13617375 -0.050939493 -0.09847658 0.17459814
-0.014301035 0.11543939 0.18968618 -0.070443384 -0.027171157 0.13469392 0.16297916 -0.0052704974
0.1453742 -0.02677521 -0.08893034 0.03878873 -0.16830035 -0.11781693 0.08390517 -0.030809173
-0.029706405 -0.15278925 0.21852489 0.17516765 0.06500513 0.09411973 -0.120507725 -0.124892384
0.095470235 0.1729509 0.21823218 0.19674863 0.1384712 -0.07714698 0.051345713 -0.14330293
-0.022963602 0.07729408 -0.016302105 0.08055474 -0.077576466 -0.14146602 -0.14357077 -0.15994217
-0.00953438 -0.033929214 -0.1370337 0.095556244 -0.238572 -0.040420253 0.1680539 0.096282445
-0.07363377 -0.18805835 0.10839125 0.2047283 -0.03353109 -0.023770567 0.07919181 0.19133484
-0.15288377 -0.1535439 0.16794448 -0.028162055 0.15609136 -0.03680027 0.23056208 0.006310139
0.1912188 -0.14398769 -0.11486068 -0.14006898 -0.20007065 -0.12751009 -0.08114449 0.17631423
0.21913654 0.035246503 -0.17114744 0.22661851 -0.1545147 0.051472634 -0.0583052 -0.12069377
-0.082140766 -0.04417514 0.078472726 -0.12070583 0.13641594 -0.19678895 0.15080103 0.14526069
0.13079396 0.22207512 -0.120198384 0.10328601 -0.09216368 0.012813052 -0.22942472 -0.09121051
-0.11420065 0.07822748 0.22731215 0.11676064 0.12102108 0.20085791 0.04605329 0.24631684
-0.085400656 -0.0044148806 -0.026117139 -0.16445073 0.23199007 0.06567551 0.1060258 -0.037191752
-0.17607056 -0.18937656 -0.20497882 -0.062608734 0.15298048 0.03704689 -0.0391991 -0.097789906
-0.16942376 -0.19617425 -0.13351014 0.025046872 -0.095914505 -0.036286853 -0.073973104 0.23547962
-0.16985972 -0.01167427 -0.022527823 0.23848277 0.1664239 -0.07174722 -0.18984354 -0.030224543
00000000: 724a c9bd da89 f23d 5bcc f13d df3d a53d
00000010: 8ab2 71bd 422f 0fbe 7a07 d8bd e738 513c
00000020: 3bb1 b63d 505b 01be a659 923c dc62 213e
00000030: 363a cf3c f646 17bd 6fb7 a9bd 9525 39be
00000040: 8271 4dbe 5226 c4bd b2bd 353e 9511 d9bd
00000050: 5203 b23d c19e 21be 6782 643e 0383 333e
00000060: 42a8 bebd a6eb 6b3d 6f81 3f3e f69a 42be
00000070: a202 c13d b061 323e b654 e8bd 4b59 4bbe
00000080: 00aa c2bc d435 103e 6e7a 1d3e f903 e9bd
00000090: aa55 be3d a8ff 14be caa2 4cbe fab4 b4bd
000000a0: cdf1 f1bd 2746 b73d 61e0 4bbd 11ff 5abe
000000b0: f01a 2abc 28a4 38be c6ab e3bd 5d4b 5bbd
000000c0: 8133 eabd dea7 983d a4c7 463e 7494 593e
000000d0: 5319 80bd 83b0 95bd ccad 0c3e 788d debd
000000e0: 267a 32be 03a0 90bd e510 91bc 9d8e ff3c
000000f0: 9c76 8cbd 1249 36be 26df 5abe 6829 4e3e
00000100: e0a7 c63d 5787 353e eda2 143e c7a6 6abd
00000110: 0790 59be 645c 2a3e ddf7 493e fa10 d13d
00000120: dbd0 073c 53b3 4d3e 164d 65be e48a 9cbd
00000130: 6369 72be aa74 fdbd 79ba 14be fcb6 793c
00000140: 5bbb fe3d d840 4b3e ee58 993d eb79 4fbd
00000150: 5726 59be 62ce 2cbd ed85 023e be43 b93d
00000160: 6cd5 f33d 7a25 0bbe 65af a73d ca1a cdbd
00000170: d757 5b3e 433f 6f3e ef7e 26be 9064 59be
00000180: 9bda 5d3e 7fc8 3cbc b522 103e 23ac bbbd
00000190: c3e1 90bd e825 723d 09dc 78be 2785 58be
000001a0: 9426 3bbe c663 1d3e 662f 0bbe 20fa fcbc
000001b0: fda4 703d 7d1c 013e ee2f e73d 3d09 04bd
000001c0: 4d66 53be c461 3e3e da28 d3ba be40 80bd
000001d0: 2271 0b3e eea5 50bd 17ae c9bd dbc9 323e
000001e0: e34e 6abc 7d6b ec3d 183d 423e 9f44 90bd
000001f0: 0c96 debc 34ed 093e 02e4 263e 23b4 acbb
00000200: f9dc 143e af57 dbbc 1c21 b6bd eee0 1e3d
00000210: ed56 2cbe 014a f1bd 79d6 ab3d 8563 fcbc
00000220: d95a f3bc c974 1cbe fdc4 5f3e 265f 333e
00000230: 6921 853d d8c1 c03d c1cc f6bd 94c7 ffbd
00000240: e685 c33d 0a1a 313e 4278 5f3e 7978 493e
00000250: 65cb 0d3e 3cff 9dbd e24f 523d 01be 12be
00000260: 2a1e bcbc 5c4c 9e3d fe8b 85bc e2f9 a43d
00000270: 69e0 9ebd 78dc 10be 3704 13be e1c7 23be
00000280: 1736 1cbc 5cf9 0abd 9052 0cbe feb2 c33d
00000290: 384c 74be b58f 25bd 5216 2c3e bb2f c53d
000002a0: 4dcd 96bd 5e92 40be 3bfc dd3d 4ca4 513e
000002b0: e557 09bd 7eba c2bc 512f a23d 48ed 433e
000002c0: 908d 1cbe 9d3a 1dbe a3f9 2b3e 1cb4 e6bc
000002d0: 6ad6 1f3e e1bb 16bd 7718 6c3e 48c5 ce3b
000002e0: dcce 433e 8271 13be 143c ebbd 3e6e 0fbe
000002f0: 52df 4cbe 0192 02be 152f a6bd b88b 343e
00000300: 5465 603e a35e 103d 4641 2fbe af0e 683e
00000310: 1a39 1ebe f8d4 523d 6fd1 6ebd 4c2e f7bd
00000320: 6b39 a8bd fef0 34bd 4fb6 a03d 9e34 f7bd
00000330: 9fb0 0b3e 0b83 49be 966b 1a3e 38bf 143e
00000340: daee 053e a967 633e 922a f6bd 9e87 d33d
00000350: 50c0 bcbd d6ed 513c 50ee 6abe 93cc babd
00000360: 08e2 e9bd bb35 a03d 84c4 683e 3420 ef3d
00000370: e6d9 f73d b2ad 4d3e 60a2 3c3d 7b3a 7c3e
00000380: 8ae6 aebd b4aa 90bb 9cf3 d5bc c665 28be
00000390: ce8e 6d3e e280 863d 0e24 d93d 6156 18bd
000003a0: d74b 34be eeeb 41be f8e5 51be 0239 80bd
000003b0: eaa6 1c3e 7bbe 173d 3c8f 20bd 1346 c8bd
000003c0: 6c7d 2dbe e7e1 48be e2b6 08be 192f cd3c
000003d0: d36e c4bd 86a1 14bd 367f 97bd 9221 713e
000003e0: b5ef 2dbe 7045 3fbc 458c b8bc d434 743e
000003f0: 076b 2a3e 35f0 92bd 5866 42be 7699 f7bc

nnenv.embedding.descriptor.embedding_net.out_layer.bias f4 [30]
0.13069902 0.1629405 0.23180029 0.09842275 -0.15756671 0.06127436 -0.034753267 0.1578986
0.00064821437 -0.12453953 -0.17258817 0.14646894 0.2001172 0.1892216 -0.15553899 -0.12425243
0.048850447 -0.107788965 -0.16109999 0.07792253 0.07265032 -0.10133428 -0.0326083 -0.21512967
0.06479436 -0.17275366 -0.24442177 -0.20090349 0.14737424 -0.11152688
00000000: f7d5 053e e0d9 263e 0e5d 6d3e de91 c93d
00000010: 2b59 21be d3fa 7a3d 7159 0ebd 2cb0 213e
00000020: eeec 293a 950e ffbd f4ba 30be f4fb 153e
00000030: 86eb 4c3e 4fc3 413e 9d45 1fbe 0f78 febd
00000040: 6817 483d 76c0 dcbd 65f7 24be d995 9f3d
00000050: b1c9 943d 5988 cfbd 4890 05bd f44a 5cbe
00000060: e8b2 843d 56e6 30be b349 7abe a5b9 4dbe
00000070: 46e9 163e 3468 e4bd

nnenv.node_prediction_h.layers.0.layer.in_layer.weight f4 [16, 900]
0.034302033 0.0034325388 -0.027978089 -0.031473573 0.022378115 0.033632793 -0.018866504 0.024071319
0.019999333 0.02550901 -0.0013217439 0.009696785 -0.010874526 0.033355195 0.027693521 -0.0069594868
-0.037601 -0.01288654 -0.015146448 -0.018485466 -0.018295279 0.021577578 0.0017457627 0.0117270155
0.02644325 -0.02112152 -0.036224663 -0.037168615 0.033158876 0.036152504 -0.029905202 0.013724094
0.02814769 0.03910624 0.0343113 -0.04590791 0.012798401 -0.014321716 0.02378539 -0.00050558575
-0.046169523 0.029158592 -0.018831268 0.0006909842 -0.015751425 -0.0125318235 0.022629946 -0.01680649
0.02199355 0.013934027 -0.026867578 0.027874168 0.08391605 -0.00047774377 -0.012021718 -0.0010837546
0.009207605 0.023845326 0.019040573 0.035793304 -0.017917251 0.021134526 0.013475391 -0.023167208
-0.009076851 0.025542054 0.017090917 -0.016009055 -0.027082138 -0.027059546 -0.028764894 -0.021614484
0.016471632 -0.057056785 0.0017590631 0.0058531244 -0.020855801 0.010377219 -0.030740373 -0.036501482
0.0046186442 0.025386523 -0.0299841 0.032208 0.010078966 -0.01671798 0.00091625703 -0.03563774
0.008433566 -0.004882633 0.032555092 -0.015749864 -0.0074689277 0.010797903 0.015667435 -0.018340332
0.040093668 -0.017681975 0.010003449 0.014459676 -0.021270044 -0.007804168 -0.01619703 -0.0056817117
-0.028854266 -0.004684971 0.011733186 0.01940073 -0.03406511 0.008860035 -0.025014883 0.03575567
0.041345973 0.043067392 0.022809925 0.033582687 -0.0055653937 0.06120203 -0.009817645 0.03233109
0.017255466 0.04213299 0.014911978 0.063211456 -0.023277475 -0.0074968413 0.028952291 -0.0014959674
-0.037562754 -0.041218683 0.020356363 -0.0002534719 -0.0049872817 0.05994535 0.007314695 -0.004307186
0.05824623 0.008571031 0.044820487 -0.00040328407 0.043736648 -0.02823663 0.052524455 -0.00378261
0.030003132 0.010028252 0.01765648 -0.050005753 -0.04225005 0.025073938 0.016912384 -0.06213642
0.00035487858 -0.008935571 -0.007952817 -0.0058225705 0.004359324 -0.042737477 0.046912163 -0.01327353
-0.03274363 -0.025082806 0.039568085 -0.0023436048 -0.040400237 -0.019161474 0.029054306 0.052268334
-0.038457073 0.020275842 0.035621513 0.014351068 -0.0040741134 -0.00039386956 -0.0022107586 -0.002739574
-0.0070832316 -0.00051391317 0.026022248 0.008476579 -0.013943948 -0.028250864 -0.004045896 0.027696183
0.021340773 -0.021688623 -0.028023435 0.008537093 0.024218759 0.025506655 -0.020708766 0.027839169
-0.023832096 0.0133029735 -0.014760039 -0.036718085 0.0010460654 0.023896657 -0.06643616 0.015511317
0.0150514515 -0.018755695 0.0465803 -0.021603648 -0.0055326982 -0.020733789 0.011015098 0.016203694
-0.012500357 -0.03154741 0.038700398 -0.0121466145 0.008987701 -0.032608 0.019575559 -0.047822703
-0.04427576 -0.01276069 -0.008516648 -0.01973807 0.023846673 -0.015769836 0.036857095 0.024020024
0.019373326 -0.011866044 0.040358167 -0.033838898 -0.00060151797 -0.027007531 0.0205964 -0.03277813
0.07899182 0.0022474506 -0.024397964 -0.03870872 -0.050040115 -0.0009945587 -0.03028687 -0.015398528
-0.019300848 -0.018759497 0.0015617975 -0.018621678 -0.047506187 0.007006635 0.04652379 -0.028937021
-0.018406104 0.020964758 0.023852965 -0.008251945 -0.024582505 0.020947235 0.010328549 -0.009917145
00000000: 4a80 0c3d 72f4 603b 4e32 e5bc 6fea 00bd
00000010: 4f52 b73c 8ac2 093d ed8d 9abc 3731 c53c
00000020: a4d5 a33c 45f8 d03c 5e3e adba 44df 1e3c
00000030: 112b 32bc 759f 083d 86dd e23c 680c e4bb
00000040: 8203 1abd 1122 53bc cf28 78bc d56e 97bc
00000050: fbdf 95bc 76c3 b03c 13d2 e43a ab22 403c
00000060: 849f d83c 0a07 adbc 5060 14bd 1e3e 18bd
00000070: 9ad1 073d a614 143d c1fb f4bc 06db 603c
00000080: fc95 e63c dd2d 203d 018a 0c3d ef09 3cbd
00000090: 62b0 513c a1a5 6abc 94d9 c23c 4989 04ba
000000a0: 411c 3dbd 00de ee3c 0844 9abc 2a23 353a
000000b0: 2209 81bc 4752 4dbc 7062 b93c c4ad 89bc
000000c0: d12b b43c 8c4b 643c 6519 dcbc 5e58 e43c
000000d0: 2edc ab3d af79 fab9 bdf6 44bc c50c 8eba
000000e0: 7fdb 163c 4657 c33c fafa 9b3c 009c 123d
000000f0: 33c7 92bc 5022 ad3c e3c7 5c3c 28c9 bdbc
00000100: 13b7 14bc 923d d13c 4002 8c3c 6c25 83bc
00000110: 5cdb ddbc fbab ddbc 5ba4 ebbc dc10 b1bc
00000120: 84ef 863c 60b4 69bd 5d90 e63a 91cb bf3b
00000130: c9d9 aabc 3605 2a3c 3cd3 fbbc 9482 15bd
00000140: ff57 973b 66f7 cf3c 37a1 f5bc 89ec 033d
00000150: 3f22 253c 25f4 88bc f830 703a e1f8 11bd
00000160: f12c 0a3c 7ffe 9fbb 7d58 053d dc05 81bc
00000170: e8bd f4bb b0e9 303c fe58 803c 773e 96bc
00000180: 4239 243d cad9 90bc 82e5 233c 47e8 6c3c
00000190: 843e aebc 1bba ffbb a2af 84bc a72d babb
000001a0: c85f ecbc 6384 99bb 8d3c 403c 48ee 9e3c
000001b0: db87 0bbd ae29 113c 03ec ccbc 8a74 123d
000001c0: 655a 293d 6f67 303d e1db ba3c 008e 093d
000001d0: e85d b6bb fbae 7a3d 30da 20bc 9b6d 043d
000001e0: 565b 8d3c a493 2c3d 5e51 743c 0275 813d
000001f0: 67b0 bebc 10a8 f5bb 5b2d ed3c 5614 c4ba
00000200: 67db 19bd ecd4 28bd 63c2 a63c 6ce4 84b9
00000210: 5a6c a3bb 4189 753d 1cb0 ef3b 4c23 8dbb
00000220: 9993 6e3d 826d 0c3c b095 373d df6f d3b9
00000230: 3325 333d 8150 e7bc e223 573d aae5 77bb
00000240: 21c9 f53c 8a4d 243c 53a4 903c d5d2 4cbd
00000250: 630e 2dbd dc67 cd3c d78b 8a3c c282 7ebd
00000260: ff0e ba39 8066 12bc 884c 02bc 43cb bebb
00000270: a9d8 8e3b 7e0d 2fbd f826 403d 3879 59bc
00000280: 2f1e 06bd 757a cdbc 2512 223d 2a97 19bb
00000290: b87a 25bd 86f8 9cbc 4c03 ee3c 5217 563d
000002a0: 2a85 1dbd 8619 a63c dde7 113d be20 6b3c
000002b0: 2480 85bb 4780 ceb9 60e2 10bb 6d8a 33bb
000002c0: 741a e8bb 21b8 06ba 9c2c d53c 59e1 0a3c
000002d0: 2875 64bc 5b6e e7bc 7093 84bb 1be3 e23c
000002e0: d8d2 ae3c 57ac b1bc 6791 e5bc 2adf 0b3c
000002f0: 6b66 c63c 55f3 d03c 6ea5 a9bc f80e e43c
00000300: 873b c3bc b7f4 593c 17d4 71bc b465 16bd
00000310: 211c 893a ecc2 c33c ae0f 88bd 2e23 7e3c
00000320: 5d9a 763c 8ba5 99bc fcca 3e3d 22fa b0bc
00000330: a34b b5bb e8d9 a9bc ab78 343c 9cbd 843c
00000340: 4cce 4cbc db37 01bd 4f84 1e3d 9802 47bc
00000350: 2641 133c f78f 05bd ec5c a03c bde1 43bd
00000360: 805a 35bd 3712 51bc 6989 0bbc bcb1 a1bc
00000370: 195a c33c be2f 81bc 77f7 163d a4c5 c43c
00000380: cfb4 9e3c cc69 42bc 9b4e 253d a89a 0abd
00000390: 30af 1dba e63e ddbc c8b9 a83c 5c42 06bd
000003a0: 77c6 a13d f749 133b 3dde c7bc 098d 1ebd
000003b0: ddf6 4cbd da5b 82ba 2c1c f8bc 1c4a 7cbc
000003c0: d01c 9ebc 84ad 99bc 3ab5 cc3a 7d8c 98bc
000003d0: d995 42bd ea97 e53b bb8f 3e3d 550d edbc
000003e0: 66c8 96bc 49be ab3c 4b67 c33c 2a33 07bc
000003f0: 4061 c9bc 8999 ab3c 1339 293c 857b 22bc

nnenv.node_prediction_h.layers.0.layer.in_layer.bias f4 [16]
0.032649446 0.023796868 0.09620046 0.046347916 -0.010738758 -0.02145009 -0.010840708 0.061662402
-0.0126579655 0.017335914 0.05047619 0.05353254 -0.023252679 0.064241864 0.012180436 0.010088811
00000000: 6dbb 053d a6f1 c23c bf04 c53d 50d7 3d3d
00000010: 9ef1 2fbc 19b8 afbc 3a9d 31bc b791 7c3d
00000020: 5b63 4fbc 0c04 8e3c 1fc0 4e3d f044 5b3d
00000030: 677c bebc 3d91 833d 7490 473c 8a4b 253c

nnenv.node_prediction_h.layers.0.layer.out_layer.weight f4 [16, 16]
0.23072095 0.23471959 0.070766576 0.025832556 0.015549018 0.12513761 -0.12516676 -0.12055572
-0.048991796 0.039861925 0.15965651 0.10994977 0.07195279 -0.06993623 0.080460586 0.18021104
-0.16619456 0.24940193 0.10795499 -0.13731186 0.015670467 0.24801679 0.19549419 -0.12752458
0.065369 -0.07473011 -0.2313286 0.028962994 0.1452937 -0.045433395 0.1408616 0.17598017
0.08711695 -0.12935543 -0.0468431 0.020474745 -0.16713698 -0.22215576 -0.22895457 -0.20068102
-0.10322813 -0.16537628 0.20332898 0.2179175 0.10898536 -0.04728754 0.06061497 -0.14840338
-0.109575115 0.17245652 0.12826318 0.23569693 -0.14091198 -0.04030571 -0.22285087 0.16721559
0.15023853 0.10805753 0.14357609 -0.10569233 -0.29665038 0.23427604 -0.1771203 -0.12823147
-0.29994172 -0.24176277 0.22055383 0.30097398 0.011748244 -0.08799565 -0.08275576 0.051837772
-0.0614817 -0.031212585 -0.12539639 0.31559384 0.08153645 0.067505084 -0.17702945 0.14758334
0.1987425 -0.019365555 0.040979937 -0.09749651 -0.27778265 0.2640216 0.037009716 0.077475004
-0.0067417836 0.04234759 0.14693035 -0.04430406 -0.076485 -0.11399167 -0.11932038 -0.01688381
0.19802412 0.056870297 -0.10164832 0.022839995 0.13688013 -0.20545435 -0.0536934 0.09738246
0.23017754 -0.07023617 0.17089687 0.23989972 0.14780833 0.28542915 -0.13323006 0.15099645
0.26069388 0.19327985 -0.008449178 0.008693118 0.03754303 -0.20149025 0.20503558 0.009360041
-0.023777977 0.14993553 -0.1811015 -0.024187583 -0.18296348 -0.014709337 0.024195217 -0.17392845
-0.19582641 -0.10097011 -0.18290228 -0.00039426368 -0.1991561 0.16422084 -0.01727788 -0.2488703
0.12050831 0.08792183 -0.15310998 0.08210435 0.06346638 -0.035797898 -0.13517264 -0.056347385
0.2267578 0.1069659 -0.2659165 -0.08979924 0.10479709 -0.061372988 0.24942385 -0.07073405
0.087396845 -0.118349776 -0.24409859 -0.29274046 -0.1132924 0.04647561 0.023681799 -0.25364578
0.2371413 0.09956691 -0.25507674 -0.23740095 -0.21516407 -0.007451869 -0.19334596 -0.2022637
0.08601268 0.2075572 0.0036734708 -0.2381021 -0.13731767 0.024071245 0.087151475 -0.079836
0.05455915 -0.047676463 0.17348188 -0.003455389 -0.2799514 -0.091557816 0.2209689 -0.21913406
0.11439711 0.028250307 -0.020446438 0.079261675 0.26434743 0.08351256 0.20257741 0.09185474
0.061393756 -0.0977498 -0.27897358 0.13001391 -0.18849793 0.09123773 0.20752169 -0.06559141
0.09408498 -0.14315805 0.14563285 -0.1555559 -0.15818869 -0.22887921 0.20187314 0.11776082
0.21023358 -0.23364303 0.2435816 0.1246772 -0.22652608 0.22505675 0.111624695 0.24680817
0.17159645 -0.2572657 0.26562598 -0.13841103 -0.21909924 0.26570204 -0.18438599 0.078550994
-0.12746495 -0.2367649 0.14707866 -0.22248508 0.040427875 0.14239275 0.20198679 0.008584065
-0.23969723 0.05682526 -0.25074485 -0.23989145 0.04065468 0.037284143 0.00058979535 0.21111158
-0.11334788 -0.19991 -0.070442475 -0.28744912 0.17589878 -0.17394051 0.044810843 -0.26594022
-0.04884375 -0.16598153 -0.05476021 -0.1369945 0.23190571 -0.18963599 -0.21969424 -0.061143957
00000000: 1d42 6c3e 555a 703e 11ee 903d cc9e d33c
00000010: 4fc1 7e3c 1324 003e b72b 00be ebe5 f6bd
00000020: 9fab 48bd 4246 233d ff7c 233e 582d e13d
00000030: fc5b 933d ba3a 8fbd 85c8 a43d 3e89 383e
00000040: e82e 2abe 3863 7f3e 8117 dd3d 7b9b 0cbe
00000050: 5a5f 803c 1df8 7d3e a12f 483e ce95 02be
00000060: 2fe0 853d 1a0c 99bd 68e1 6cbe cd43 ed3c
00000070: dfc7 143e 5e18 3abd 063e 103e 2534 343e
00000080: 5f6a b23d c075 04be 8dde 3fbd a7ba a73c
00000090: f525 2bbe cd7c 63be 1173 6abe 537f 4dbe
000000a0: 4569 d3bd 6658 29be 7935 503e c425 5f3e
000000b0: b733 df3d 94b0 41bd 6747 783d 0ef7 17be
000000c0: eb68 e0bd 7198 303e 6c57 033e 895a 713e
000000d0: 3b4b 10be 9a17 25bd 0533 64be 903a 2b3e
000000e0: 21d8 193e 444d dd3d 9c05 133e 3875 d8bd
000000f0: 8fe2 97be 0fe6 6f3e 065f 35be 1c4f 03be
00000100: f691 99be a990 77be ddd8 613e 4319 9a3e
00000110: b57b 403c 1037 b4bd da7b a9bd d853 543d
00000120: 3cd4 7bbd 89b1 ffbc e967 00be 8495 a13e
00000130: 95fc a63d 1b40 8a3d 3547 35be 1620 173e
00000140: 2783 4b3e 83a4 9ebc 94da 273d 40ac c7bd
00000150: 8739 8ebe d72d 873e 8097 173d 37ab 9e3d
00000160: 2eea dcbb ab74 2d3d e974 163e 2d78 35bd
00000170: 2ba4 9cbd 7774 e9bd 3e5e f4bd ea4f 8abc
00000180: d6c6 4a3e d4f0 683d ff2c d0bd f11a bb3c
00000190: 4e2a 0c3e a062 52be 9ced 5bbd 7570 c73d
000001a0: a9b3 6b3e fbd7 8fbd 97ff 2e3e 46a8 753e
000001b0: 115b 173e c523 923e 766d 08be d09e 1a3e
000001c0: ab79 853e 27eb 453e 6c6e 0abc 946d 0e3c
000001d0: b8c6 193d 7653 4ebe d9f4 513e db5a 193c
000001e0: 08ca c2bc b388 193e ac72 39be 0a25 c6bc
000001f0: c75a 3bbe 6eff 70bc 0c35 c63c 4d1a 32be
00000200: b886 48be 6bc9 cebd bc4a 3bbe 2db5 ceb9
00000210: 94ef 4bbe 8229 283e 578a 8dbc dbd7 7ebe
00000220: 10cd f63d 5c10 b43d ddc8 1cbe 5326 a83d
00000230: a9fa 813d d1a0 12bd b26a 0abe 84cc 66bd
00000240: 3233 683e f010 db3d 3526 88be aae8 b7bd
00000250: db9f d63d 3e62 7bbd f768 7f3e 03dd 90bd
00000260: 1efd b23d 5e61 f2bd fbf4 79be 14e2 95be
00000270: d905 e8bd 365d 3e3d 5500 c23c dcdd 81be
00000280: 2bd5 723e bce9 cb3d 6b99 82be 3c19 73be
00000290: f853 5cbe cf2e f4bb 7cfc 45be 371e 4fbe
000002a0: 6a27 b03d e089 543e 9dbe 703b 09d1 73be
000002b0: 019d 0cbe 0f31 c53c 797c b23d 0f81 a3bd
000002c0: 6a79 5f3d 6548 43bd 3ca5 313e cf73 62bb
000002d0: ca55 8fbe aa82 bbbd ac45 623e ae64 60be
000002e0: 0849 ea3d 306d e73c 4a7f a7bc f253 a23d
000002f0: 8c58 873e a208 ab3d 7470 4f3e 571e bc3d
00000300: 0578 7b3d 0c31 c8bd a0d5 8ebe 5e22 053e
00000310: 9a05 41be d9da ba3d 9180 543e ca54 86bd
00000320: a0af c03d 0698 12be c720 153e 0c4a 1fbe
00000330: 37fc 21be 505f 6abe d5b7 4e3e 962c f13d
00000340: 7947 573e 1e40 6fbe 746d 793e c356 ff3d
00000350: 74f6 67be 4775 663e 7d9b e43d 48bb 7c3e
00000360: fbb6 2f3e 54b8 83be 2100 883e 9fbb 0dbe
00000370: 8d5b 60be 190a 883e aecf 3cbe 58df a03d
00000380: 2c86 02be 7f72 72be ca9b 163e 21d3 63be
00000390: b397 253d 68cf 113e a0d5 4e3e 2ea4 0c3c
000003a0: 3173 75be 9bc1 683d a161 80be 1ba6 75be
000003b0: 8685 263d 42b7 183d 7f9c 1a3a a22d 583e
000003c0: ef22 e8bd 35b5 4cbe 2544 90bd 882c 93be
000003d0: cf1e 343e 761d 32be 938b 373d 5129 88be
000003e0: 6210 48bd 10f7 29be 3e4c 60bd 4948 0cbe
000003f0: b178 6d3e f02f 42be 87f7 60be 1672 7abd

nnenv.node_prediction_h.layers.0.layer.out_layer.bias f4 [16]
-0.09363375 -0.21064158 0.051965974 0.2279877 0.24437654 -0.095146514 0.21052682 -0.12903494
-0.022499377 -0.13165243 -0.17131956 -0.15782827 -0.061787643 0.18379794 -0.1565119 -0.056364156
00000000: 0dc3 bfbd 6db2 57be 46da 543d 9c75 693e
00000010: d83d 7a3e 2ddc c2bd 5894 573e bc21 04be
00000020: 9d50 b8bc e5cf 06be 656e 2fbe bc9d 21be
00000030: 0a15 7dbd 8735 3c3e a844 20be 1ade 66bd

nnenv.node_prediction_h.out_layer.linear.weight f4 [3, 16]
0.002924119 0.0054628463 -0.006704899 -0.008336255 -0.0066093546 0.0031453092 -0.0051964787 0.004987148
0.010548632 0.008462958 0.008702077 0.004148655 0.010519529 -0.007824846 0.008495866 0.013007471
0.009404431 0.019047823 -0.024951339 -0.026587227 -0.022203485 0.01131659 -0.020273848 0.016886078
0.044080548 0.02951429 0.033384133 0.015141646 0.03549868 -0.028996184 0.029809317 0.04750099
0.0014069029 -0.0012263051 0.0006697065 -0.0021580567 0.0013739502 -3.9280774e-05 7.109927e-05 -0.00045446598
0.0013841707 -0.0015335775 0.00059560064 0.0006073343 0.0008359058 0.00037086607 0.0003145506 -0.00053413666
00000000: 93a2 3f3b ad01 b33b c5b4 dbbb ca94 08bc
00000010: 4993 d8bb 8821 4e3b 3947 aabb 3b6b a33b
00000020: 2bd4 2c3c 38a8 0a3c 2893 0e3c 71f1 873b
00000030: 1a5a 2c3c c833 00bc 3f32 0b3c 4a1d 553c
00000040: 0b15 1a3c 2e0a 9c3c c066 ccbc 75cd d9bc
00000050: 15e4 b5bc 3869 393c 5715 a6bc ac54 8a3c
00000060: ce8d 343d f4c7 f13c cdbd 083d ab14 783c
00000070: 1067 113d 6889 edbc ab32 f43c 6690 423d
00000080: d467 b83a f9bb a0ba 3e8f 2f3a 2f6e 0dbb
00000090: 1e16 b43a 69c1 24b8 211b 9538 6445 eeb9
000000a0: 106d b53a 5202 c9ba 1522 1c3a 8435 1f3a
000000b0: b020 5b3a cd70 c239 44ea a439 4e05 0cba

nnenv.node_prediction_h.out_layer.linear.bias f4 [3]
-0.0007076377 -0.007716494 0.00030023555
00000000: c380 39ba a5da fcbb ef68 9d39

nnenv.edge_prediction_h.layers.0.layer.in_layer.weight f4 [16, 901]
-0.04437866 -0.025404688 -0.03911197 -0.008057974 -0.020393396 0.042682983 0.03385624 0.005572466
-0.033360783 0.023118382 -0.005959863 0.0087705655 -0.007939778 -0.0034488253 -0.021319892 0.00029002083
0.054872636 -0.029148063 -0.02757847 0.013388301 0.002008805 -0.021406285 0.035618678 0.051585983
-0.034639705 0.015480219 0.026210664 0.036491007 0.04408761 -0.038800143 0.0100389635 0.004717544
-0.047571637 0.015228938 -0.03459746 -0.0075914185 0.0156128565 -0.004556768 0.006452625 0.027224913
-0.04054273 0.04004895 -0.027341308 0.058205016 -0.04481998 -0.054272227 0.07233553 0.019394506
-0.013403253 0.019890586 -0.017212575 -0.033027746 -0.0041040624 0.068688035 -0.023303442 0.0071305293
-0.011418437 -0.014198265 -0.03291648 -0.04623693 0.013688293 0.0008317422 -0.024652869 0.029059978
-0.043698303 -0.021634484 -0.015862897 0.05753849 -0.01726389 0.03276612 0.023229007 -0.027615631
-0.039636377 -0.04018392 0.0081656175 -0.04735331 -0.009665128 -0.015616306 -0.046686787 0.006645476
0.012350501 0.028107127 -0.028069658 0.0041298303 -0.017483898 0.017311776 -0.0044861073 0.007879798
0.009859595 -0.016895708 0.023085877 0.0065467195 0.017025556 -0.066247106 -0.0277526 0.039431956
-0.007985542 -0.007462205 0.010349851 -0.010303238 0.082141 0.011720239 0.020528428 -0.053760193
0.018862465 -0.016096767 0.011629805 0.08347586 -0.011602466 0.05676186 0.042108424 -0.011620164
-0.0010338571 0.02392159 0.040678985 -0.034997188 -0.0022692361 -0.011734613 -0.0024653643 -0.014326772
-0.016745443 -0.0038474689 -0.061518572 0.00447224 0.0015758547 0.051948994 -0.030263225 -0.014557798
0.01721753 0.043068282 -0.029671986 0.03695662 -0.012640917 -0.00738027 -0.012362035 0.029192697
0.024186758 0.007588616 -0.008760482 -0.0021441025 -0.01962631 0.0384398 0.0034022627 0.020240624
-0.032099508 -0.0020805416 0.05219 0.04028723 0.048541907 0.010089459 0.016248412 0.027821377
-0.035291974 0.0450651 0.013895893 0.005166217 0.005337927 -0.02466768 0.066938706 -0.0028449812
0.026376236 -0.044113066 0.0041693356 -0.033199113 -0.0047199745 -0.0031502317 -0.05138884 0.0010561408
-0.0064955284 0.032762416 -0.015817491 -0.012068693 0.009522277 -0.042232364 -0.0103416825 0.008105012
-0.013164575 0.014410638 -0.012290198 0.03838834 -0.015188695 0.010880795 0.029137153 -0.029118065
-0.0060364758 -0.0034677219 -0.058856573 0.015083787 0.011755924 -0.011718722 0.018732972 0.013760334
0.030999454 0.002493999 -0.010767021 -0.023460694 0.044967458 0.0005527145 0.03241917 0.016371297
0.03432335 -0.01293569 -0.0111876605 0.025979575 -0.004481058 -0.009238277 -0.021047601 0.00674687
-0.035737973 0.02066566 -0.040370107 -0.0006021937 0.04727411 -0.03443683 -0.05941549 -0.020703208
-0.0037465869 -0.036745995 0.03676255 -0.03578501 0.019234251 0.0012543635 -0.013453128 -0.02461528
-0.043023277 -0.015850933 0.02291239 -0.016024884 -0.0011968054 -0.004030621 0.022309426 0.02066711
-0.0008354512 0.028398314 0.007546983 -0.02164642 0.033812795 0.04329294 -0.04069398 -0.007277546
-0.011291435 -0.042780165 0.019796655 0.025140539 0.0064968728 0.039200783 0.02099334 0.031463094
0.014329851 -0.032174908 0.056443103 0.006053946 0.06399708 -0.008335329 0.021924477 0.058353107
00000000: 66c6 35bd 7e1d d0bc e033 20bd 9805 04bc
00000010: 0d10 a7bc 5ad4 2e3d d7ac 0a3d 3c99 b63b
00000020: 51a5 08bd c362 bd3c f44a c3bb 6bb2 0f3c
00000030: d815 02bc b005 62bb 0ea7 aebc f00d 9839
00000040: 21c2 603d ebc7 eebc 3eec e1bc 9b5a 5b3c
00000050: 28a6 033b 3c5c afbc e4e4 113d d34b 533d
00000060: 5de2 0dbd bfa0 7d3c bfb7 d63c 9877 153d
00000070: 3695 343d e6ec 1ebd 777a 243c a195 9a3b
00000080: 7ada 42bd cc82 793c 11b6 0dbd 6fc1 f8bb
00000090: 11cd 7f3c f150 95bb 8b70 d33b c806 df3c
000000a0: 2210 26bd 5e0a 243d e1fa dfbc 6268 6e3d
000000b0: 2895 37bd 8e4c 5ebd a624 943d 3ae1 9e3c
000000c0: 5199 5bbc 95f1 a23c 6301 8dbc 1a48 07bd
000000d0: 5f7b 86bb 50ac 8c3d dce6 bebc 37a7 e93b
000000e0: 6514 3bbc d79f 68bc 6ed3 06bd ef62 3dbd
000000f0: dd44 603c 4609 5a3a d0f4 c9bc 310f ee3c
00000100: fefc 32bd cd3a b1bc e8f2 81bc 7bad 6b3d
00000110: 006d 8dbc c435 063d c24a be3c 2d3a e2bc
00000120: c159 22bd e597 24bd 15c9 053c 8bf5 41bd
00000130: 7c5a 1ebc 89db 7fbc a53a 3fbd 4bc2 d93b
00000140: c159 4a3c eb40 e63c 57f2 e5bc 8753 873b
00000150: 643a 8fbc 6dd1 8d3c 3200 93bb 451a 013c
00000160: 248a 213c de68 8abc 981e bd3c dd85 d63b
00000170: 2e79 8b3c 90ac 87bd 6c59 e3bc 6783 213d
00000180: cad5 02bc 8385 f4bb 6c92 293c eace 28bc
00000190: 8a39 a83d 3f06 403c 3c2b a83c a633 5cbd
000001a0: 7585 9a3c 5edd 83bc f08a 3e3c 64f5 aa3d
000001b0: 4518 3ebc 207f 683d e279 2c3d 8062 3ebc
000001c0: 7d82 87ba 36f7 c33c 029f 263d 3659 0fbd
000001d0: 77b7 14bb 8942 40bc f391 21bb d6ba 6abc
000001e0: bd2d 89bc d125 7cbb e6fa 7bbd de8b 923b
000001f0: e98c ce3a 78c8 543d 95ea f7bc d583 6ebc
00000200: c70b 8d3c 5e68 303d aa12 f3bc d35f 173d
00000210: d91b 4fbc 31d6 f1bb 228a 4abc 8625 ef3c
00000220: 4f23 c63c eda9 f83b 2088 0fbc 1284 0cbb
00000230: 5bc7 a0bc 0d73 1d3d 7ff8 5e3b aacf a53c
00000240: c67a 03bd b259 08bb 2ec5 553d 3904 253d
00000250: e1d3 463d 424e 253c 641b 853c a8e9 e33c
00000260: 518e 10bd 2f96 383d 99ab 633c 5f49 a93b
00000270: c7e9 ae3b e013 cabc 2917 893d dd72 3abb
00000280: fa12 d83c e7af 34bd ec9e 883b cbfb 07bd
00000290: 04aa 9abb 1e74 4ebb 1b7d 52bd 346e 8a3a
000002a0: 71d8 d4bb e231 063d af93 81bc c4bb 45bc
000002b0: 5303 1c3c d8fb 2cbd 2970 29bc e2ca 043c
000002c0: 3bb0 57bc 991a 6c3c d45c 49bc 183d 1d3d
000002d0: 01da 78bc 5d45 323c 0ab1 ee3c 0289 eebc
000002e0: a1cd c5bb b842 63bb 9713 71bd fd21 773c
000002f0: eb9b 403c e2ff 3fbc e475 993c 0673 613c
00000300: 91f2 fd3c 5c72 233b 2968 30bc a430 c0bc
00000310: cc2f 383d 0be4 103a f7c9 043d 191d 863c
00000320: a496 0c3d 37f0 53bc 734c 37bc 1ed3 d43c
00000330: d7d5 92bb 245c 17bc 056c acbc d914 dd3b
00000340: fb61 12bd 084b a93c 205b 25bd 89dc 1dba
00000350: 7fa2 413d a20d 0dbd a85d 73bd c699 a9bc
00000360: 4c89 75bb f882 16bd 5494 163d 4d93 12bd
00000370: 2691 9d3c 7469 a43a 826a 5cbc fca5 c9bc
00000380: 2d39 30bd d1d9 81bc c4b2 bb3c 9e46 83bc
00000390: 20de 9cba 4d13 84bb 42c2 b63c 124e a93c
000003a0: 2e02 5bba 95a3 e83c af4c f73b d553 b1bc
000003b0: 497f 0a3d f053 313d bbae 26bd 7b78 eebb
000003c0: b6ff 38bc 413a 2fbd 982c a23c 88f3 cd3c
000003d0: b8e3 d43b 0091 203d 3afa ab3c 72df 003d
000003e0: c0c7 6a3c d6c9 03bd e230 673d 2e60 c63b
000003f0: e710 833d e790 08bc f69a b33c ab03 6f3d

nnenv.edge_prediction_h.layers.0.layer.in_layer.bias f4 [16]
-0.018278118 -0.03227705 0.030931119 0.015825292 0.017906386 0.015440411 -0.018513633 -0.035676036
-0.032935183 0.04760872 -0.013214932 0.02335191 -0.0008067234 -0.00809057 -0.0197161 -0.040414244
00000000: febb 95bc f134 04bd 4263 fd3c 0ba4 813c
00000010: 6ab0 923c c7f9 7c3c e7a9 97bc 0921 12bd
00000020: 0be7 06bd 5c01 433d 7183 58bc 814c bf3c
00000030: 4a7a 53ba 4f8e 04bc a983 a1bc 6889 25bd

nnenv.edge_prediction_h.layers.0.layer.out_layer.weight f4 [16, 16]
-0.15059778 -0.017822566 0.04255716 -0.18048589 -0.053181533 0.052595343 -0.26117697 0.003799806
0.06081878 -0.011320735 0.015728753 0.24994576 0.17894168 -0.16157712 0.07320413 0.052772887
-0.037657127 -0.16972782 0.041561183 0.001631778 -0.064027704 0.24677548 0.09762726 -0.22721617
-0.030122083 -0.018454913 -0.07722827 -0.0048338273 0.08273425 -0.07233684 -0.25434417 -0.034516327
0.16106308 0.20263155 -0.1726572 0.028713176 -0.13195744 -0.007897167 0.2018116 -0.0017593256
0.07258408 -0.2718861 -0.009066211 -0.25613576 -0.08899286 0.057698797 0.07231722 0.13476574
0.14917712 0.25361773 -0.14704297 0.061417878 0.051709376 -0.1888503 0.2617217 0.0813871
0.20695142 0.028197628 0.13040532 0.029303638 -0.18402296 -0.10418927 -0.23591112 0.133393
0.1682944 -0.050562464 -0.20809916 0.1965454 0.0135140335 0.027791187 -0.11822888 0.17554894
-0.21664128 -0.0365654 0.06573079 0.21824913 -0.23299958 0.12747073 0.03422543 0.18731365
0.2151544 -0.1806531 -0.22335862 -0.15933858 -0.016360898 -0.17073599 0.17036282 -0.081462175
0.21120608 0.1990367 -0.054940213 -0.045744196 -0.080322415 0.03184891 0.028405927 0.101114064
-0.21396552 0.08487695 0.1316378 0.15259491 -0.16393767 -0.02998421 -0.1323706 0.06812353
-0.19580509 0.06244958 -0.1287596 -0.027326252 -0.0031276317 0.21242051 0.07484772 -0.10714756
-0.15520346 -0.052481078 0.17912735 -0.19484973 -0.09859001 0.022931365 0.08521622 0.118148476
0.12683241 -0.074075006 -0.14115572 -0.061924998 -0.19808176 0.13066219 0.016605794 0.03664743
-0.12497017 -0.021862304 -0.24103914 0.14684527 -0.20988815 0.021771025 0.040875327 0.103446074
-0.19605635 -0.18512955 -0.043466292 0.10276518 0.11652111 0.06551035 0.1551568 -0.2500296
0.14467928 -0.12293249 -0.14213695 0.18574336 0.039139643 -0.15169019 -0.09225324 -0.065329604
0.22596203 0.006218838 0.17257392 0.22591239 0.23027003 0.14023463 -0.15958038 -0.09259556
-0.13165894 0.04056136 0.089578755 0.18403219 0.064675935 -0.11970052 -0.15218106 -0.033815715
-0.21302922 0.12294842 -0.09269265 0.2161866 0.039620347 -0.035033986 -0.15871641 0.21461809
0.077802286 -0.12766412 -0.21564053 -0.16831289 0.091538094 0.100148685 0.08817217 0.13523215
0.23220076 -0.053398497 0.11256641 0.07123963 0.120936155 -0.18722744 -0.17744367 -0.09257733
0.05566585 0.04481311 0.21430874 0.14647362 0.07242961 0.061219357 -0.19394459 0.26269817
-0.11486821 -0.12005219 0.18125549 -0.24941225 0.1960863 0.13963948 -0.1050375 -0.17385885
0.120679505 -0.0998729 0.075302 0.18091133 -0.20518744 0.07436909 0.03233594 0.076066315
0.2497431 -0.2906366 -0.2737218 0.14044197 -0.1307431 0.121200725 0.13623007 0.13772108
0.1521459 0.10140032 -0.18340828 0.12692475 0.20164083 -0.17154005 -0.17983155 -0.10177331
0.09993942 -0.16189674 -0.08983311 -0.19779211 0.19328107 -0.01942826 -0.007935386 0.108765535
0.11752704 0.03398715 0.018769838 0.0337573 -0.047052365 0.017002901 -0.06632522 -0.115566365
0.05198967 0.193781 0.18597902 0.10794753 0.12842369 -0.009819988 0.11737132 -0.08754708
00000000: 4e36 1abe a100 92bc 6b50 2e3d 4bd1 38be
00000010: e1d4 59bd 376e 573d fdb8 85be 2b06 793b
00000020: 1d1d 793d 9b7a 39bc 96d9 803c c8f1 7f3e
00000030: 7d3c 373e 7974 25be 0cec 953d 6228 583d
00000040: 5c3e 1abd 21cd 2dbe 0f3c 2a3d 62e1 d53a
00000050: f520 83bd b6b2 7c3e cdf0 c73d 5bab 68be
00000060: 96c2 f6bc c22e 97bc db29 9ebd 1565 9ebb
00000070: 9370 a93d 5625 94bd 6639 82be fe60 0dbd
00000080: b8ed 243e a57e 4f3e 0dcd 30be e537 eb3c
00000090: da1f 07be 1e63 01bc b3a7 4e3e 2c99 e6ba
000000a0: f6a6 943d a834 8bbe 728a 14bc 3a24 83be
000000b0: e341 b6bd 9355 6c3d 0d1b 943d 0800 0a3e
000000c0: e3c1 183e 2fda 813e 6f92 16be 5091 7b3d
000000d0: 36cd 533d f961 41be 6300 863e 48ae a63d
000000e0: 13eb 533e b6fe e63c f988 053e 2f0e f03c
000000f0: 8470 3cbe 2f61 d5bd af92 71be 2d98 083e
00000100: 5e55 2c3e 961a 4fbd f217 55be 3343 493e
00000110: f769 5d3c 58aa e33c fc21 f2bd 1ac3 333e
00000120: 36d7 5dbe 9ac5 15bd dd9d 863d b37c 5f3e
00000130: 7197 6ebe b087 023e f72f 0c3d 26cf 3f3e
00000140: 6f51 5c3e 20fd 38be 1fb8 64be a729 23be
00000150: 4a07 86bc 6ad5 2ebe 9773 2e3e a4d5 a6bd
00000160: 6846 583e 47d0 4b3e fd08 61bd 445e 3bbd
00000170: 1480 a4bd 0174 023d 8cb3 e83c e414 cf3d
00000180: c719 5bbe f7d3 ad3d 0fcc 063e d741 1c3e
00000190: 47df 27be 72a1 f5bc 298c 07be 5984 8b3d
000001a0: 2181 48be 21cb 7f3d 8ed9 03be 4edb dfbc
000001b0: f4f8 4cbb c384 593e c349 993d 2e70 dbbd
000001c0: a8ed 1ebe 66f6 56bd 296d 373e b086 47be
000001d0: 8fe9 c9bd 8fda bb3c d785 ae3d d4f7 f13d
000001e0: 5be0 013e a3b4 97bd 208b 10be 11a5 7dbd
000001f0: f2d5 4abe 4fcc 053e e008 883c 9e1b 163d
00000200: 5cf0 ffbd 9318 b3bc f7d2 76be 9b5e 163e
00000210: ebec 56be 2659 b23c e36c 273d 89db d33d
00000220: ffc2 48be 9a92 3dbe b609 32bd 8d76 d23d
00000230: 9fa2 ee3d 4a2a 863d 6de1 1e3e e103 80be
00000240: ce26 143e 08c4 fbbd 598c 11be 8233 3e3e
00000250: e450 203d ac54 1bbe 44ef bcbd 87cb 85bd
00000260: 9762 673e 65c7 cb3b 38b7 303e 9455 673e
00000270: e8cb 6b3e ab99 0f3e 0a69 23be bea2 bdbd
00000280: 9ad1 06be ab23 263d 1175 b73d ef72 3c3e
00000290: d174 843d 8c25 f5bd 5ad5 1bbe 5982 0abd
000002a0: 5524 5abe 62cc fb3d a5d5 bdbd 0560 5d3e
000002b0: f248 223d cc7f 0fbd 8e86 22be d8c4 5b3e
000002c0: ce56 9f3d 62ba 02be dfd0 5cbe 375a 2cbe
000002d0: 5378 bb3d c11a cd3d 9c93 b43d 4c7a 0a3e
000002e0: 09c6 6d3e 62b8 5abd 3889 e63d 15e6 913d
000002f0: 60ad f73d 8db8 3fbe cbb3 35be 2f99 bdbd
00000300: e001 643d f48d 373d c073 5b3e 2efd 153e
00000310: fa55 943d 26c1 7a3d 6999 46be 6080 863e
00000320: 0640 ebbd ecdd f5bd 0a9b 393e ed65 7fbe
00000330: d9ca 483e a7fd 0e3e e71d d7bd 0e08 32be
00000340: d126 f73d 2a8a ccbd ef37 9a3d d240 393e
00000350: a81c 52be d24e 983d b172 043d a8c8 9b3d
00000360: a8bc 7f3e 52ce 94be 4425 8cbe 05d0 0f3e
00000370: 85e1 05be 1638 f83d e57f 0b3e c106 0d3e
00000380: 23cc 1b3e f9aa cf3d 61cf 3bbe 90f8 013e
00000390: ef7a 4e3e 32a8 2fbe c325 38be 866e d0bd
000003a0: 0aad cc3d 42c8 25be 6cfa b7bd 048a 4abe
000003b0: 79eb 453e 0428 9fbc 6c03 02bc 77c0 de3d
000003c0: 04b2 f03d 1c36 0b3d 34c3 993c 1845 0a3d
000003d0: fbb9 40bd ab49 8b3c 84d5 87bd 0fae ecbd
000003e0: 1ff3 543d 876e 463e 4971 3e3e 9813 dd3d
000003f0: 8081 033e 04e4 20bc 6060 f03d e24b b3bd

nnenv.edge_prediction_h.layers.0.layer.out_layer.bias f4 [16]
-0.15858659 0.039400693 0.21086217 0.15022661 -0.059333406 0.07320561 0.03387905 -0.14977807
0.18681504 0.22039655 -0.04454915 -0.051065385 -0.11737346 0.17139454 0.19545907 0.056213774
00000000: 8664 22be 9f62 213d 41ec 573e 01d5 193e
00000010: 9607 73bd d3ec 953d c2c4 0a3d 6c5f 19be
00000020: 714c 3f3e a2af 613e 2b79 36bd f029 51bd
00000030: 7f61 f0bd 0d82 2f3e 6c26 483e 6a40 663d

nnenv.edge_prediction_h.out_layer.linear.weight f4 [10, 16]
-0.0012474479 -0.007340272 0.0021099388 0.0031348441 0.0008305619 -0.0025669285 -0.0059493245 0.007221076
-0.008164989 -0.0066196304 -0.0047064605 0.0010335015 0.006614992 -0.00015065486 -0.0028058616 -0.0110377595
-0.0016440061 -0.006894393 0.0025761863 0.0035121928 0.0011626186 0.0008306329 -0.004756144 0.009891473
-0.007968031 -0.011133 -0.005064747 0.003658428 0.008170943 -0.0028880972 -0.0039274413 -0.00806641
0.017309237 -0.06816881 -0.019916367 0.0041469615 0.04318924 -0.006738147 -0.051945284 0.04828927
-0.046797905 -0.035308402 -0.013522303 0.043165218 0.055822723 -0.006029947 -0.020936416 -0.06036516
-0.008407032 0.02601386 0.014606864 0.0020446472 -0.014795838 0.0024032244 0.010676148 -0.009761278
0.010988643 0.0060156034 -0.000265788 -0.007947192 -0.0120962355 0.002357851 0.009795597 0.010528969
-0.002824485 0.0003149163 0.003370105 0.000617127 -0.003940442 -0.0013796379 0.00063590007 -0.002384187
0.004171924 0.0022807168 -0.004084639 0.00095569406 -0.0018646345 -0.00019206134 0.0018877222 -0.0044119568
-0.002727748 -0.040682256 -0.006810719 0.013526657 0.008940925 -0.019834965 -0.015754173 0.014933595
-0.0132714575 -0.009423236 -0.013651528 0.015129108 0.01779593 0.0015702804 -0.0018352895 -0.03887354
0.00054431095 -0.016520971 -0.00025948597 -0.0013478793 0.0077080484 0.0023228636 -0.0085922135 0.012779343
-0.012899997 -0.015065957 -0.0018378908 0.004072262 0.014573257 -0.0050505446 -0.0064998996 -0.02052561
0.027222073 -0.0543858 -0.028734008 -0.0030379097 0.050002005 -0.005869279 -0.065858185 0.065797985
-0.077346355 -0.080700904 -0.0041928845 0.056827325 0.0920466 -0.044511236 -0.03796811 -0.03256596
-0.016120968 0.018307455 0.024495628 0.011673264 -0.007385209 0.0033569047 -0.0037735726 0.012304612
-0.020533133 -0.028634755 -0.011276472 -0.012606893 0.007327121 0.0031853507 0.00437135 -0.0049437555
-0.003194086 -0.012039822 0.004960768 -0.003006098 0.002363884 0.0054387986 0.0075998413 0.011940658
-0.003938121 -0.022202488 -0.0033183978 -0.010101054 0.0014144859 -0.008407871 -0.0053998553 -0.0124841705
00000000: 6881 a3ba aa86 f0bb e646 0a3b f571 4d3b
00000010: 11ba 593a ea39 28bb 8df2 c2bb c79e ec3b
00000020: 72c6 05bc 7ce9 d8bb a738 9abb 8e76 873a
00000030: 93c2 d83b 1bf9 1db9 8ce2 37bb b8d7 34bc
00000040: b17b d7ba 5cea e1bb 3cd5 283b d12c 663b
00000050: 0263 983a d5be 593a 6dd9 9bbb d80f 223c
00000060: 588c 02bc 3067 36bc 2df6 a5bb 3dc2 6f3b
00000070: 6bdf 053c 3b46 3dbb c4b1 80bb fa28 04bc
00000080: 1acc 8d3c 179c 8bbd a627 a3bc 3ce3 873b
00000090: 33e7 303d adcb dcbb 94c4 54bd f8ca 453d
000000a0: 29af 3fbd 8b9f 10bd a68c 5dbc 03ce 303d
000000b0: 5ea6 643d dd96 c5bb d982 abbc 7541 77bd
000000c0: a6bd 09bc 051b d53c a151 6f3c 7dff 053b
000000d0: 3e6a 72bc 6a7f 1d3b 03eb 2e3c c4ed 1fbc
000000e0: b609 343c 8a1e c53b 7659 8bb9 f034 02bc
000000f0: 4a2f 46bc 2d86 1a3b b67d 203c b281 2c3c
00000100: ff1a 39bb 5a1b a539 fbdc 5c3b b1c6 213a
00000110: d31e 81bb f7d4 b4ba 88b2 263a 0540 1cbb
00000120: a3b4 883b 1478 153b 6fd8 85bb 8b87 7a3a
00000130: c066 f4ba 1364 49b9 726d f73a 2d92 90bb
00000140: 04c4 32bb 70a2 26bd 742c dfbb e99e 5d3c
00000150: f57c 123c f07c a2bc e50e 81bc 0aac 743c
00000160: 8770 59bc eb63 1abc a9aa 5fbc 14e0 773c
00000170: c5c8 913c ded1 cd3a 198e f0ba dc39 1fbd
00000180: 17b0 0e3a fd56 87bc 9e0b 88b9 53ab b0ba
00000190: cc93 fc3b 2f3b 183b 5bc6 0cbc 7360 513c
000001a0: 825a 53bc 34d7 76bc 62e5 f0ba 9c70 853b
000001b0: acc4 6e3c 0a7f a5bb 1cfd d4bb 5325 a8bc
000001c0: d300 df3c a5c3 5ebd 9563 ebbc ab17 47bb
000001d0: e7ce 4c3d 1553 c0bb a8e0 86bd 18c1 863d
000001e0: c467 9ebd 8446 a5bd 7764 89bb c5c3 683d
000001f0: ee82 bc3d 6a51 36bd 7384 1bbd e263 05bd
00000200: 1f10 84bc 84f9 953c 0eab c83c 3841 3f3c
00000210: a0ff f1bb 84ff 5b3b 0b4e 77bb 4999 493c
00000220: 1a35 a8bc 6f93 eabc f4c0 38bc 248d 4ebc
00000230: 5918 f03b 51c1 503b 8b3d 8f3b 3aff a1bb
00000240: df53 51bb ac42 45bc f08d a23b f501 45bb
00000250: 64eb 1a3b f337 b23b 1708 f93b c0a2 433c
00000260: 5a0b 81bb fee1 b5bc 7a79 59bb e47e 25bc
00000270: 4566 b93a 2bc1 09bc 45f1 b0bb 688a 4cbc

nnenv.edge_prediction_h.out_layer.linear.bias f4 [10]
-0.0026173058 -0.0010767606 -0.012205407 -0.0009900752 0.00064930855 0.015122469 -0.0022025092 -0.029184677
0.017326113 -0.00092619733
00000000: 1b87 2bbb 1722 8dba 30f9 47bc 69c5 81ba
00000010: 5c36 2a3a 3bc4 773c f957 10bb b414 efbc
00000020: 7eef 8d3c 0dcc 72ba

nnsk.hopping_param f4 [1, 10, 2]
1.955686 5.029287 -2.2975535 3.8580415 -0.81673497 -1.0097331 -3.30573 -5.8886347
2.7870045 6.4667325 -1.840763 -2.35081 3.4672108 5.2836056 1.3061417 0.55368155
-2.7968686 -4.066422 2.094139 4.878949
00000000: eb53 fa3f ebef a040 1e0b 13c0 27ea 7640
00000010: 8b15 51bf ef3e 81bf 1591 53c0 b26f bcc0
00000020: 485e 3240 79ef ce40 1f9e ebbf ac73 16c0
00000030: c8e6 5d40 4c13 a940 a72f a73f 13be 0d3f
00000040: e5ff 32c0 2120 82c0 6006 0640 5a20 9c40

nnsk.strain_param f4 [1, 10, 2]
-1.3990858 0.004852311 -0.5142459 0.066829704 -5.53285 -5.514462 0.6239489 3.8188906
0.35878366 0.70517194 -1.3687816 -0.004936096 2.6271148 6.4522038 3.5236533 -2.6066632
0.79681575 -2.2966146 1.6863009 0.089608446
00000000: 3e15 b3bf 2300 9f3b 9fa5 03bf 03de 883d
00000010: 1b0d b1c0 7976 b0c0 1dbb 1f3f b468 7440
00000020: 7eb2 b73e 2686 343f 3c34 afbf f9be a1bb
00000030: a622 2840 7478 ce40 8983 6140 92d3 26c0
00000040: 1efc 4b3f bcfb 12c0 b5d8 d73f a284 b73d

exp_avg f4 [10, 3]
-2.520763e-06 4.3320462e-05 4.3320462e-05 1.0803893e-05 3.7804282e-05 3.7804282e-05 1.5484557e-05 5.758986e-05
5.758986e-05 1.2501728e-05 7.255319e-07 7.255319e-07 -1.75311e-05 -3.317536e-05 -3.317536e-05 -2.9766523e-05
-7.168023e-05 -7.168023e-05 -4.2318616e-06 3.8461818e-05 3.8461818e-05 3.374083e-06 5.0232436e-05 5.0232436e-05
1.2609077e-06 -2.0303822e-05 -2.0303822e-05 -6.8938293e-06 4.2917154e-06 4.2917154e-06
00000000: 612a 29b6 feb2 3538 feb2 3538 5e42 3537
00000010: 0a90 1e38 0a90 1e38 d5e4 8137 a48c 7138
00000020: a48c 7138 83be 5137 2cc2 4235 2cc2 4235
00000030: c00f 93b7 c625 0bb8 c625 0bb8 1fb3 f9b7
00000040: 0853 96b8 0853 96b8 6aff 8db6 1052 2138
00000050: 1052 2138 4e6e 6236 abb0 5238 abb0 5238
00000060: 753c a935 2052 aab7 2052 aab7 8b51 e7b6
00000070: 8e01 9036 8e01 9036

exp_avg_sq f4 [10, 3]
6.3844645e-09 1.813655e-08 1.813655e-08 6.555967e-10 1.6358167e-09 1.6358167e-09 3.991169e-09 1.412825e-08
1.412825e-08 1.4834602e-09 5.4651865e-09 5.4651865e-09 6.0506786e-09 1.5143552e-08 1.5143552e-08 7.910989e-09
2.3829301e-08 2.3829301e-08 2.0413036e-09 5.630437e-09 5.630437e-09 5.677338e-10 2.0873046e-09 2.0873046e-09
1.7576969e-09 5.4865494e-09 5.4865494e-09 2.5326552e-09 5.4927107e-09 5.4927107e-09
00000000: 585e db31 b2ca 9b32 b2ca 9b32 8435 3430
00000010: 2fd3 e030 2fd3 e030 b222 8931 b3b8 7232
00000020: b3b8 7232 9ee2 cb30 4ac8 bb31 4ac8 bb31
00000030: 55e6 cf31 0615 8232 0615 8232 e6e8 0732
00000040: 30b1 cc32 30b1 cc32 fe46 0c31 d975 c131
00000050: d975 c131 b70e 1c30 4070 0f31 4070 0f31
00000060: 7693 f130 3384 bc31 3384 bc31 f10a 2e31
00000070: 65ba bc31 65ba bc31

exp_avg f4 [10]
-1.570469e-05 2.8587765e-05 4.368074e-05 1.2591839e-05 1.2632954e-05 6.15749e-06 -1.2682647e-05 2.6893082e-05
-1.2746917e-05 -4.6377017e-06
00000000: 91bd 83b7 c2cf ef37 d635 3738 8941 5337
00000010: 20f2 5337 709c ce36 8ec7 54b7 7498 e137
00000020: 97db 55b7 8e9d 9bb6

exp_avg_sq f4 [10]
1.5915502e-08 1.5281495e-09 1.2582182e-08 4.713691e-09 1.442815e-08 2.5440093e-08 4.4945923e-09 1.9485868e-09
3.9086587e-09 5.2996825e-09
00000000: 8fb6 8832 fb06 d230 0629 5832 11f6 a131
00000010: addf 7732 5b87 da32 da6e 9a31 e7e7 0531
00000020: ed4c 8631 8018 b631
