examples/silicon/ref_ckpts/dptb/checkpoint/mix.iter500.pth (torch, 391355 bytes, 56 tensors)

dptb.embedding.descriptor.embedding_net.layers.0.layer.in_layer.weight f4 [10, 3]
0	0x3e094e0c	0.13408679
1	0x3f0be66f	0.5464849
2	0xbf0f661d	-0.5601519
3	0xbe2632e1	-0.16230346
4	0xbe90fe4c	-0.28319013
5	0xbee5d6ca	-0.44890434
6	0x3d48f3da	0.04906068
7	0xbefc4776	-0.4927327
8	0xbe005231	-0.12531354
9	0xbe97e6cc	-0.29668272
10	0x3dbaddaf	0.09124314
11	0x3f0030be	0.50074375
12	0x3d87e8da	0.0663621
13	0xbea4b056	-0.32165784
14	0x3e901e4c	0.28148115
15	0xbef3126e	-0.47474998
16	0xbe8f86fe	-0.28032678
17	0x3b4c4243	0.0031167425
18	0x3efe341a	0.49649125
19	0xbee4f278	-0.4471624
20	0x3ea1a86a	0.31573802
21	0x3eca03ae	0.39455932
22	0xbe9bc57d	-0.3042411
23	0x3eca48b3	0.3950859
24	0xbe6e630e	-0.23279974
25	0x3ec79089	0.3897746
26	0x3ec6b9d1	0.38813642
27	0x3ec2487a	0.3794592
28	0xbe17ae47	-0.14812575
29	0xbe08ef6f	-0.13372587

dptb.embedding.descriptor.embedding_net.layers.0.layer.in_layer.bias f4 [10]
0	0xbbe99ba0	-0.0071291476
1	0xbef80b97	-0.48446342
2	0x3e1ff29b	0.1561989
3	0x3eb2c90d	0.34919015
4	0x3e69cf9d	0.22833104
5	0x3ecca748	0.39971375
6	0xbcdad3aa	-0.026712257
7	0x3ee816af	0.45329806
8	0x3c874b7a	0.016515482
9	0x3dd3cf9c	0.10342333

dptb.embedding.descriptor.embedding_net.layers.0.layer.out_layer.weight f4 [20, 10]
0	0xbe935ab0	-0.28780127
1	0xbe8badf8	-0.27281165
2	0xbe1686e2	-0.14699891
3	0xbe5b88e8	-0.21438944
4	0x3e263409	0.16230787
5	0x3e66a3d5	0.22523434
6	0x3debdd59	0.11516828
7	0xbde61348	-0.11234146
8	0x3d7e92fe	0.0621519
9	0x3dd89047	0.10574394
10	0x3cd112bf	0.025521634
11	0x3e330bf4	0.17485029
12	0x3e94edeb	0.29087767
13	0xbe888c7a	-0.26669675
14	0xbe6b5fc2	-0.22985747
15	0xbe424229	-0.1897055
16	0xbd52916b	-0.051408213
17	0x3db6d013	0.08926406
18	0xbe1fbc24	-0.15599114
19	0xbd1617be	-0.036643736
20	0x3e201afa	0.1563529
21	0x3e623f27	0.22094403
22	0xbe8f4e1c	-0.2798928
23	0x3e38cf3a	0.180478
24	0xbe834674	-0.2563969
25	0xbe3281b2	-0.17432287
26	0xbe2d11a3	-0.16901259
27	0x3e6f1398	0.23347318
28	0xbd067808	-0.032829314
29	0xbe3925b9	-0.18080796
30	0xbe80fa7a	-0.25191098
31	0xbe452582	-0.1925259
32	0x3e42dde1	0.19029953
33	0x3e1aa9b1	0.15103795
34	0x3e8a9e07	0.2707369
35	0xbe9a6515	-0.30155244
36	0x3e2dc715	0.16970475
37	0x3e3fbd43	0.18724541
38	0xbdf7f9be	-0.121081814
39	0x3d38a5a0	0.045079827
40	0x3de31cef	0.11089503
41	0xbe0657f7	-0.13119493
42	0x3d3c9327	0.046038773
43	0xbdf97ecf	-0.1218239
44	0x3d1f135b	0.03883682
45	0x3d52af4c	0.051436707
46	0x3e4f5eaa	0.20250955
47	0x3d65d773	0.05611367
48	0x3da48786	0.080336615
49	0x3d739cc4	0.059475675
50	0xbe57c5e1	-0.21071579
51	0xbe932884	-0.28741848
52	0xbe640344	-0.2226687
53	0xbde558c7	-0.111985736
54	0xbe8cfaa7	-0.27534983
55	0xbe68971c	-0.22713894
56	0x3c45568b	0.012044559
57	0x3c4857db	0.012227978
58	0xbe767950	-0.24069715
59	0xbe8ebb35	-0.27877203
60	0xbd5127c7	-0.051063325
61	0x3dac42fd	0.084112145
62	0x3d22ff7a	0.039794423
63	0xbe3fdc50	-0.18736386
64	0x3e43eac8	0.1913253
65	0x3d95f722	0.073225275
66	0xbe64cf5c	-0.22344726
67	0xbdb3f461	-0.08786846
68	0xbdfde5a4	-0.12397316
69	0xbe2b9b8b	-0.16758554
70	0xbe057cad	-0.13035841
71	0x3e5399b8	0.20664108
72	0x3e60183a	0.21884242
73	0x3c9caa95	0.019124309
74	0x3e172fa3	0.14764266
75	0x3d84e547	0.06489044
76	0x3e9d6251	0.30739072
77	0xbdc320ae	-0.095277175
78	0x3df95a89	0.12175471
79	0xbd6fac43	-0.05851389
80	0xbdfc1d70	-0.12310302
81	0x3dae3e21	0.08507944
82	0xbe89c988	-0.2691157
83	0xbe79047c	-0.24318117
84	0xbc29ac7e	-0.010356067
85	0x3d3eb670	0.046560705
86	0xbe11d66c	-0.14241952
87	0x3df63e24	0.12023571
88	0x3e59c092	0.21264866
89	0xbe81c0ae	-0.25342315
90	0x3d31054f	0.043217953
91	0xbe6f6508	-0.23378384
92	0xbdacd7a3	-0.08439567
93	0xbe01b6d7	-0.12667404
94	0x3e428222	0.18994954
95	0x3e89c234	0.26905978
96	0xbe888447	-0.2666342
97	0x3e8837e2	0.26605135
98	0xbe25cdf7	-0.1619185
99	0xbe077e93	-0.13231878
100	0x3d92b4fc	0.07163426
101	0xbe3ad560	-0.18245459
102	0xbbcae8e0	-0.0061923116
103	0xbe4f0ce2	-0.20219758
104	0x3d8ce0fe	0.06878851
105	0x3d12177f	0.03566694
106	0x3e89c59f	0.26908585
107	0x3e101b6d	0.14072962
108	0x3dbb9a6c	0.09160313
109	0x3da1d4f7	0.07901948
110	0x3e478989	0.19486059
111	0xbd9a7c8c	-0.07543287
112	0x3e6ff8bd	0.2343473
113	0x3e83ecbb	0.2576655
114	0x3e883b9e	0.26607984
115	0xbdd3bead	-0.10339103
116	0x3e985bf5	0.29757658
117	0x3c006b8c	0.007838141
118	0x3dcc6dfa	0.09981914
119	0xbe87982d	-0.26483288
120	0x3e8f09dc	0.2793721
121	0x3daf9f68	0.08575326
122	0x3e98ece6	0.2986824
123	0xbdd8537d	-0.10562799
124	0xbdd02def	-0.10165011
125	0xbe4cad7f	-0.19988059
126	0xbe0607ce	-0.13088915
127	0xbd889d52	-0.066706315
128	0xbe03eb1e	-0.12882659
129	0xbe69e17f	-0.22839926
130	0xbe648651	-0.22316863
131	0xbe9e8283	-0.30958948
132	0xbe9ec5c5	-0.3101026
133	0x3dd7b0b9	0.10531754
134	0x3eab77f4	0.33489954
135	0x3dfc521d	0.12320349
136	0x3e9d0dca	0.30674583
137	0x3eafd82b	0.3434461
138	0x3d9c12d2	0.07620777
139	0x3dbf1992	0.09331049
140	0xbd4c2f95	-0.049850065
141	0xbdfb8906	-0.122819945
142	0xbd146da4	-0.036237374
143	0xbe4dbcf0	-0.20091605
144	0xbc6ef6bd	-0.014585194
145	0xbe6779df	-0.22605084
146	0x3e939937	0.2882783
147	0xbcc854e9	-0.02445455
148	0x3e76d382	0.24104121
149	0x3ddbe2db	0.107366286
150	0x3ce82919	0.02833991
151	0x3e0371cf	0.12836383
152	0x3da93940	0.08262873
153	0x3d935403	0.07193758
154	0x3e3db692	0.18526676
155	0xbe8d9f42	-0.27660567
156	0xbe9c7196	-0.3055541
157	0xbd2a75dd	-0.04161631
158	0xbe8f64cc	-0.2800659
159	0xbe2a381c	-0.16622967
160	0xbe19de8d	-0.15026303
161	0xbe4d364d	-0.20040245
162	0x3dedcff9	0.11611933
163	0x3e0f4fef	0.13995336
164	0x3d4e862d	0.05042093
165	0xbdc99794	-0.09843364
166	0xbe744420	-0.23854113
167	0xbe68d4c8	-0.2273742
168	0x3d389377	0.04506251
169	0xbd87ff36	-0.066404745
170	0xbe635ec2	-0.22204116
171	0xbe514fe2	-0.20440629
172	0xbda9616b	-0.08270534
173	0xbe001ecd	-0.1251175
174	0xbe3e9dd8	-0.186149
175	0xbe830ea0	-0.25597095
176	0x3e8c2755	0.27373758
177	0x3e9ce058	0.3063991
178	0x3e7844e4	0.2424503
179	0xbe0842ba	-0.13306704
180	0xbe899eb6	-0.268789
181	0xbe884a3d	-0.2661914
182	0x3c3a5413	0.011372584
183	0x3e10e5d8	0.14150178
184	0x3d6d453d	0.05792736
185	0xbe9784a2	-0.29593378
186	0xbe6c59d0	-0.23081136
187	0x3e86a125	0.2629482
188	0x3ea5a3b1	0.3235145
189	0xbd82ac69	-0.06380541
190	0x3e8285a4	0.25492585
191	0x3c790215	0.01519825
192	0xbd901eed	-0.070371486
193	0xbc4df854	-0.012571413
194	0x3d6cc47c	0.05780457
195	0xbd515aa2	-0.051111825
196	0xbe3c963d	-0.18416686
197	0xbde2dc9e	-0.11077236
198	0xbdeaf346	-0.11472182
199	0xbe3ede1c	-0.18639416

dptb.embedding.descriptor.embedding_net.layers.0.layer.out_layer.bias f4 [20]
0	0x3c73f0f8	0.014888994
1	0xbe05903a	-0.130433
2	0xbe03f65c	-0.12886947
3	0xbe65e65c	-0.22451156
4	0xbe9e8a1e	-0.3096475
5	0xbe0e2bb2	-0.13883856
6	0xbe5fc3ad	-0.21851988
7	0x3e1fa1e9	0.15589108
8	0xbe5b4a8f	-0.2141516
9	0xbe61315e	-0.21991488
10	0xbe3cae52	-0.18425873
11	0x3e6900b4	0.22754174
12	0xbe36cc50	-0.17851377
13	0x3d6459dd	0.055749763
14	0xbe984c15	-0.29745546
15	0xbc002844	-0.0078221
16	0xbdf028ec	-0.11726555
17	0xbe01767b	-0.12642853
18	0x3e913dbb	0.2836741
19	0xbd245037	-0.04011556

dptb.embedding.descriptor.embedding_net.out_layer.weight f4 [30, 20]
0	0xbe2116c6	-0.15731344
1	0x3e1dac34	0.15397722
2	0x3d732036	0.05935689
3	0x3cb26e07	0.02178098
4	0xbde0fd96	-0.10985868
5	0xbe45fc67	-0.19334565
6	0xbdb2e3d0	-0.08734858
7	0xbc804dc3	-0.01566208
8	0x3d277f1d	0.04089271
9	0xbe12a01c	-0.1431889
10	0xbcebc271	-0.02877924
11	0x3db7c5b3	0.08973255
12	0xbd025603	-0.03182031
13	0xbdb14c87	-0.086571746
14	0xbe0418d6	-0.12900099
15	0xbe6a0b86	-0.22855958
16	0xbe7111d5	-0.23541959
17	0xbe24a6f5	-0.16079314
18	0x3ddb13dc	0.10697147
19	0xbe292c42	-0.1652079
20	0x3d5465cb	0.05185489
21	0xbe3eb78f	-0.1862471
22	0x3e418742	0.18899253
23	0x3e05b5fd	0.13057704
24	0xbdfd3042	-0.1236272
25	0x3cc85647	0.024455203
26	0x3e325341	0.17414571
27	0xbe5355b6	-0.20638165
28	0x3dbf8c49	0.09352929
29	0x3e3a58e8	0.18197978
30	0xbdfc7d46	-0.123285815
31	0xbe475d60	-0.19469213
32	0xbd3ec173	-0.046571206
33	0x3de88b6f	0.1135472
34	0x3e14b2a1	0.14521267
35	0xbe059796	-0.13046107
36	0x3d94dabb	0.07268282
37	0xbe12a5b1	-0.14321019
38	0xbe5f3561	-0.21797706
39	0xbd6b2b4d	-0.05741434
40	0xbe0f6eab	-0.1400706
41	0x3df4859b	0.11939546
42	0xbd81a655	-0.063305534
43	0xbe675a1d	-0.22592969
44	0xbd24c32c	-0.040225193
45	0xbe5297c9	-0.20565714
46	0xbdb90714	-0.09034553
47	0xbd81c6d4	-0.063367516
48	0xbe0fd912	-0.1404765
49	0xbd47b37d	-0.048755158
50	0x3e037406	0.12837228
51	0x3e24d3f3	0.16096477
52	0xbe1420a2	-0.14465573
53	0xbe0b48b4	-0.13601953
54	0x3d632760	0.055457473
55	0xbe1bfe87	-0.15233813
56	0xbe482091	-0.19543673
57	0xbdbdaf29	-0.09261925
58	0xbdc2ae0a	-0.095058516
59	0xbd03525f	-0.032060977
60	0xbd873cc7	-0.06603389
61	0xbe5d41d9	-0.2160715
62	0xbe5d8762	-0.21633676
63	0x3e47aaf1	0.19498803
64	0x3dc34290	0.0953418
65	0x3e356962	0.17715982
66	0x3deea2b4	0.11652127
67	0xbd5f03e3	-0.054447066
68	0xbe58f033	-0.21185379
69	0x3e487308	0.19575131
70	0x3e3c553b	0.18391888
71	0x3dee11a9	0.11624462
72	0xbbc03680	-0.005865872
73	0x3e4b4a77	0.19852625
74	0xbe43c504	-0.19118124
75	0xbd2218d5	-0.039574463
76	0xbe615925	-0.22006662
77	0xbdc28fcb	-0.095000826
78	0xbe0bb017	-0.13641392
79	0x3d4f4034	0.05059834
80	0x3df8a8c7	0.12141567
81	0x3e4f490d	0.2024271
82	0x3d9332ea	0.071874455
83	0xbd31edc9	-0.04343966
84	0xbe57a10f	-0.21057533
85	0xbd3c96d2	-0.04604227
86	0x3dfbfdad	0.12304244
87	0x3dcc4161	0.099734075
88	0x3e127f3e	0.14306352
89	0xbe163851	-0.1466992
90	0x3daafc90	0.08348954
91	0xbdf1ac76	-0.118004724
92	0x3e5fb650	0.2184689
93	0x3e5135c1	0.20430662
94	0xbe3190f9	-0.17340459
95	0xbe4b5b63	-0.1985908
96	0x3e5c20a1	0.21496822
97	0xbc80e3ab	-0.01573356
98	0x3dfaf6c9	0.12254102
99	0xbdb4236a	-0.08795817
100	0xbd223690	-0.039602816
101	0x3da612cb	0.08109053
102	0xbe5802ca	-0.21094814
103	0xbe3091ca	-0.17243114
104	0xbe141747	-0.14462005
105	0x3e3f0a88	0.18656361
106	0xbe15fd18	-0.14647329
107	0xbb51eba0	-0.0032031313
108	0x3d563e9d	0.052305806
109	0x3dda976a	0.10673411
110	0x3dd3669a	0.10322304
111	0xbcbb1bdf	-0.022840438
112	0xbe439500	-0.19099808
113	0x3e13b6d7	0.14425217
114	0x3be39bfc	0.006946085
115	0xbd749e1f	-0.05972111
116	0x3e0dde77	0.13854395
117	0xbd3f7f51	-0.046752278
118	0xbde017b5	-0.10942022
119	0x3e33182e	0.17489693
120	0xbd0024fe	-0.03128528
121	0x3db3408c	0.08752546
122	0x3e2b07d8	0.16702211
123	0xbdcb1cbc	-0.0991759
124	0xbd5e3cae	-0.054257087
125	0x3dee9647	0.11649757
126	0x3e231b25	0.15928324
127	0xbb051cfd	-0.0020311468
128	0x3e36ed05	0.17863853
129	0xbc555832	-0.013021516
130	0xbd9626c8	-0.07331616
131	0x3d2893ee	0.0411567
132	0xbe164530	-0.1467483
133	0xbdec3695	-0.11533848
134	0x3dd251b2	0.102694884
135	0xbbb630a6	-0.0055599986
136	0xbc8ebe12	-0.017424617
137	0xbe090dd3	-0.1338418
138	0x3e433d46	0.19066343
139	0x3e23574d	0.15951271
140	0x3cd9b1b4	0.026573993
141	0x3dc7fd5a	0.0976512
142	0xbe13ec68	-0.1444565
143	0xbe1adc82	-0.1512318
144	0x3d882b39	0.06648869
145	0x3e195edf	0.14977597
146	0x3e4c19bb	0.1993169
147	0x3e2000b2	0.15625265
148	0x3de09726	0.10966329
149	0xbe003566	-0.1252037
150	0x3cf00bbb	0.029302469
151	0xbe258ee7	-0.16167794
152	0xbd7499e6	-0.05971708
153	0x3d21db67	0.03951588
154	0xbd382d2a	-0.044964947
155	0x3d219c74	0.039455846
156	0xbdf7a85c	-0.12092659
157	0xbe3a9340	-0.18220234
158	0xbe4ab500	-0.19795609
159	0xbe3b7604	-0.18306738
160	0x3c6faf13	0.014629143
161	0x3b57db70	0.0032937191
162	0xbdf918f5	-0.12162963
163	0x3de18ec5	0.11013559
164	0xbe56d2fa	-0.20978919
165	0xbceadd7a	-0.028670061
166	0x3e11df46	0.14245328
167	0x3dd91940	0.10600519
168	0xbd421978	-0.04738757
169	0xbe370ea3	-0.17876677
170	0x3dbc7eaf	0.092038505
171	0x3e57e3d7	0.21083008
172	0xbc8c5c8b	-0.017133972
173	0xbbc05b71	-0.0058702757
174	0x3dbcdb3e	0.09221505
175	0x3e3af332	0.18256834
176	0xbe12a35d	-0.1432013
177	0xbe1324b7	-0.14369474
178	0x3e44c61c	0.19216198
179	0xbb7edd80	-0.0038889349
180	0x3deb5ab6	0.11491911
181	0xbd31fb77	-0.043452706
182	0x3e4ddf10	0.20104623
183	0xbcd1baf6	-0.025601845
184	0x3e23d594	0.15999442
185	0xbe2c71ab	-0.16840236
186	0xbd65873e	-0.05603718
187	0xbe35b6a2	-0.1774545
188	0xbe62a319	-0.2213253
189	0xbe1b3ff2	-0.15161112
190	0xbde2f477	-0.11081784
191	0x3e18c5ea	0.14919248
192	0x3e2f9d74	0.17149907
193	0x3c823a67	0.015896989
194	0xbe5a524e	-0.21320459
195	0x3e4d7919	0.20065726
196	0xbe41c6fa	-0.1892356
197	0x3c03a19f	0.008034139
198	0xbdda623e	-0.106632695
199	0xbe2597f2	-0.16171244
200	0xbd8f7cb2	-0.070062056
201	0xbbf0566b	-0.0073345206
202	0x3da022cd	0.07819138
203	0xbdf2ba84	-0.11851981
204	0x3e0fdd9a	0.14049378
205	0xbe4add9a	-0.19811097
206	0x3e31c267	0.17359315
207	0x3e00f7a6	0.1259447
208	0x3df0f55f	0.11765551
209	0x3e2e3352	0.17011765
210	0xbe073a84	-0.13205916
211	0x3d9d8944	0.07692197
212	0xbdfb0481	-0.122567184
213	0x3a5c8962	0.00084128056
214	0xbe6282a1	-0.22120143
215	0xbe03d8ef	-0.12875722
216	0xbe16de78	-0.14733303
217	0x3d429515	0.047505457
218	0x3e3ca06b	0.1842057
219	0x3daf0e90	0.085476995
220	0x3dec49b3	0.115374945
221	0x3e197c84	0.14988905
222	0x3d0fdb7c	0.035121426
223	0x3e6f534a	0.23371616
224	0xbdcfda34	-0.10149041
225	0xbc47c25d	-0.012192336
226	0xbd2e3dbd	-0.042539347
227	0xbe370f2c	-0.17876881
228	0x3e5b0b59	0.21391048
229	0x3d950b35	0.07277528
230	0x3dba520c	0.090976804
231	0xbcd9e2aa	-0.02659734
232	0xbe434ba7	-0.19071828
233	0xbe584ded	-0.21123476
234	0xbe43fdb9	-0.19139756
235	0xbd6395ef	-0.05556291
236	0x3e1b776c	0.15182275
237	0x3d11667e	0.035498135
238	0xbd1d464c	-0.03839712
239	0xbdcdf641	-0.10056735
240	0xbe40a129	-0.18811478
241	0xbe3e2633	-0.1856926
242	0xbe1a6f9b	-0.15081637
243	0x3caabe6f	0.020842759
244	0xbdc55050	-0.09634459
245	0xbd609f98	-0.0548397
246	0xbd723397	-0.05913123
247	0x3e5209e5	0.20511587
248	0xbe4447e9	-0.19168057
249	0xbcd2b9a8	-0.025723293
250	0xbd305f78	-0.043059796
251	0x3e518a92	0.20463017
252	0x3e0f21f3	0.13977794
253	0xbdcd1677	-0.100140505
254	0xbe528289	-0.20557608
255	0xbd199994	-0.03749998

dptb.embedding.descriptor.embedding_net.out_layer.bias f4 [30]
0	0x3d864a2d	0.06557117
1	0x3e19b1c1	0.15009214
2	0x3e29cb9b	0.16581576
3	0x3dec33cd	0.11533318
4	0xbe2f0a3e	-0.17093751
5	0x3d02f127	0.031968262
6	0xbc9fcd71	-0.019507142
7	0x3e02b6e6	0.12765083
8	0x3caea845	0.021320472
9	0xbe296ca5	-0.16545351
10	0xbe4eb1c3	-0.20184998
11	0x3dff9e0f	0.12481319
12	0x3e23af28	0.15984786
13	0x3e2a4788	0.1662885
14	0xbe089244	-0.13337046
15	0xbe16c8be	-0.14725015
16	0x3d18bab6	0.037287436
17	0xbdd4c81d	-0.10389731
18	0xbe5e3ab0	-0.21702075
19	0x3e0059c8	0.12534249
20	0x3d5c88fc	0.053841576
21	0xbcfb010e	-0.030640151
22	0xbd0481f8	-0.03235051
23	0xbe49f9b4	-0.1972416
24	0x3c80a740	0.015704751
25	0xbe2b3617	-0.16719852
26	0xbe228de1	-0.15874435
27	0xbe264cd5	-0.16240247
28	0x3e28c004	0.16479498
29	0xbe008e5b	-0.12554304

dptb.node_prediction_h.layers.0.layer.in_layer.weight f4 [16, 900]
0	0x3cfaa86d	0.03059789
1	0x3c1ba2d2	0.009499269
2	0xbd09a299	-0.03360233
3	0xbd13902b	-0.03602616
4	0x3c9d628d	0.019212032
5	0x3d0177e8	0.031608492
6	0xbc2bc25e	-0.0104833525
7	0x3c5c2d98	0.013438605
8	0x3cb0cd8b	0.021582386
9	0x3d028480	0.031864643
10	0xbc613f5e	-0.013748018
11	0x3c76392c	0.015028279
12	0xbcab4218	-0.02090554
13	0x3cbdc520	0.023165286
14	0x3cea6dac	0.028616749
15	0xbc0b2108	-0.008491762
16	0xbc78fe28	-0.015197314
17	0xbc393e0e	-0.011306299
18	0xbc9d0793	-0.01916865
19	0xbc666a1d	-0.014063385
20	0xbce87689	-0.028376834
21	0x3cea1ad1	0.02857724
22	0x3c0b45c1	0.008500517
23	0x3c90e246	0.01768602
24	0x3cb578c2	0.022152308
25	0xbc666149	-0.0140612805
26	0xbcf71ca2	-0.03016502
27	0xbcc9c8f5	-0.024631957
28	0x3c843853	0.016140139
29	0x3c043773	0.008069861
30	0xbcc348e2	-0.023838464
31	0xbbbf2c0d	-0.0058341087
32	0x3d025b6b	0.031825464
33	0x3ccf4dfd	0.025305742
34	0x3cc6a355	0.024247805
35	0x3c488c5d	0.012240496
36	0x3c370de7	0.011172748
37	0xbb72b3d8	-0.0037033465
38	0x3cbf8b42	0.023381833
39	0xbc449006	-0.0119972285
40	0xbcc84a1a	-0.024449397
41	0x3c357765	0.011075829
42	0x3c3f3c10	0.011672035
43	0xbc9d12cc	-0.019174002
44	0xbd2671d8	-0.040635914
45	0xbc590472	-0.013245689
46	0xba08e9c0	-0.000522282
47	0xba327850	-0.0006808089
48	0x3c1aab3b	0.009440239
49	0x3b94d598	0.004542064
50	0xbc44feec	-0.012023669
51	0x3c32ee0c	0.010921013
52	0x3cc5ff87	0.024169696
53	0xbb6c3a15	-0.0036045362
54	0x3b8a2e6b	0.0042169592
55	0xbcda715b	-0.02666538
56	0xbbc184ad	-0.0059057088
57	0xb9bfa3ed	-0.00036552493
58	0x3cce2961	0.025166215
59	0x3c9fd6e3	0.019511646
60	0xbcc0da07	-0.023541464
61	0x3ccb4321	0.024812283
62	0x3bc956b0	0.006144367
63	0xbcdf277c	-0.027240507
64	0xb9bea345	-0.0003636127
65	0x3b9b4e76	0.004739578
66	0x3c8e6dfa	0.017386425
67	0xbc8a70f7	-0.016899569
68	0xbd0ebbd8	-0.03484711
69	0xbc87f095	-0.01659421
70	0xbd00f1ea	-0.031480707
71	0x3bdc5c03	0.006724836
72	0x3baa6b7b	0.005200801
73	0xbd0a141a	-0.033710577
74	0x3c7c7e37	0.015410951
75	0xbb119814	-0.002221589
76	0xbced6f4f	-0.02898374
77	0x3cb643e0	0.022249162
78	0xbcd845c1	-0.026400449
79	0xbcead75a	-0.02866714
80	0x3b41851e	0.0029528807
81	0x3d016e51	0.031599347
82	0x3b3a3b76	0.002841679
83	0x3c3f4084	0.011673097
84	0x3c0f64a9	0.008752027
85	0xbbf18ae2	-0.0073712924
86	0x3c2b1ea9	0.010444322
87	0xbcc59215	-0.024117509
88	0xbc85ff0a	-0.016356964
89	0xbcce8f91	-0.025214942
90	0x3ce56590	0.02800253
91	0xbcf2138f	-0.029550342
92	0xbc3d1b81	-0.011542202
93	0x3ce50084	0.027954347
94	0xbc87d60f	-0.016581563
95	0xbc606ae4	-0.01369736
96	0x3cc2fccf	0.02380219
97	0x3aef9511	0.0018278678
98	0x3bed1007	0.0072345766
99	0x3c40a688	0.011758454
100	0x3bed19b0	0.007235728
101	0xbc4e187e	-0.012579082
102	0xbc0faccf	-0.008769228
103	0xbcfc231a	-0.030778456
104	0xbceb8067	-0.02874775
105	0x3cc08e7e	0.023505446
106	0xbc53f1c9	-0.012936064
107	0x3c41895f	0.011812537
108	0xbc8a083b	-0.016849628
109	0x3c19c8b3	0.009386229
110	0xbcd9dbcd	-0.026594067
111	0x3cfdf041	0.030998351
112	0x3ccb277b	0.0247991
113	0x3c8a7f3a	0.01690637
114	0x3cb2532d	0.021768177
115	0x3c50614b	0.012718509
116	0xbbaf0a62	-0.005341814
117	0x3cd5893e	0.026066419
118	0x3c842270	0.016129702
119	0x3c983042	0.018577699
120	0x3c66d748	0.014089413
121	0x3d035b4c	0.03206949
122	0x3cc189ad	0.02362522
123	0x3cfda50f	0.030962495
124	0xbcf2b9d4	-0.029629625
125	0xbc26ec64	-0.010188196
126	0x3cf81da0	0.030287564
127	0xbcdd6b08	-0.027028576
128	0xbbccd8b5	-0.0062514194
129	0xbce9ad4e	-0.02852502
130	0x3c829638	0.01594077
131	0x3b1223ea	0.0022299238
132	0x3c795643	0.01521832
133	0x3b30226e	0.002687599
134	0x3a861f49	0.0010232712
135	0xbca2f469	-0.019891934
136	0x3cfc2239	0.030778037
137	0x3c895e68	0.01676865
138	0x3c144560	0.009049743
139	0x3c48ab39	0.012247854
140	0x3c62b923	0.013838085
141	0xbc6df838	-0.014524512
142	0x3bb85ba6	0.0056261597
143	0x3d0c57a1	0.034263257
144	0x3c9dc3d7	0.019258423
145	0x3cab7757	0.02093093
146	0x3caf0d86	0.021368753
147	0xbc3a90f7	-0.011387101
148	0xbd2decd4	-0.042462185
149	0x3cee9d6e	0.029127803
150	0x3c73ed30	0.014888093
151	0xbb82ae21	-0.003988043
152	0xbca781af	-0.02044758
153	0xbb8ca8fb	-0.004292605
154	0xbc2e64e0	-0.010644168
155	0xbcca2a6a	-0.024678428
156	0x3c16f419	0.009213471
157	0xbca105ff	-0.01965618
158	0x39e87e5d	0.00044344636
159	0xbc3bda60	-0.011465639
160	0xbceffb11	-0.029294522
161	0x3c71a0d4	0.014747817
162	0x3cefbe9c	0.029265694
163	0x3c991ecc	0.018691443
164	0xbc9e31c8	-0.019310847
165	0x3c196add	0.009363857
166	0x3d416e37	0.04722425
167	0x3c670ed3	0.014102655
168	0xbc651211	-0.013981358
169	0x3cb9b95f	0.0226714
170	0x3cafdb76	0.021466952
171	0x3c76e27f	0.015068649
172	0x3c90959e	0.017649468
173	0xbc1cccaa	-0.00957028
174	0xbc39d155	-0.011341413
175	0x3c70ea2b	0.0147042675
176	0x3a3f728e	0.0007303142
177	0x3cf41cf2	0.029798958
178	0xbc54389e	-0.012952952
179	0x3c03a0f3	0.008033979
180	0xbbb6377f	-0.005560815
181	0xbcf4bf9d	-0.029876525
182	0xbb75c8c0	-0.003750369
183	0x3c3adada	0.011404717
184	0x3cb9c318	0.022676036
185	0xbc89e878	-0.016834483
186	0xbcecfd70	-0.028929442
187	0x3d099dae	0.03359764
188	0x3c2629cd	0.010141802
189	0x3cf87313	0.03032831
190	0x3b526d00	0.0032108426
191	0x3bbd90a2	0.005785064
192	0xbb79c72b	-0.0038113098
193	0xbc00b326	-0.007855212
194	0xbc971d32	-0.018446539
195	0xbc563e6f	-0.013076409
196	0x3b58a134	0.003305507
197	0x3c3c8e99	0.011508607
198	0xbc8b5dbb	-0.017012468
199	0xba4069b3	-0.0007339969
200	0x3c805b01	0.015668394
201	0xbce4580f	-0.02787402
202	0xbbd6e1d1	-0.006557681
203	0xba4ffa99	-0.00079337653
204	0x3b31f456	0.0027153692
205	0xbcdc7db4	-0.026915409
206	0xbad01b04	-0.0015877192
207	0xbb46a1e3	-0.0030308894
208	0x3cafa424	0.021440573
209	0xbc1b6b1e	-0.009485988
210	0x3ce5ee21	0.02806765
211	0xbac84fad	-0.0015282534
212	0x3c04aa17	0.008097193
213	0xbc569980	-0.013098121
214	0xbbc33351	-0.005957045
215	0xbccaae7b	-0.024741402
216	0xbc9d6948	-0.019215241
217	0xbc504b27	-0.01271323
218	0x3bb03e52	0.005378523
219	0xbd187a6f	-0.037226137
220	0x3c90b8b6	0.017666202
221	0xbd020cbf	-0.031750437
222	0x3d01d1ef	0.03169435
223	0x3c981322	0.01856381
224	0x3c5e6f72	0.013576375
225	0xbc352b7a	-0.011057729
226	0x3caab212	0.020836864
227	0xbcf14af6	-0.02945469
228	0x3c08e8c7	0.00835628
229	0xbb491627	-0.003068337
230	0x3c4e45f9	0.012589925
231	0xbcb081a9	-0.021546202
232	0x3c14384e	0.009046627
233	0x3b914da0	0.0044343024
234	0xbcc8cf92	-0.02451304
235	0xbcbb4a10	-0.022862464
236	0xbd0ba875	-0.0340962
237	0xbae0bd57	-0.0017146271
238	0xbd152146	-0.036408685
239	0xbca384dc	-0.019960813
240	0xbc9124de	-0.017717775
241	0xbc9cfbd7	-0.019163055
242	0xbbcb43b4	-0.006203139
243	0xbcaf3b39	-0.021390544
244	0xbc84ab1b	-0.01619487
245	0xbd21a305	-0.03946211
246	0x3d04e6f5	0.03244682
247	0xbc767200	-0.015041828
248	0xbcad9bbb	-0.021192422
249	0x3ca436a5	0.020045588
250	0x3c502b59	0.012705647
251	0x3be89b30	0.007098578
252	0xbcf32bcd	-0.029683972
253	0x3c87bca9	0.016569452
254	0x3cd7dae4	0.026349492
255	0xbc59d494	-0.0132953115

dptb.node_prediction_h.layers.0.layer.in_layer.bias f4 [16]
0	0x3ccb15a8	0.0247906
1	0x3b83fe8c	0.004028147
2	0x3ccf40ae	0.025299396
3	0xbc6ae841	-0.0143376
4	0xbc9c7864	-0.019100375
5	0xbc28714e	-0.01028092
6	0x3cb1596d	0.021649087
7	0x3bb2d9c7	0.00545809
8	0xbc685721	-0.014180929
9	0x3d0a6f9f	0.033797856
10	0xba157a53	-0.00057021267
11	0xbb9e4e40	-0.0048311055
12	0x3aba8488	0.0014230171
13	0x3c6b58ee	0.014364464
14	0x3c3941ec	0.011307221
15	0x3af945d5	0.0019018004

dptb.node_prediction_h.layers.0.layer.out_layer.weight f4 [16, 16]
0	0x3e22de91	0.15905215
1	0x3e4b7c99	0.19871749
2	0x3d6dfc7e	0.058102123
3	0x3da1a0a5	0.07891969
4	0x3d23f6f9	0.040030453
5	0x3db9dbb9	0.09075112
6	0xbe3ec9b3	-0.1863163
7	0xbd36fe66	-0.044676207
8	0xbd0c33d7	-0.034229126
9	0x3c6201cf	0.0137943765
10	0x3e64e9d1	0.22354819
11	0x3e124c26	0.14286861
12	0x3b3e025e	0.002899311
13	0xbcdf8ed4	-0.027289785
14	0x3cc63f9e	0.024200257
15	0x3e2740f8	0.16333377
16	0xbe5adc5a	-0.2137312
17	0x3e62ee1a	0.22161141
18	0x3dcb8212	0.09936918
19	0xbdf40d6d	-0.11916623
20	0x3cf873c0	0.030328631
21	0x3e59c9ec	0.21268433
22	0x3e1e8ab2	0.15482596
23	0xbdad9aed	-0.084768154
24	0x3d9b18b0	0.07573068
25	0xbdacd9b3	-0.0843996
26	0xbe424382	-0.18971065
27	0x3d1fe388	0.03903535
28	0x3daf1af5	0.085500635
29	0xbcae4885	-0.021274814
30	0x3dd22c38	0.1026234
31	0x3e1cd31d	0.15314908
32	0x3dbba48d	0.09162245
33	0xbe272a20	-0.16324663
34	0xbd5daac0	-0.054117918
35	0x3c1bde8f	0.009513511
36	0xbe367382	-0.178175
37	0xbe6e519f	-0.23273323
38	0xbe7fe84d	-0.2499096
39	0xbe43bcbc	-0.19114965
40	0xbdd67af1	-0.10472668
41	0xbe2c27d5	-0.1681207
42	0x3e5b323c	0.21405882
43	0x3e5a154c	0.21297187
44	0x3e086be2	0.13322404
45	0xbd79ea14	-0.06101425
46	0x3d553064	0.052048102
47	0xbe4204c0	-0.18947124
48	0xbd391ed1	-0.045195404
49	0x3e6b1b78	0.22959697
50	0x3dbe8cf4	0.093042284
51	0x3e2f221d	0.17102857
52	0xbe21b056	-0.15789923
53	0xbae6153e	-0.0017553938
54	0xbe201569	-0.15633167
55	0x3d9a3106	0.07528882
56	0x3e0cbdda	0.13744298
57	0x3e00e59c	0.12587589
58	0x3d594eda	0.053053714
59	0xbe1cd0df	-0.15314053
60	0xbe50e455	-0.20399602
61	0x3e2e912d	0.17047568
62	0xbdf9df71	-0.12200821
63	0xbdd8a587	-0.10578447
64	0xbe8cbf6a	-0.27489787
65	0xbe5ee488	-0.21766865
66	0x3e1a6bc3	0.1508017
67	0x3e4787fd	0.19485469
68	0xbd1a2c27	-0.037639763
69	0xbd6f9884	-0.05849506
70	0xbd2c96f4	-0.042136148
71	0xbce6857a	-0.028139818
72	0xbdeb1d5d	-0.1148021
73	0x3c901365	0.017587373
74	0xbe4cd6a5	-0.20003755
75	0x3e507c64	0.20359951
76	0x3e01c32f	0.12672113
77	0xbd15f372	-0.03660912
78	0xbe125fab	-0.14294307
79	0x3dee6e43	0.116421245
80	0x3e04d306	0.12971124
81	0xbd72e49f	-0.05930006
82	0x3cb6dad5	0.022321144
83	0xbd7babef	-0.061443266
84	0xbe825e10	-0.2546239
85	0x3e6ca8b7	0.23111235
86	0xbc6dcbbc	-0.014513906
87	0x3e068731	0.13137509
88	0x3c8a63b3	0.016893243
89	0x3c8f7d70	0.017515868
90	0x3e4cf589	0.20015539
91	0xbcc0b498	-0.023523614
92	0xbe169e9e	-0.14708945
93	0xbd9ece64	-0.0775421
94	0xbe3786e8	-0.17922556
95	0xbd824cc3	-0.063622974
96	0x3e515f42	0.20446494
97	0x3db155f7	0.086589746
98	0xbdfbe61e	-0.12299751
99	0xbd12b1f6	-0.035814248
100	0x3dd3ca43	0.10341313
101	0xbe38a83c	-0.18032926
102	0xbd075c21	-0.033046845
103	0x3d5522bd	0.052035082
104	0x3e48a9bc	0.19595999
105	0xbd23a69a	-0.039953806
106	0x3e076d19	0.13225211
107	0x3e37ab66	0.17936477
108	0x3e2f49e3	0.1711803
109	0x3e658ce6	0.2241703
110	0xbdf93fa3	-0.12170341
111	0x3e048ef3	0.12945156
112	0x3e62f1e8	0.22162592
113	0x3e337bee	0.17527744
114	0xbc957e51	-0.018248709
115	0x3c89f2e5	0.016839454
116	0x3d37809b	0.044800382
117	0xbe6a7ff9	-0.2290038
118	0x3e329046	0.17437848
119	0x3d310dac	0.04322593
120	0xbcba07b3	-0.02270875
121	0x3e17c73a	0.14822093
122	0xbe186b30	-0.14884639
123	0xbcaedc69	-0.021345334
124	0xbe6e9c47	-0.23301803
125	0x3aca2577	0.0015422542
126	0xbbf0d612	-0.007349738
127	0xbe49ae3e	-0.19695374
128	0xbe63f3fd	-0.22261043
129	0xbde5c999	-0.11220092
130	0xbe1ce0dc	-0.15320152
131	0x3a8df122	0.001082931
132	0xbe68dd0b	-0.22740571
133	0x3e1ab197	0.15106808
134	0xbd321429	-0.043476257
135	0xbe6167d8	-0.2201227
136	0x3de3e3f1	0.11127461
137	0x3ddd548f	0.10807144
138	0xbdfb963e	-0.12284516
139	0x3dbb356f	0.09141051
140	0x3ce613c2	0.028085593
141	0xbd01d93d	-0.031701315
142	0xbe1d6381	-0.15369989
143	0xbdaac7e5	-0.08338908
144	0x3e3e0d46	0.18559751
145	0x3daea2a7	0.08527117
146	0xbe67b65d	-0.2262816
147	0xbd713865	-0.058891673
148	0x3ddc53a9	0.107581444
149	0xbdb0a412	-0.08625044
150	0x3e611679	0.21981229
151	0xbcaa9a01	-0.020825388
152	0x3daec2b8	0.085332334
153	0xbdf2d28d	-0.118565656
154	0xbe435f7d	-0.19079395
155	0xbe8b67df	-0.27227685
156	0xbe3e3368	-0.18574297
157	0x3da9201a	0.08258076
158	0xbc1a4c65	-0.009417628
159	0xbe8e0a7d	-0.27742377
160	0x3e7ffdc3	0.24999146
161	0x3dedf284	0.11618522
162	0xbe18e026	-0.14929256
163	0xbe2d4e2f	-0.16924356
164	0xbe491f01	-0.19640733
165	0xbc6ad965	-0.014334057
166	0xbe483cab	-0.19554393
167	0xbe255877	-0.16147028
168	0x3dd616c1	0.10453559
169	0x3e4315bd	0.19051261
170	0x3d2cd232	0.042192645
171	0xbe124fbc	-0.14288229
172	0xbe18b2fb	-0.14912026
173	0x3dc40b18	0.095724285
174	0x3daec45b	0.085335456
175	0xbcdaaf78	-0.026694998
176	0xbc82eef7	-0.015983088
177	0xbdc5a38a	-0.09650333
178	0x3e1a7b03	0.15085988
179	0x3d32a7e7	0.043617155
180	0xbe831057	-0.25598404
181	0xbdf77d76	-0.12084477
182	0x3e28d101	0.16485979
183	0xbe1f352b	-0.15547626
184	0x3e0dcc44	0.13847452
185	0x3b018062	0.001976036
186	0x3d301752	0.04299099
187	0x3ddfa01a	0.10919209
188	0x3e35c05a	0.17749158
189	0x3e0bec48	0.13664353
190	0x3e151dbe	0.14562127
191	0x3d5cfa2c	0.05394952
192	0x3da83d1e	0.08214782
193	0xbd13949d	-0.0360304
194	0xbe803ca9	-0.2504628
195	0x3e2fb556	0.17159018
196	0xbe31a25e	-0.17347094
197	0x3e0541c8	0.13013375
198	0x3e7f1037	0.24908529
199	0xbdbb5031	-0.09146155
200	0x3deae497	0.11469381
201	0xbe21271e	-0.15737578
202	0x3df0f33d	0.11765144
203	0xbdfb582c	-0.12272677
204	0xbe13c64c	-0.14431113
205	0xbe497565	-0.19673689
206	0x3e71c2c7	0.23609458
207	0x3e425be2	0.18980363
208	0x3e890b56	0.2676646
209	0xbe6a8868	-0.22903597
210	0x3e644c7e	0.22294804
211	0x3d91d933	0.071215056
212	0xbe80aea7	-0.2513325
213	0x3e78f9eb	0.24314086
214	0x3e121ed9	0.1426958
215	0x3e5142bd	0.20435615
216	0x3e242234	0.16028672
217	0xbe71d076	-0.23614678
218	0x3e5ecbe7	0.2175747
219	0xbe31d42d	-0.17366095
220	0xbe1f3744	-0.15548426
221	0x3e5cf29c	0.21576923
222	0xbe1452e6	-0.14484748
223	0x3dac6de2	0.08419396
224	0xbe16411a	-0.14673272
225	0xbe72dc11	-0.23716761
226	0x3e47e519	0.19520988
227	0xbe664381	-0.22486688
228	0x3ccce0f5	0.025009612
229	0x3e01da0a	0.12680832
230	0x3e3d047a	0.18458739
231	0x3d1fe286	0.03903439
232	0xbe8561f9	-0.2605131
233	0x3d9950f2	0.07486142
234	0xbe5fa639	-0.21840753
235	0xbe6d7fe5	-0.23193319
236	0x3acc0602	0.0015565755
237	0x3d44e151	0.04806644
238	0xbca0d5f7	-0.019633276
239	0x3e4c514d	0.19952889
240	0xbdbed031	-0.09317053
241	0xbe57b52b	-0.21065204
242	0x3cfa9524	0.030588694
243	0xbe766460	-0.24061728
244	0x3e3d0adc	0.18461174
245	0xbe4a313f	-0.19745348
246	0x3d1cb1d3	0.038255524
247	0xbe6755f2	-0.2259138
248	0xbd310fe1	-0.043228034
249	0xbe2c85ee	-0.16847965
250	0xbc13035f	-0.008972972
251	0xbd8a87fd	-0.06764219
252	0x3e6b42cf	0.22974704
253	0xbe0f9605	-0.14022072
254	0xbe5cbc15	-0.21556123
255	0xbcf0c41b	-0.029390385

dptb.node_prediction_h.layers.0.layer.out_layer.bias f4 [16]
0	0xbdd24877	-0.10267728
1	0xbe5b52bb	-0.21418278
2	0x3d32420d	0.043520022
3	0x3e4e1e9e	0.20128867
4	0x3e6c0293	0.23047857
5	0xbde24bf2	-0.11049642
6	0x3e56106b	0.209047
7	0xbe03525a	-0.12824383
8	0x3c899f06	0.016799461
9	0xbdc288bb	-0.094987355
10	0xbdfd9d87	-0.123835616
11	0xbe28d52a	-0.16487566
12	0xbd785b74	-0.06063409
13	0x3e319bee	0.17344639
14	0xbdf60bdc	-0.12013981
15	0xbc3965b0	-0.011315748

dptb.node_prediction_h.out_layer.linear.weight f4 [3, 16]
0	0xbd5204f1	-0.051274244
1	0xbe4fdaff	-0.20298384
2	0xbd30a1f8	-0.043123215
3	0x3e0be42c	0.1366126
4	0xbdd514b2	-0.10404338
5	0xbdd79ee3	-0.10528352
6	0xbde98f5b	-0.11404296
7	0xbe4a2999	-0.19742431
8	0xbe1e2701	-0.15444566
9	0xbe3480db	-0.1762728
10	0x3e1cd506	0.15315637
11	0xbe2adc28	-0.16685545
12	0x3d98a0bc	0.07452533
13	0xbd174017	-0.036926355
14	0xbde4a77f	-0.1116476
15	0xbc552799	-0.013009929
16	0x3e144141	0.14478017
17	0xbd0f149b	-0.03493176
18	0xbe0fdf4b	-0.14050023
19	0x3e1513ee	0.14558384
20	0xbe1200cb	-0.14258115
21	0xbe007fa4	-0.12548691
22	0x3e69b8ad	0.22824354
23	0xbe5975f0	-0.21236396
24	0xbe647081	-0.22308542
25	0xbdf7773e	-0.120832905
26	0x3d656dc0	0.05601287
27	0xbe2e24ee	-0.17006275
28	0x3e7de18c	0.2479307
29	0xbe251a80	-0.1612339
30	0xbe77f729	-0.24215378
31	0xbe08f76d	-0.13375635
32	0xbb823740	-0.0039738715
33	0x3e0c4852	0.13699463
34	0x3db9eef8	0.09078783
35	0x3e39ae4c	0.18132895
36	0x3dbf567c	0.093426675
37	0xbe3ea70e	-0.18618414
38	0x3d73d500	0.059529305
39	0xbe75241c	-0.23939556
40	0x3dd1dd9c	0.10247347
41	0x3cccd1c0	0.02500236
42	0xbdb5b5a8	-0.08872539
43	0x3d8d9f78	0.06915182
44	0x3dcecb78	0.10097402
45	0xbe0059ee	-0.12534305
46	0x3e72bd86	0.2370511
47	0xbdbc2124	-0.091860086

dptb.node_prediction_h.out_layer.linear.bias f4 [3]
0	0xbdcb3eb1	-0.09924067
1	0xbe6cca86	-0.23124132
2	0xbe7875b2	-0.24263647

dptb.edge_prediction_h.layers.0.layer.in_layer.weight f4 [16, 901]
0	0xbc66bd61	-0.014083237
1	0xbbd51d49	-0.006503735
2	0xbcbaf574	-0.02282212
3	0x3b9fe36b	0.0048794053
4	0xba9ad0d8	-0.0011811508
5	0xbced4c01	-0.028966906
6	0x3cb96a05	0.022633562
7	0x3d158e4f	0.03651267
8	0x3c9038e3	0.01760525
9	0xbc05266c	-0.008126836
10	0xbcba70cd	-0.022758866
11	0xbbc732a3	-0.0060790344
12	0x3b55930b	0.0032588865
13	0x3caea2b6	0.021317821
14	0x3ad7265d	0.0016414631
15	0xbc8f2738	-0.017474756
16	0x3b9507e2	0.004548059
17	0x3c2dbdcc	0.010604333
18	0xbc69ac7d	-0.014262316
19	0x3bf2ef40	0.0074137747
20	0xbcd634bd	-0.026148194
21	0xbc24b858	-0.010053717
22	0x3a03d1dd	0.00050285255
23	0xbc449a42	-0.011999669
24	0xbcd6238f	-0.026140003
25	0xbcddc93c	-0.027073495
26	0xbc1f02db	-0.009705271
27	0x3c070f89	0.00824345
28	0xbb1c68e3	-0.0023866228
29	0xbcdf7462	-0.027277175
30	0x3cf8e41e	0.030382212
31	0xbce8c81c	-0.028415732
32	0x3ccb1655	0.024790922
33	0x3cb7a997	0.022419734
34	0xbb65bf95	-0.0035056819
35	0x3d22b706	0.039725326
36	0x3c3d1d0e	0.011542572
37	0xbd0288a9	-0.03186861
38	0xbcf6c4e5	-0.030123184
39	0xbc59f117	-0.013302109
40	0xbcb3108d	-0.021858478
41	0x3ca5dc1b	0.020246556
42	0xbcb48b4e	-0.022039082
43	0xbbe033e2	-0.0068421224
44	0xbd0776b5	-0.033072192
45	0xbc80cf7c	-0.015723936
46	0xbcd3e7ed	-0.025867427
47	0x3c2c613b	0.010521228
48	0xbc811362	-0.015756313
49	0x3d06f7ed	0.032951284
50	0x3c6e2f55	0.014537652
51	0xbcad125c	-0.021126918
52	0x3c35389b	0.011060859
53	0x3d0eacda	0.034832813
54	0x3c508d27	0.012728966
55	0xbce63db7	-0.0281056
56	0xbcfea036	-0.031082254
57	0xbd0b85f9	-0.034063313
58	0xbc9f9410	-0.019479781
59	0xbc8140b5	-0.015777925
60	0xbd25738b	-0.040393393
61	0x3cefc13c	0.029266946
62	0x3ccab134	0.0247427
63	0x3c85f7b2	0.016353462
64	0xbce25443	-0.02762807
65	0x3ac050b5	0.001467249
66	0x3ca82296	0.020524304
67	0xbc1fc748	-0.009752102
68	0x3b9cf42d	0.00478985
69	0xbc60cf1c	-0.013721254
70	0xbc8b2576	-0.016985636
71	0xbc1476d1	-0.009061531
72	0xbba043d1	-0.004890897
73	0xbcbe18f8	-0.023205265
74	0xbce475bb	-0.02788817
75	0x3be67b24	0.0070337225
76	0x3b2e42a7	0.002659002
77	0xbcd4c5b0	-0.025973171
78	0xbc97b141	-0.018517138
79	0x3d164165	0.03668346
80	0xbd06d9fc	-0.03292273
81	0x3ca3501d	0.019935662
82	0x3cc6c3ba	0.024263252
83	0x3c8cacae	0.017172184
84	0x3cd4c5ea	0.025973279
85	0xbc9bc54e	-0.01901498
86	0x3c14d70f	0.009084477
87	0x3d0be63f	0.034155127
88	0xbd039622	-0.0321256
89	0x3c31884f	0.010835721
90	0xbc9c91fb	-0.019112578
91	0xbca477e1	-0.020076694
92	0x3c0daa68	0.008646585
93	0xbca99050	-0.020698696
94	0x3c8967c4	0.016773112
95	0x3cc3241b	0.023820927
96	0xbc9df9ba	-0.019284118
97	0x3c504b48	0.012713261
98	0xbccdaeee	-0.025107827
99	0x3ce96ac3	0.02849329
100	0xbce67f7f	-0.028136967
101	0xbcaa75c0	-0.0208081
102	0x3c8538bb	0.016262403
103	0xb8b71c7c	-8.7314256e-05
104	0xbbc73fce	-0.006080604
105	0x3c3d6814	0.011560459
106	0xbcf226fa	-0.029559601
107	0xbcbebd90	-0.02328375
108	0xbc33d20e	-0.010975374
109	0x3cd5ef1e	0.026114997
110	0xbcbfcbf5	-0.023412684
111	0xbaf74671	-0.0018865598
112	0xbbac7511	-0.005262979
113	0xbc31ac4f	-0.010844304
114	0xbca0dc13	-0.01963619
115	0xbc9b204f	-0.018936304
116	0x3d0ac5da	0.033880092
117	0x3cbc2b86	0.022969972
118	0x3c62c04e	0.013839794
119	0x3c3e4a7a	0.011614436
120	0xbc3972f6	-0.011318913
121	0xbb63091d	-0.0034642883
122	0xbc8c9176	-0.017159205
123	0x3cfc498c	0.030796789
124	0xbc5b2d1b	-0.013377453
125	0x3cfcb6d2	0.030848894
126	0x3cb9498d	0.02261808
127	0xbc87f719	-0.016597318
128	0xbca3d061	-0.019996824
129	0xbcb5ce2a	-0.022193033
130	0x3ccdc92c	0.02512034
131	0xbcf0941f	-0.029367505
132	0xbb01d339	-0.0019809736
133	0xbc54070d	-0.012941134
134	0xbc0ced42	-0.008601489
135	0xbabf3bb3	-0.0014589935
136	0x3ca7346d	0.02041074
137	0x3c091c17	0.008368514
138	0xbcdb482f	-0.026767818
139	0x3cc77b32	0.024350736
140	0xbc8a995a	-0.016918827
141	0x3ce2539b	0.027627757
142	0xbc391d78	-0.01129853
143	0x3c8a62f2	0.016892884
144	0x3a7a1df1	0.0009541205
145	0xbc1c43c1	-0.009537638
146	0x3c353422	0.011059793
147	0x3bb47b4b	0.0055078617
148	0xbc83c74f	-0.016086249
149	0xbc4f6deb	-0.012660484
150	0xbb935abe	-0.0044969013
151	0x3cf93b76	0.030423861
152	0xbca6161f	-0.02027422
153	0xbb0ad8f8	-0.0021186452
154	0xbc8a7601	-0.016901972
155	0x3bc2561a	0.0059306743
156	0x3d14fb63	0.036372554
157	0x3c3c054c	0.011475872
158	0x3cb116cf	0.021617321
159	0xbce76d10	-0.028250247
160	0xba3547a7	-0.0006915279
161	0x3d0c0bde	0.034191005
162	0x3cb8cd4a	0.022558827
163	0x3cabf29a	0.020989705
164	0x3c3443c4	0.011002485
165	0x3ca60e08	0.020270362
166	0x3d2a754d	0.041615773
167	0xbc6cd87d	-0.014455912
168	0x3c9252e4	0.017861791
169	0x3cec5b18	0.02885203
170	0x3b896d55	0.0041939416
171	0xb9b39f6e	-0.00034260325
172	0xbcaeec96	-0.021353047
173	0x3b155088	0.0022783596
174	0xba18f163	-0.0005834309
175	0x3c596af2	0.013270127
176	0xbc85e2e9	-0.01634355
177	0x3c87fdba	0.016600478
178	0xbcc0e5e6	-0.023547124
179	0x3d0e254e	0.034703545
180	0x3c548c24	0.012972865
181	0x3c957851	0.018245848
182	0xbcb52e24	-0.022116728
183	0x3cf75520	0.030191958
184	0xbc8d9c47	-0.017286433
185	0x3d0afc0a	0.03393177
186	0xbc5c88e4	-0.013460372
187	0x3cc6d4e6	0.02427144
188	0xbca707c4	-0.020389445
189	0x3cc4311b	0.023949197
190	0xbcd0b317	-0.025476022
191	0x3d1181c9	0.035524163
192	0x3c2b9bed	0.010474187
193	0xbcbd80a1	-0.023132624
194	0xbb9e0816	-0.0048227413
195	0xbc386aaa	-0.011255899
196	0xbce2a7f5	-0.027667979
197	0x3cfbf5f5	0.03075693
198	0x3ba5855a	0.005051297
199	0xba71fdf8	-0.00092312647
200	0xbc9ffb54	-0.019529022
201	0xbb974442	-0.0046162913
202	0x3d065ab3	0.03280134
203	0x3cb4908b	0.02204158
204	0x3c2a7a51	0.010405139
205	0xbbe1309c	-0.00687225
206	0x3b6365b8	0.003469808
207	0x3c87dd4d	0.016585017
208	0xbc1a0216	-0.009399911
209	0x3cd93114	0.02651266
210	0xbc55a8cc	-0.013040733
211	0x3c38c77d	0.01127803
212	0x3ca68030	0.020324796
213	0xbbceb1f1	-0.0063078334
214	0x3cdc07a5	0.026859114
215	0x3c6299a6	0.013830578
216	0x3cd1392e	0.02553996
217	0xbc24c55e	-0.010056822
218	0x3a1b7ca6	0.0005931355
219	0xbccd31f3	-0.025048232
220	0x3c06dd3b	0.008231456
221	0xbcb65f6a	-0.022262294
222	0xbcd16f3f	-0.025565742
223	0xbbf74054	-0.0075455103
224	0xb902e9a4	-0.00012484804
225	0x3cc34d6a	0.023840625
226	0xbca84fcd	-0.020545864
227	0xbce2dc60	-0.027692974
228	0x3ca355b3	0.019938326
229	0x3b5047a9	0.0031780994
230	0xbce78afe	-0.028264519
231	0x3cabb237	0.020959003
232	0xbd144d80	-0.036206722
233	0x3cd59997	0.026074214
234	0xbc2ca5bc	-0.010537561
235	0xbcb25691	-0.021769794
236	0xbca4ed38	-0.020132646
237	0x3b095c34	0.0020959498
238	0x3c62dd3c	0.013846692
239	0xbd1c878a	-0.038215198
240	0xba8989c9	-0.0010493334
241	0x3c4e00df	0.01257345
242	0xbcebd0ef	-0.02878615
243	0x3c823f89	0.015899437
244	0x3c0ec0c4	0.008712951
245	0xbcba5449	-0.022745268
246	0x3cd0f66a	0.025508124
247	0x3ce7b51c	0.028284602
248	0x3ce2666e	0.027636733
249	0x3bc23cb5	0.005927647
250	0x3c36d63b	0.011159475
251	0xbc9e9a15	-0.019360581
252	0xba8cabe4	-0.001073238
253	0x3c62e697	0.013848922
254	0x3cc4c537	0.02401982
255	0x3c9166da	0.017749239

dptb.edge_prediction_h.layers.0.layer.in_layer.bias f4 [16]
0	0xb838991e	-4.401162e-05
1	0xbbe78c93	-0.0070663183
2	0x3bbf21c6	0.0058328835
3	0xbd2d4aca	-0.042307653
4	0xbd028060	-0.03186071
5	0xbba9440a	-0.0051655816
6	0x39f22138	0.00046182587
7	0xbb1611b2	-0.002289873
8	0x3b7d4a53	0.0038649037
9	0xbbca3830	-0.006171249
10	0xbd1aac65	-0.037762064
11	0x3cfd5a87	0.030926956
12	0xbc944894	-0.018101014
13	0xbca30401	-0.01989937
14	0xbd025e51	-0.03182823
15	0x3c52f6a8	0.01287619

dptb.edge_prediction_h.layers.0.layer.out_layer.weight f4 [16, 16]
0	0x3e1adff8	0.151245
1	0x3dd37486	0.103249595
2	0x3a11aaba	0.0005556751
3	0xbe45d96c	-0.19321221
4	0xbe316303	-0.17322926
5	0xbe69f0c3	-0.2284575
6	0x3c765c41	0.0150366435
7	0x3e496308	0.19666684
8	0xbe03ce04	-0.12871557
9	0xbd057e22	-0.032590993
10	0x3e7fae78	0.24968898
11	0xbda41ffb	-0.08013912
12	0xbdb41fcc	-0.08795127
13	0x3d686211	0.05673415
14	0xbdfd1020	-0.12356591
15	0xbdf8bfa2	-0.12145926
16	0xbd68b4d5	-0.05681308
17	0x3cc3c3e0	0.023897111
18	0xbe2ef421	-0.17085315
19	0xbe71ed95	-0.23625787
20	0x3c9abb7e	0.018888231
21	0xbe18cb53	-0.14921312
22	0x3e61bcb0	0.22044635
23	0xbbe26609	-0.006909136
24	0xbe1ec4c4	-0.15504748
25	0xbdc3c4e8	-0.09559041
26	0x3d13075a	0.035895683
27	0xbd408cd2	-0.047009297
28	0xbe06f14f	-0.1317799
29	0xbdefebc3	-0.1171489
30	0xbe299f49	-0.16564669
31	0xbe58cc75	-0.21171744
32	0x3b4f6819	0.003164774
33	0x3d41d3cf	0.047321137
34	0x3e6b86b8	0.2300061
35	0xbaf2f327	-0.00185356
36	0xbe374066	-0.1789566
37	0xbd10631d	-0.03525077
38	0x3d8e5507	0.069498114
39	0x3e737dce	0.2377846
40	0x3d90d341	0.070715435
41	0xbbecc36d	-0.007225445
42	0x3e61752f	0.22017358
43	0x3dea453c	0.11438987
44	0x3e4c7366	0.19965896
45	0xbd8979e1	-0.067127
46	0x3d52a946	0.051430963
47	0xbe22c0e0	-0.15893888
48	0x3cc594d7	0.024118824
49	0x3e143e37	0.14476858
50	0xbe0f3494	-0.139849
51	0xbde61b2b	-0.11235651
52	0xbe7d1300	-0.24714279
53	0x3d74deb1	0.059782688
54	0xbdf5f7c6	-0.1201015
55	0xbde7d88e	-0.113206014
56	0xbdf2235c	-0.118231505
57	0x3b9f7c84	0.0048671383
58	0xba223914	-0.0006188315
59	0xbe0af1bc	-0.13568777
60	0xbdd6b96e	-0.10484587
61	0x3c9bfd78	0.019041762
62	0xbe7996c7	-0.24373923
63	0xbcf9ccce	-0.030493166
64	0x3de25af3	0.110525034
65	0xbdc61e29	-0.09673721
66	0xbd21edfa	-0.039533593
67	0x3e7f905e	0.24957415
68	0x3e56e791	0.20986773
69	0xbe0a510e	-0.13507482
70	0x3dadcc0c	0.084861845
71	0x3c6f7af2	0.014616715
72	0xbcb993fd	-0.022653574
73	0xbe258d03	-0.16167073
74	0x3c9d46a2	0.01919872
75	0x3c60485d	0.013689128
76	0xbda9246f	-0.08258902
77	0x3e80af5f	0.25133798
78	0x3de070ca	0.10959013
79	0xbe657270	-0.22406936
80	0xbcd56246	-0.026047837
81	0x3cd85dda	0.02641194
82	0xbd47914f	-0.04872256
83	0x3bbabfc2	0.005699129
84	0x3dc5a926	0.09651403
85	0xbd91156b	-0.07084163
86	0xbe724734	-0.23659974
87	0xbcc42a42	-0.023945931
88	0x3dc3e73d	0.095655896
89	0x3e435da1	0.19078685
90	0xbe228672	-0.158716
91	0x3cc3cf9b	0.023902705
92	0xbdf34180	-0.118777275
93	0xbb9843ea	-0.004646768
94	0x3e6cd28f	0.23127197
95	0xbc9512a7	-0.01819737
96	0x3d79674a	0.06088952
97	0xbe4eea74	-0.20206624
98	0xba86786d	-0.0010259278
99	0xbe78f523	-0.24312262
100	0xbd9ccfab	-0.07656797
101	0x3d836716	0.064161465
102	0x3de65074	0.11245814
103	0x3dd8bf94	0.10583416
104	0x3df55f64	0.11981085
105	0x3e5de6dd	0.21670099
106	0xbdc57c81	-0.09642888
107	0xbc1594ed	-0.009129745
108	0x3df659ce	0.12028848
109	0xbe41714c	-0.18890876
110	0x3e590882	0.21194652
111	0x3e131a47	0.14365493
112	0x3e329646	0.17440137
113	0x3d59857f	0.053105827
114	0x3e431c86	0.1905385
115	0x3cbd9b97	0.02314548
116	0xbe719dc5	-0.2359534
117	0xbdfd33a3	-0.123633645
118	0xbe8049b5	-0.25056234
119	0x3e4bfa26	0.19919643
120	0x3e3b3b8f	0.18284439
121	0xbd793086	-0.06083729
122	0xbe50fb23	-0.20408301
123	0x3e4dfd0c	0.20116061
124	0x3bee9446	0.007280859
125	0xb9f4187a	-0.00046557543
126	0xbe0233a0	-0.12715006
127	0x3e1b5004	0.15167242
128	0xbe396d47	-0.18108092
129	0xbdcf34e3	-0.10117509
130	0x3d975807	0.07389837
131	0x3e72837c	0.2368297
132	0xbe683298	-0.2267555
133	0x3df20143	0.11816647
134	0x3d11e68e	0.035620265
135	0x3e2335c7	0.15938483
136	0x3e4ac0eb	0.19800155
137	0xbe24ade6	-0.16081962
138	0xbe7135e1	-0.2355571
139	0xbdf68f8e	-0.120391
140	0xbd467f98	-0.048461527
141	0xbe3ec4eb	-0.18629806
142	0x3e4edb59	0.20200862
143	0xbe056f7c	-0.13030809
144	0x3e789860	0.24276876
145	0x3e74dada	0.2391161
146	0xbda5de47	-0.08099037
147	0xbd59c615	-0.05316742
148	0xbd64a3f4	-0.05582042
149	0x3d897825	0.06712369
150	0x3d4bcadc	0.04975401
151	0x3d4e5e78	0.05038306
152	0xbe879b87	-0.26485845
153	0x3dae5048	0.08511406
154	0x3e0e72a4	0.1391092
155	0x3e211bd9	0.1573328
156	0xbe2aaa16	-0.16666445
157	0xbcf714b7	-0.030161245
158	0xbe0a69d9	-0.1351694
159	0x3d913022	0.07089259
160	0xbe51a6e5	-0.20473821
161	0x3dde669f	0.10859417
162	0xbe1b8f04	-0.15191275
163	0xbcd74430	-0.026277632
164	0x3c68b5bf	0.014203488
165	0x3e695d0f	0.22789405
166	0x3dd22392	0.10260691
167	0xbdf28ceb	-0.11843284
168	0xbde69cf5	-0.11260406
169	0xbd944f78	-0.0724172
170	0x3e34fef4	0.17675382
171	0xbe5165b0	-0.20448947
172	0xbdd6f6bf	-0.10496282
173	0x3ce25caf	0.027632086
174	0x3db4792c	0.08812174
175	0x3dc25469	0.09488756
176	0x3e171352	0.14753464
177	0xbde2e9ed	-0.11079774
178	0xbe07ded0	-0.1326859
179	0xbcdcb69a	-0.02694254
180	0xbe44fb52	-0.19236496
181	0x3e02001d	0.12695356
182	0x3cb0c761	0.021579446
183	0x3c8d8973	0.017277455
184	0xbe2d77f3	-0.16940288
185	0xbc0805dc	-0.008302178
186	0xbe5f3050	-0.21795774
187	0x3e0fc601	0.14040376
188	0xbe3c10d0	-0.18365788
189	0x3c84ec51	0.016225966
190	0x3d13b574	0.03606172
191	0x3e06f588	0.131796
192	0xbe51c767	-0.20486222
193	0xbe192ed6	-0.14959273
194	0xbc7ccd0f	-0.015429749
195	0x3d35f994	0.04442747
196	0x3dc42fc5	0.09579424
197	0x3dab2bab	0.083579384
198	0x3e1b4ed8	0.15166795
199	0xbe69a041	-0.22815038
200	0x3dd6f8e8	0.10496694
201	0xbde31a82	-0.1108904
202	0xbe06f543	-0.13179497
203	0x3e40896a	0.1880242
204	0x3d5993d2	0.053119488
205	0xbe2816d9	-0.16414966
206	0xbdd85164	-0.10562399
207	0xbd4fd976	-0.050744496
208	0x3e6245b8	0.22096908
209	0x3d3b5583	0.045735847
210	0x3e277496	0.16353068
211	0x3e442c55	0.19157536
212	0x3e71345c	0.2355513
213	0x3e0c2f16	0.13689837
214	0xbe21bc2a	-0.15794435
215	0xbdafb963	-0.085802816
216	0xbdc8c6f5	-0.09803573
217	0x3d5ba3a4	0.053622857
218	0x3cf1b502	0.029505257
219	0x3e6b6bf3	0.22990398
220	0x3bfe6085	0.007762971
221	0xbdc3d669	-0.0956238
222	0xbdec49f9	-0.11537547
223	0xbdcb480d	-0.09925852
224	0xbe30f8dc	-0.17282432
225	0x3e07e61b	0.13271372
226	0xbe209ca7	-0.15684758
227	0x3e7312cd	0.2373764
228	0x3de32755	0.11091486
229	0xbcc25baa	-0.02372535
230	0xbe064dba	-0.13115588
231	0x3e0ee34b	0.13953893
232	0x3e033d61	0.12816383
233	0xbe11e5ec	-0.14247864
234	0xbe4fdab0	-0.20298266
235	0xbe40764c	-0.18795127
236	0x3ddd0db7	0.107936315
237	0x3deb46f9	0.11488146
238	0x3d5b52ac	0.05354564
239	0x3dff3f20	0.12463212
240	0x3e6935a4	0.22774369
241	0xbdf88f21	-0.12136675
242	0x3de2e0e7	0.11078053
243	0x3da6016c	0.0810574
244	0x3ddf0c35	0.10891
245	0xbe511c28	-0.20420897
246	0xbe50be22	-0.2038503
247	0xbda8a95c	-0.08235428
248	0x3db89a6b	0.09013828
249	0x3d3f23bc	0.04666494
250	0x3e4ddd3c	0.20103925
251	0x3e161215	0.14655335
252	0x3d80b1f7	0.06283944
253	0x3d9a4a32	0.07533683
254	0xbe4ba560	-0.19887304
255	0x3e841e9f	0.25804612

dptb.edge_prediction_h.layers.0.layer.out_layer.bias f4 [16]
0	0xbdd58823	-0.10426357
1	0xbe3bfb1b	-0.18357508
2	0x3e22ee88	0.15911305
3	0xbe497a7d	-0.19675632
4	0x3e3faf04	0.18719107
5	0x3e09daa6	0.13462314
6	0xbdd64a08	-0.10463339
7	0xbe3460ab	-0.17615001
8	0x3dd96bf3	0.10616293
9	0xbdb94358	-0.09046048
10	0x3db55468	0.0885399
11	0x3e284c28	0.16435301
12	0xbe16cb25	-0.14725931
13	0x3d69412f	0.05694693
14	0xbc263003	-0.010143283
15	0x3de74ab9	0.11293549

dptb.edge_prediction_h.out_layer.linear.weight f4 [10, 16]
0	0x3e4cd3bd	0.20002647
1	0xbe6aae42	-0.22918037
2	0xbe69d8c7	-0.228366
3	0x3db3b180	0.0877409
4	0xbe0eb178	-0.13934886
5	0x3ddb13f2	0.10697164
6	0x3dafe9ee	0.085895404
7	0x3e222eec	0.15838212
8	0x3e14691f	0.14493226
9	0x3db847e3	0.08998086
10	0xbe21e8d5	-0.15811475
11	0x3e013204	0.12616736
12	0x3e49a00e	0.19689962
13	0xbe15cc48	-0.14628708
14	0xbe32eed3	-0.17473917
15	0xbd70a4e6	-0.05875101
16	0x3de21461	0.11039043
17	0xbdb88b78	-0.090109766
18	0xbde09221	-0.10965372
19	0xbe3fd476	-0.18733391
20	0x3e18eaf0	0.14933372
21	0xbd01d687	-0.03169873
22	0x3c901a8b	0.017590782
23	0x3e264428	0.16236937
24	0x3db6876a	0.08912547
25	0x3d9a86bd	0.075452305
26	0xbcb929dd	-0.02260297
27	0x3cf3dbcb	0.029767891
28	0xbcfd1bf4	-0.030897118
29	0xbd034117	-0.032044496
30	0xbd2f05f4	-0.042730287
31	0xbe118795	-0.14211877
32	0x3d9717c4	0.0737758
33	0x3e629d13	0.22130232
34	0x3e254509	0.16139616
35	0x3dde9427	0.108681016
36	0x3ddbf7e3	0.1074064
37	0xbc2bbdbf	-0.010482251
38	0x3e26a3ff	0.16273497
39	0xbd95b70c	-0.07310304
40	0xbe59102d	-0.21197577
41	0x3d3c6872	0.045998044
42	0x3e5af144	0.21381098
43	0x3e341727	0.17586957
44	0xbd5e4107	-0.054261234
45	0x3d04f8bf	0.032463785
46	0x3cd34aa6	0.025792431
47	0xbe293762	-0.16525033
48	0x3e4ec9ce	0.2019417
49	0x3e6be363	0.2303596
50	0xbde270a1	-0.110566385
51	0xbd17f971	-0.03710312
52	0xbe069229	-0.13141693
53	0x3e4f47fa	0.202423
54	0x3e6ee76f	0.23330472
55	0x3d7d0581	0.061772827
56	0xbe4b8513	-0.19874983
57	0x3d9825c3	0.074290775
58	0xbde51821	-0.11186243
59	0xbe83a39e	-0.25710768
60	0xbe0c3c36	-0.13694844
61	0x3d1b43c2	0.037906416
62	0xbe0ad49f	-0.13557671
63	0x3d85d9a2	0.06535651
64	0x3e28cd3a	0.16484538
65	0x3e6b8a3a	0.23001948
66	0xbe84dd2d	-0.25949994
67	0x3c88ecd5	0.016714493
68	0x3da44300	0.08020592
69	0x3e62edff	0.22161101
70	0xbd2c9247	-0.04213169
71	0x3cf78f62	0.030219737
72	0x3d9d73db	0.07688113
73	0xbccdc80e	-0.025119808
74	0xbe4c4640	-0.19948673
75	0xbe199f17	-0.15002094
76	0xbdcbe98a	-0.099566534
77	0xbd12504b	-0.035721105
78	0xbe7d38f2	-0.24728754
79	0x3e36561b	0.17806284
80	0xbe56a4b0	-0.20961261
81	0x3e677d1b	0.22606318
82	0xbe6acab0	-0.22928882
83	0x3d3ad86f	0.045616563
84	0x3e47fe6b	0.19530647
85	0xbe203f85	-0.15649231
86	0x3e444d8b	0.19170205
87	0xbd3d7c55	-0.04626115
88	0xbc84fb90	-0.016233236
89	0x3e014fb7	0.12628065
90	0x3dd9ac24	0.10628536
91	0xbe017ec8	-0.1264602
92	0x3dcaeea8	0.09908801
93	0xbe17245f	-0.14759968
94	0xbd5b0031	-0.05346698
95	0x3d93e3d3	0.072211884
96	0xbd514aa2	-0.051096566
97	0xbe3eb161	-0.18622352
98	0xbe1354c1	-0.143878
99	0x3d8278f1	0.06370724
100	0xbe023ed7	-0.12719284
101	0x3dca3f6d	0.09875379
102	0xbde6c066	-0.11267166
103	0x3e8a0b50	0.26961756
104	0xbe3de2b2	-0.18543509
105	0xbcab64ac	-0.020922028
106	0xbe674d79	-0.22588147
107	0xbc97f7fe	-0.01855087
108	0x39b36397	0.0003421574
109	0xbe4dd31d	-0.20100065
110	0xbe75c74c	-0.24001807
111	0xbe1b491e	-0.1516461
112	0x3e0cd0ab	0.13751476
113	0xbe5efeaf	-0.21776842
114	0x3e05cae2	0.13065675
115	0xbe5a61eb	-0.21326415
116	0xbe18ce43	-0.14922433
117	0xbc82a468	-0.015947536
118	0x3e0c6cf7	0.13713442
119	0x3da471ea	0.0802954
120	0xbe3bb24d	-0.18329735
121	0xbe5748d6	-0.21023878
122	0x3ddb58c8	0.10710293
123	0x3e5da404	0.21644598
124	0xbdfdfddd	-0.12401936
125	0xbd8192bc	-0.063268155
126	0xbdfc379a	-0.12315293
127	0x3e701b99	0.23448028
128	0xbde5a757	-0.11213558
129	0x3e54690a	0.20743194
130	0x3e8bd678	0.27312064
131	0x3e0c5048	0.137025
132	0xbe64c7cc	-0.22341841
133	0xbe532f9a	-0.20623627
134	0xbd1f84dc	-0.038945064
135	0xbd0023cb	-0.031284135
136	0x3ccb4d10	0.02481702
137	0xbd989519	-0.07450313
138	0xbe40607b	-0.18786804
139	0xbe2bd2cd	-0.16779633
140	0x3e4a494d	0.19754525
141	0xbe610ca1	-0.21977474
142	0xbe0668d4	-0.13125926
143	0xbd9f8362	-0.07788731
144	0xbd8e1004	-0.069366485
145	0x3e032ee2	0.12810853
146	0xbdcc4dc9	-0.09975774
147	0x3e0a7f46	0.13525113
148	0x3e4786aa	0.19484964
149	0xbdb8a35e	-0.09015535
150	0x3e4de661	0.20107414
151	0x3deb8e80	0.11501789
152	0xbe559dfb	-0.20861046
153	0x3db86b28	0.090048134
154	0xbe517776	-0.20455727
155	0x3e3600c0	0.17773724
156	0x3cb0c928	0.021580294
157	0x3e359911	0.17734171
158	0x3d801db1	0.06255663
159	0x3d821c3f	0.06353044

dptb.edge_prediction_h.out_layer.linear.bias f4 [10]
0	0xbd6a73b5	-0.057239253
1	0x3cba30d3	0.02272836
2	0xbe843bae	-0.25826782
3	0x3e0c064b	0.13674276
4	0x3d99a01d	0.07501242
5	0x3d4a5a36	0.049402438
6	0x3c86e7c5	0.016467938
7	0xbe712779	-0.23550214
8	0x3e0636c7	0.13106833
9	0x3d3ef8e5	0.046624083

nnsk.hopping_param f4 [1, 10, 2]
0	0x3ffc0928	1.9690294
1	0x40a67a31	5.202416
2	0xc00c9c46	-2.1970382
3	0xc086272d	-4.192282
4	0xbf95632a	-1.1670887
5	0x3ff522ef	1.9151286
6	0xc04f3aa0	-3.2379532
7	0xc101eec5	-8.120793
8	0x403432f5	2.8156102
9	0xc0d9ff26	-6.812396
10	0xbff988e8	-1.9494905
11	0xc024d841	-2.575699
12	0x405cd6f9	3.450621
13	0xc0bcf98c	-5.9054623
14	0x3f8d21b8	1.1025915
15	0xbe38e256	-0.1805509
16	0xc025cbd4	-2.5905657
17	0xc08526c4	-4.160982
18	0x3fe52287	1.7901162
19	0xc0af30fc	-5.4747295

nnsk.strain_param f4 [1, 10, 2]
0	0xbfae90d1	-1.3637944
1	0x3c9a50e9	0.01883741
2	0x415b306d	13.699323
3	0x386fa6d0	5.7137397e-05
4	0xc1253093	-10.324359
5	0xc0c563fa	-6.168454
6	0x3f0360b2	0.5131942
7	0xbfc7ff8e	-1.5624864
8	0x3ed96849	0.42462376
9	0x3e7069c9	0.23477854
10	0xbffe0730	-1.9845943
11	0x3b89878e	0.0041970676
12	0x4012a25c	2.2911596
13	0x40762fe3	3.8466728
14	0x40461ca3	3.0954978
15	0x3fb497eb	1.4108862
16	0x3f2425b8	0.64120054
17	0x3eea5f9f	0.45776078
18	0x3fd1a12a	1.6377308
19	0xbda551ad	-0.08072219
