examples/silicon/ref_ckpts/dptb/checkpoint/mix.ep1461.pth (torch, 391019 bytes, 56 tensors)

dptb.embedding.descriptor.embedding_net.layers.0.layer.in_layer.weight f4 [10, 3]
0.12927885 0.54272044 -0.5639163 -0.16657208 -0.28594974 -0.45166394 0.04815647 -0.49370167
-0.12628257 -0.30076978 0.088004105 0.49750397 0.065992095 -0.3218293 0.2813097 -0.4808905
-0.28633368 -0.0028903075 0.49183849 -0.45201463 0.3108858 0.40116966 -0.29868385 0.40064314
-0.24025792 0.38384184 0.38220367 0.36922985 -0.15637486 -0.14197497
00000000: ad61 043e baef 0a3f d25c 10bf df91 2abe
00000010: 0168 92be 7f40 e7be b83f 453d 77c6 fcbe
00000020: 3850 01be 7ffe 99be 7f3b b43d d7b8 fe3e
00000030: dd26 873d cfc6 a4be d307 903e 4837 f6be
00000040: 549a 92be 506b 3dbb 41d2 fb3e 766e e7be
00000050: 6c2c 9f3e 1c66 cd3e 17ed 98be 1921 cd3e
00000060: 2c06 76be eb86 c43e 33b0 c33e b20b bd3e
00000070: bb20 20be e361 11be

dptb.embedding.descriptor.embedding_net.layers.0.layer.in_layer.bias f4 [10]
-0.0121854665 -0.4868825 0.15506202 0.34508047 0.22673187 0.39421463 -0.030097412 0.4578647
0.0100581 0.09489303
00000000: 8da5 47bc aa48 f9be 94c8 1e3e 63ae b03e
00000010: 662c 683e 80d6 c93e d98e f6bc 3e6d ea3e
00000020: bbca 243c 4757 c23d

dptb.embedding.descriptor.embedding_net.layers.0.layer.out_layer.weight f4 [20, 10]
-0.2819576 -0.27763543 -0.15194753 -0.21053743 0.16929731 0.21802843 0.11914172 -0.10587001
0.068873174 0.108055376 0.02761294 0.17048427 0.28711185 -0.26173812 -0.2255099 -0.19519415
-0.04849566 0.09452993 -0.15139388 -0.03509939 0.16040026 0.21589768 -0.28547293 0.18519883
-0.2520375 -0.18145053 -0.16511515 0.23877898 -0.026985887 -0.17874186 -0.24771528 -0.19561858
0.18842718 0.15400118 0.27472606 -0.31037208 0.17488348 0.19020551 -0.11956938 0.050334193
0.1132894 -0.13068753 0.04399859 -0.122172534 0.03843748 0.05109307 0.20239845 0.054672725
0.08026655 0.059543423 -0.2061842 -0.292273 -0.22819223 -0.10697001 -0.2665867 -0.2355451
0.016857982 0.017003391 -0.2363516 -0.27543494 -0.047727097 0.077947676 0.032415893 -0.18125951
0.19591868 0.063194275 -0.21605131 -0.08170826 -0.120160095 -0.16270164 -0.12954786 0.201971
0.21395884 0.021405786 0.15199025 0.061739024 0.3088518 -0.09131678 0.12412193 -0.05911137
-0.118013054 0.07626745 -0.27467617 -0.23622991 -0.004987599 0.03515027 -0.13685319 0.12563309
0.21903518 -0.24901555 0.051029686 -0.24070573 -0.090116866 -0.12080618 0.19701523 0.25633386
-0.25984374 0.27301267 -0.1569516 -0.12732036 0.07658135 -0.1876064 -0.009527873 -0.20126551
0.07508512 0.027948856 0.27351528 0.14758098 0.09691381 0.0826778 0.19889185 -0.0805362
0.22881013 0.2623398 0.27085066 -0.11143267 0.30176365 0.012779265 0.10302747 -0.26166707
0.27901685 0.08507611 0.29710108 -0.104140684 -0.100530356 -0.19924408 -0.13146475 -0.06465915
-0.127053 -0.22978564 -0.21555366 -0.31758523 -0.31784433 0.114522 0.3431933 0.10852953
0.3166717 0.35165712 0.08340024 0.09977631 -0.04861232 -0.12539 -0.03864859 -0.19888216
-0.011781621 -0.2298264 0.29074016 -0.02150127 0.2436563 0.108609594 0.031335957 0.124440506
0.079404406 0.07418252 0.18758072 -0.28069586 -0.30318853 -0.039067734 -0.27692473 -0.16511658
-0.14709863 -0.20590308 0.11075416 0.14497143 0.055357613 -0.11063753 -0.23259994 -0.22101769
0.05128079 -0.06282606 -0.21594617 -0.21021216 -0.08676419 -0.1208772 -0.18006457 -0.2672141
0.28001747 0.3118866 0.24688935 -0.12737095 -0.2642368 -0.27805516 0.0026066876 0.15071425
0.07079389 -0.30765712 -0.22386393 0.27172932 0.3327876 -0.060927317 0.25654295 0.012080013
-0.07286817 -0.010371994 0.060071077 -0.054099705 -0.18175134 -0.107108384 -0.11282317 -0.18468581
00000000: bf5c 90be 3b26 8ebe 2298 1bbe 2097 57be
00000010: 465c 2d3e d842 5f3e 9300 f43d 60d2 d8bd
00000020: 610d 8d3d 234c dd3d 8834 e23c 6e93 2e3e
00000030: 5300 933e 8a02 86be 11ec 66be fae0 47be
00000040: 63a3 46bd e898 c13d ff06 1bbe 61c4 0fbd
00000050: f73f 243e 4814 5d3e 8229 92be c3a4 3d3e
00000060: 0f0b 81be 2bce 39be f213 29be 7a82 743e
00000070: 8211 ddbc 1b08 37be 13a9 7dbe 3d50 48be
00000080: 0ef3 403e 7cb2 1d3e e5a8 8c3e 17e9 9ebe
00000090: a814 333e 3cc5 423e cbe0 f4bd 3a2b 4e3d
000000a0: 4604 e83d f4d2 05be de37 343d 9835 fabd
000000b0: 9e70 1d3d f846 513d 8a41 4f3e 82f0 5f3d
000000c0: ca62 a43d cee3 733d f321 53be cfa4 95be
000000d0: 39ab 69be 1813 dbbd 0d7e 88be bc32 71be
000000e0: c019 8a3c b24a 8b3c 2706 72be cf05 8dbe
000000f0: 7d7d 43bd 08a3 9f3d 87c6 043d 189c 39be
00000100: e89e 483e 006c 813d 8e3c 5dbe a956 a7bd
00000110: 7f16 f6bd 429b 26be 32a8 04be 7cd1 4e3e
00000120: 0718 5b3e 305b af3c 55a3 1b3e 0fe2 7c3d
00000130: d321 9e3e 4b04 bbbd a333 fe3d c41e 72bd
00000140: d4b0 f1bd 1c32 9c3d 5ba2 8cbe 41e6 71be
00000150: 036f a3bb bbf9 0f3d 3e23 0cbe f6a5 003e
00000160: c24a 603e effd 7ebe 8104 513d 907b 76be
00000170: 318f b8bd 3b69 f7bd 5cbe 493e 313e 833e
00000180: 3d0a 85be 51c8 8b3e ecb7 20be 4560 02be
00000190: afd6 9c3d e41b 40be cc1a 1cbc 8c18 4ebe
000001a0: 3ac6 993d 00f5 e43c 320a 8c3e 781f 173e
000001b0: bf7a c63d fa52 a93d 4eaa 4b3e 2af0 a4bd
000001c0: 344d 6a3e 6751 863e f0ac 8a3e d036 e4bd
000001d0: c480 9a3e 1f60 513c 1100 d33d 3af9 85be
000001e0: 4cdb 8e3e 623c ae3d a21d 983e b647 d5bd
000001f0: dce2 cdbd a406 4cbe b29e 06be 046c 84bd
00000200: 2e1a 02be ed4c 6bbe 19ba 5cbe 889a a2be
00000210: 7ebc a2be 838a ea3d 08b7 af3e bb44 de3d
00000220: cb22 a23e 670c b43e bfcd aa3d 8657 cc3d
00000230: b61d 47bd 3c66 00be fc4d 1ebd c4a7 4bbe
00000240: b307 41bc 9d57 6bbe e5db 943e 6e23 b0bc
00000250: 0981 793e b56e de3d 225a 003d aada fe3d
00000260: c79e a23d 01ed 973d 2915 403e 5eb7 8fbe
00000270: 873b 9bbe 7d05 20bd 14c9 8dbe 5214 29be
00000280: 06a1 16be 42d8 52be 14d3 e23d 6473 143e
00000290: aabe 623d ee95 e2bd ae2e 6ebe 7652 62be
000002a0: ce0b 523d f3aa 80bd fe20 5dbe db41 57be
000002b0: 6cb1 b1bd 778e f7bd d962 38be 49d0 88be
000002c0: 735e 8f3e 9aaf 9f3e 90d0 7c3e 886d 02be
000002d0: 0c4a 87be 3f5d 8ebe f6d4 2a3b d654 1a3e
000002e0: 63fc 903d 3c85 9dbe 963c 65be 1b20 8b3e
000002f0: 2363 aa3e ec8e 79bd 9959 833e 3feb 453c
00000300: e83b 95bd 4cef 29bc 170d 763d a797 5dbd
00000310: 061d 3abe a45b dbbd d60f e7bd 471e 3dbe

dptb.embedding.descriptor.embedding_net.layers.0.layer.out_layer.bias f4 [20]
0.020953912 -0.12527104 -0.1241325 -0.22067456 -0.3096303 -0.13315119 -0.21072954 0.15897997
-0.2062427 -0.21328211 -0.18103403 0.2329925 -0.17741543 0.06356622 -0.29492486 -0.005901104
-0.110929154 -0.121569306 0.29465574 -0.036719035
00000000: 8aa7 ab3c 0d47 00be 2e39 febd 83f8 61be
00000010: dd87 9ebe c958 08be 7cc9 57be a5cb 223e
00000020: 4931 53be a066 5abe fc60 39be 9695 6e3e
00000030: 64ac 35be 022f 823d 6400 97be 0c5e c1bb
00000040: d32e e3bd 54f9 f8bd 1edd 963e b366 16bd

dptb.embedding.descriptor.embedding_net.out_layer.weight f4 [30, 20]
-0.16410044 0.15208958 0.05140182 0.0143960025 -0.11726792 -0.20092183 -0.08859187 -0.0207926
0.034471657 -0.15037781 -0.032961655 0.082781166 -0.037120156 -0.092234455 -0.1342448 -0.23439261
-0.24246736 -0.16666786 0.10095612 -0.17182726 0.050826907 -0.18395552 0.18770042 0.12942454
-0.12391847 0.022860343 0.17423482 -0.20696452 0.092428125 0.18027131 -0.12307168 -0.19439979
-0.04716766 0.113298215 0.14494562 -0.13074456 0.07191806 -0.14366819 -0.21762064 -0.057301097
-0.1481092 0.11774684 -0.07379154 -0.2345249 -0.04701649 -0.21555763 -0.09274208 -0.070470594
-0.14716072 -0.05502578 0.12145079 0.15495878 -0.15339077 -0.14150617 0.04811353 -0.15570617
-0.200611 -0.09898101 -0.10290901 -0.03900714 -0.06534293 -0.21510977 -0.21428397 0.1960354
0.0962313 0.17785718 0.11621851 -0.053194754 -0.2101605 0.19761218 0.18509105 0.11779859
-0.0042624236 0.19963771 -0.18943784 -0.03897225 -0.21846002 -0.09302073 -0.13586886 0.050824508
0.12109131 0.20190609 0.07011416 -0.043076668 -0.21031675 -0.045689378 0.12327387 0.09928123
0.14338703 -0.14811222 0.083124556 -0.11903894 0.21816637 0.20325513 -0.1732434 -0.20080188
0.21525028 -0.01817309 0.12288743 -0.087717734 -0.037810296 0.08076044 -0.20902845 -0.1721451
-0.14455065 0.18823639 -0.14662026 -0.0036359567 0.053576786 0.1071874 0.1052839 -0.022639105
-0.19024697 0.14420907 0.009769451 -0.06152034 0.14001292 -0.046640143 -0.11075096 0.17442901
-0.030608809 0.08710847 0.16936852 -0.0986473 -0.053076763 0.11767874 0.15807293 -0.0018986986
0.1796652 -0.013562678 -0.0717206 0.043457035 -0.14670932 -0.11426645 0.10364186 -0.0040256656
-0.014476648 -0.13372383 0.19141166 0.16170765 0.023776282 0.097276196 -0.14698642 -0.15359269
0.06457794 0.14743757 0.19854638 0.1545151 0.107507765 -0.12683126 0.028063599 -0.16412039
-0.061486516 0.038503204 -0.047299035 0.037308045 -0.122355625 -0.18367384 -0.20066175 -0.18559381
0.01698429 0.005001522 -0.11803296 0.1134787 -0.20646435 -0.024551803 0.1405131 0.10904539
-0.042280983 -0.17553905 0.09389648 0.21559978 -0.01607775 -0.0035628926 0.0961879 0.18713512
-0.14032185 -0.1421265 0.1947399 -0.00020934182 0.10861053 -0.043438602 0.19380587 -0.03123641
0.15483065 -0.17388423 -0.058415223 -0.18251048 -0.22556262 -0.15598051 -0.11611274 0.14447927
0.1659956 0.009964983 -0.21852282 0.19572118 -0.194711 0.0024384228 -0.11141188 -0.16616529
-0.07071855 -0.006651656 0.07686963 -0.11925338 0.139552 -0.19914931 0.1731084 0.12543008
0.11652493 0.16941166 -0.13265745 0.07619217 -0.1235112 -0.00011628494 -0.22185265 -0.13003232
-0.1490079 0.046627548 0.1828123 0.084275685 0.11483533 0.14961538 0.034185413 0.23343347
-0.101700865 -0.012099864 -0.04190743 -0.17760143 0.21423684 0.07257377 0.09093455 -0.026694646
-0.19158398 -0.21052368 -0.191332 -0.05714169 0.15230866 0.035682302 -0.03949039 -0.10055352
-0.19069092 -0.18373053 -0.15505376 0.016932458 -0.09956659 -0.058932595 -0.059530042 0.20173182
-0.19506687 -0.029430108 -0.04625436 0.20094378 0.13631387 -0.10287413 -0.20938827 -0.040921886
00000000: f209 28be 5fbd 1b3e b78a 523d 36dd 6b3c
00000010: 2a2a f0bd 74be 4dbe a86f b5bd 3e55 aabc
00000020: 2732 0d3d a4fc 19be cd02 07bd 2c89 a93d
00000030: 4e0b 18bd 6be5 bcbd 7877 09be 9e04 70be
00000040: 5d49 78be fbaa 2abe 15c2 ce3d 7cf3 2fbe
00000050: e02f 503d d65e 3cbe 8a34 403e de87 043e
00000060: f8c8 fdbd 9d45 bb3c 9d6a 323e 82ee 53be
00000070: f54a bd3d 0b99 383e 010d fcbd bd10 47be
00000080: e032 41bd e508 e83d a06c 143e e7e1 05be
00000090: c749 933d c11d 13be f2d7 5ebe 8eb4 6abd
000000a0: f0a9 17be 4125 f13d 0520 97bd 4c27 70be
000000b0: 5d94 40bd 24bb 5cbe 8fef bdbd e352 90bd
000000c0: 4db1 16be b662 61bd 31bb f83d 84ad 1e3e
000000d0: 7812 1dbe fee6 10be b112 453d 7071 1fbe
000000e0: f86c 4dbe 8eb6 cabd f6c1 d2bd f3c5 1fbd
000000f0: 84d2 85bd bc45 5cbe 426d 5bbe 81bd 483e
00000100: ea14 c53d 3120 363e f803 ee3d bee2 59bd
00000110: 5034 57be d95a 4a3e 8288 3d3e 6340 f13d
00000120: cdab 8bbb d46d 4c3e fefb 41be 5ea1 1fbd
00000130: fcb3 5fbe a781 bebd 3521 0bbe 5c2d 503d
00000140: b9fe f73d 78c0 4e3e 0398 8f3d 2971 30bd
00000150: 465d 57be c924 3bbd 0377 fc3d f553 cb3d
00000160: 0dd4 123e bbaa 17be 353d aa3d b0ca f3bd
00000170: 0167 5f3e 1d22 503e b866 31be 029f 4dbe
00000180: 926a 5c3e bbdf 94bc 68ac fb3d 5ba5 b3bd
00000190: f8de 1abd bb65 a53d 8e0b 56be ce46 30be
000001a0: 1605 14be 0ac1 403e 9f23 16be 3b49 6ebb
000001b0: 5573 5b3d 1185 db3d 169f d73d a575 b9bc
000001c0: 1ad0 42be 8bab 133e 0c10 203c c1fc 7bbd
000001d0: 8c5f 0f3e bc09 3fbd 66d1 e2bd 859d 323e
000001e0: 53bf fabc ed65 b23d f16e 2d3e 9807 cabd
000001f0: 0567 59bd 8d01 f13d dfdd 213e c1dd f8ba
00000200: 27fa 373e ff35 5ebc 40e2 92bd 0100 323d
00000210: f83a 16be 8704 eabd 2f42 d43d bbe9 83bb
00000220: 762f 6dbc e6ee 08be 6b01 443e b196 253e
00000230: 7ac6 c23c be38 c73d 9c83 16be 6747 1dbe
00000240: 7041 843d e0f9 163e be4f 4b3e 3539 1e3e
00000250: 082d dc3d 0ee0 01be a2e5 e53c 2d0f 28be
00000260: 49d9 7bbd 89b5 1d3d a2bc 41bd 52d0 183d
00000270: 9695 fabd ff14 3cbe 467a 4dbe 4e0c 3ebe
00000280: a322 8b3c cfe3 a33b 44bb f1bd 8567 e83d
00000290: 646b 53be dd20 c9bc abe2 0f3e 3053 df3d
000002a0: d32e 2dbd 82c0 33be cc4c c03d 30c6 5c3e
000002b0: 7cb5 83bc 6b7f 69bb 29fe c43d 59a0 3f3e
000002c0: 88b0 0fbe 9c89 11be e569 473e c482 5bb9
000002d0: 336f de3d adec 31bd 0c75 463e 80e3 ffbc
000002e0: ed8b 1e3e b50e 32be cd44 6fbd 07e4 3abe
000002f0: e3f9 66be 5bb9 1fbe 84cc edbd 60f2 133e
00000300: c0fa 293e 2b44 233c 72c4 5fbe 226b 483e
00000310: 5262 47be f2cd 1f3b e92b e4bd 3c27 2abe
00000320: e3d4 90bd 22f6 d9bb d36d 9d3d 1e3b f4bd
00000330: b8e6 0e3e cced 4bbe 5443 313e be70 003e
00000340: 9fa4 ee3d 407a 2d3e 5bd7 07be a40a 9c3d
00000350: 71f3 fcbd 00de f3b8 572d 63be 3127 05be
00000360: 8795 18be 87fc 3e3d 2633 3b3e bb98 ac3d
00000370: c92e eb3d c634 193e 0106 0c3d 2f09 6f3e
00000380: 8b48 d0bd 823e 46bc 20a7 2bbd 26dd 35be
00000390: e760 5b3e 8fa1 943d e53b ba3d bbae dabc
000003a0: 972e 44be 8593 57be 89ec 43be 680d 6abd
000003b0: cdf6 1b3e 9b27 123d adc0 21bd 01ef cdbd
000003c0: 7b44 43be db23 3cbe 6ac6 1ebe f0b5 8a3c
000003d0: 91e9 cbbd 4e63 71bd c6d5 73bd c992 4e3e
000003e0: 9cbf 47be 6917 f1bc 3675 3dbd 35c4 4d3e
000003f0: dd95 0b3e acaf d2bd e169 56be b59d 27bd

dptb.embedding.descriptor.embedding_net.out_layer.bias f4 [30]
0.05830504 0.1483007 0.15967706 0.11690539 -0.16994447 0.033676807 -0.018139629 0.12593241
0.024652533 -0.17160481 -0.20270061 0.12417953 0.15604053 0.16629438 -0.13155247 -0.14981507
0.036849406 -0.10297825 -0.21992986 0.12975128 0.052687667 -0.02278361 -0.034509357 -0.19749476
0.011250519 -0.16666189 -0.14851238 -0.16120242 0.16605875 -0.1259024
00000000: 44d1 6e3d 24dc 173e 6282 233e 186c ef3d
00000010: ec05 2ebe b1f0 093d 8f99 94bc 6df4 003e
00000020: 1cf4 c93c 2cb9 2fbe c090 4fbe d651 fe3d
00000030: 17c9 1f3e 1349 2a3e b1b5 06be 1f69 19be
00000040: 67ef 163d 43e6 d2bd 4b35 61be 85dd 043e
00000050: 06cf 573d b1a4 babc af59 0dbd 113c 4abe
00000060: 1954 383c 6aa9 2abe a113 18be 3f12 25be
00000070: 4e0b 2a3e 8fec 00be

dptb.node_prediction_h.layers.0.layer.in_layer.weight f4 [16, 900]
0.026330875 0.009375844 -0.03514853 -0.03524503 0.02012046 0.032190233 -0.009260353 0.012317519
0.022538237 0.030667052 -0.015114009 0.016298145 -0.022274276 0.024634875 0.029442167 -0.009257368
-0.01521606 -0.010638725 -0.02171016 -0.01350641 -0.02951624 0.030132016 0.007709739 0.016352208
0.020129232 -0.013306954 -0.027395586 -0.023845429 0.017083002 0.007105042 -0.023961907 -0.005701152
0.0316709 0.026425235 0.02583614 0.014714729 0.011975532 -0.0036203882 0.024397234 -0.012044101
-0.024098307 0.012389024 0.011711261 -0.01708209 -0.039994735 -0.012910435 0.00055156124 0.00017433445
0.009164435 0.0048338636 -0.011553879 0.011577206 0.025106894 -0.002669484 0.004079363 -0.02604195
-0.0053826286 0.0006359695 0.026582476 0.020522367 -0.02508762 0.024657693 0.0020296096 -0.026593572
0.0005771749 0.0072469604 0.019032978 -0.018555833 -0.032602984 -0.018049927 -0.032516982 0.008245634
0.0034719948 -0.031997748 0.016670644 -0.0034651826 -0.029253775 0.02307286 -0.029018858 -0.027394446
0.0014958933 0.03321898 0.0011710454 0.010763688 0.0071410225 -0.006357782 0.0124930255 -0.023251932
-0.014922812 -0.02613127 0.028783688 -0.02843085 -0.010895287 0.027752496 -0.015902527 -0.013170327
0.024080573 0.0024399704 0.0073808474 0.012044632 0.0077002747 -0.01215342 -0.008232224 -0.029956596
-0.028526476 0.024202524 -0.012370914 0.012497362 -0.01657469 0.009417589 -0.02577668 0.03083797
0.025774809 0.017752452 0.022440199 0.01295212 -0.0058865566 0.02691724 0.016390007 0.01965945
0.01499782 0.033657875 0.024566015 0.03164143 -0.029185398 -0.008880197 0.030511377 -0.026168935
-0.006080527 -0.027843932 0.017424159 0.003144607 0.01628132 0.0040276786 0.0012243098 -0.019002557
0.032302506 0.01707837 0.00985863 0.011965416 0.014511252 -0.015021528 0.007949585 0.03689782
0.020210601 0.021201167 0.020940354 -0.011130954 -0.041808292 0.0301913 0.0154698705 -0.0015138144
-0.017940171 -0.0037655816 -0.009336169 -0.025726007 0.009545633 -0.018343491 0.00060155464 -0.010329743
-0.027173799 0.016323853 0.030452363 0.020067679 -0.019180046 0.010371966 0.049467478 0.014266739
-0.012224376 0.022415934 0.023122102 0.014891658 0.020403171 -0.007014335 -0.010538916 0.015091807
-0.00063273386 0.03022971 -0.013336847 0.00963906 -0.004337824 -0.029073747 -0.0021037916 0.011683078
0.02289985 -0.01650231 -0.029442469 0.034833215 0.009576001 0.031427257 0.004282007 0.0060345475
-0.0031185793 -0.0074188877 -0.01860792 -0.012325002 0.004144301 0.011417898 -0.015808508 -0.0013467743
0.016799135 -0.028621497 -0.0048378143 0.0011023008 0.0038252634 -0.026961533 -0.0026003332 -0.0031410302
0.021482693 -0.007895398 0.026946578 -0.0014452911 0.0064409175 -0.01248603 -0.005097416 -0.023428714
-0.017979655 -0.014953222 0.006908944 -0.03886453 0.016699377 -0.030726422 0.030541684 0.019649556
0.014538975 -0.011990705 0.020999536 -0.028670752 0.0063826065 -0.0019292602 0.011750721 -0.020148877
0.008227313 0.0040324363 -0.025979605 -0.02205952 -0.032327507 -0.00086162734 -0.035312723 -0.020543624
-0.016761923 -0.018147655 -0.003959047 -0.021244284 -0.016024001 -0.039304078 0.031881016 -0.013511419
-0.021782113 0.020967867 0.013698756 0.0073909545 -0.027659819 0.016967202 0.026032837 -0.012229299
00000000: d9b3 d73c 249d 193c e8f7 0fbd 185d 10bd
00000010: aad3 a43c e8d9 033d bcb8 17bc 6bcf 493c
00000020: 1ca2 b83c 7839 fb3c c0a0 77bc b083 853c
00000030: 8b78 b6bc 14cf c93c b330 f13c 37ac 17bc
00000040: c84c 79bc 0c4e 2ebc 81d9 b1bc fd49 5dbc
00000050: 0bcc f1bc 6bd7 f63c faa1 fc3b 11f5 853c
00000060: 0fe6 a43c 6905 5abc b56c e0bc 7d57 c3bc
00000070: a7f1 8b3c 6ad1 e83b c34b c4bc bbd0 babb
00000080: 58b9 013d bc79 d83c 50a6 d33c 0c16 713c
00000090: 0635 443c 0944 6dbb b5dc c73c 9f54 45bc
000000a0: d069 c5bc 55fb 4a3c 97e0 3f3c bdef 8bbc
000000b0: 85d1 23bd 4a86 53bc a696 103a 8ccd 3639
000000c0: 6d26 163c 6365 9e3b 7b4c 3dbc 52ae 3d3c
000000d0: f9ac cd3c 82f2 2ebb 2dac 853b ed55 d5bc
000000e0: c360 b0bb 31b7 263a 7ec3 d93c 861e a83c
000000f0: 8d84 cdbc eefe c93c 3303 053b c3da d9bc
00000100: 8d4d 173a e977 ed3b 0ceb 9b3c 6702 98bc
00000110: b58a 05bd 71dd 93bc 8730 05bd b218 073c
00000120: 688a 633b 1210 03bd e090 883c 1e18 63bb
00000130: 9da5 efbc 4b03 bd3c f5b8 edbc 516a e0bc
00000140: da11 c43a a010 083d c37d 993a 2e5a 303c
00000150: 3dff e93b f154 d0bb 8caf 4c3c d67a bebc
00000160: cf7e 74bc 3f11 d6bc c5cb eb3c d0e7 e8bc
00000170: 2582 32bc 3459 e33c 0446 82bc 5bc8 57bc
00000180: 9f44 c53c e9e7 1f3b 09db f13b d956 453c
00000190: 9652 fc3b 231f 47bc 73e0 06bc 8967 f5bc
000001a0: 5bb0 e9bc 5f44 c63c 60af 4abc bcc1 4c3c
000001b0: a5c7 87bc 3b4c 1a3c 9e29 d3bc e99f fc3c
000001c0: b125 d33c 976d 913c 82d4 b73c 2135 543c
000001d0: 04e4 c0bb 8b81 dc3c 5644 863c db0c a13c
000001e0: 6bb9 753c d7dc 093d ab3e c93c 729a 013d
000001f0: 3716 efbc 3f7e 11bc fff2 f93c 3c60 d6bc
00000200: 283f c7bb f518 e4bc 1cbd 8e3c c015 4e3b
00000210: 6760 853c 9efa 833b 0579 a03a 40ab 9bbc
00000220: a24f 043d f0e7 8b3c 1786 213c 980a 443c
00000230: 9ac0 6d3c db1c 76bc fa3e 023c 2b22 173d
00000240: b490 a53c 12ae ad3c 1b8b ab3c 9b5e 36bc
00000250: 2c3f 2bbd bf53 f73c 5775 7d3c 2f6b c6ba
00000260: 44f7 92bc fac7 76bb bbf6 18bc 59bf d2bc
00000270: 4965 1c3c 1745 96bc a6b1 1d3a 153e 29bc
00000280: 969b debc 9ab9 853c 3c77 f93c f964 a43c
00000290: 791f 9dbc 2eef 293c 699e 4a3d 0abf 693c
000002a0: c048 48bc 9fa1 b73c 906a bd3c 24fc 733c
000002b0: 8d24 a73c 82d8 e5bb 6bab 2cbc a043 773c
000002c0: 0dde 25ba 4ca4 f73c ca82 5abc 26ed 1d3c
000002d0: 4e24 8ebb 112c eebc c4df 09bb 616a 3f3c
000002e0: 7798 bb3c da2f 87bc 5531 f1bc 46ad 0e3d
000002f0: a9e4 1c3c deb9 003d 1450 8c3b 74bd c53b
00000300: 1461 4cbb 241a f3bb a36f 98bc ceee 49bc
00000310: ebcc 873b 2312 3b3c d880 81bc 3f86 b0ba
00000320: 579e 893c a177 eabc 8786 9ebb 147b 903a
00000330: 45b1 7a3b 6fde dcbc 5a6a 2abb bed9 4dbb
00000340: 79fc af3c b35b 01bc 12bf dc3c ec6f bdba
00000350: 550e d33b 3592 4cbc 3a08 a7bb 93ed bfbc
00000360: 124a 93bc 5cfe 74bc 6c64 e23b 6a30 1fbd
00000370: 22cd 883c fab5 fbbc 8e32 fa3c 1bf8 a03c
00000380: e234 6e3c a974 44bc 3807 ac3c edde eabc
00000390: 2f25 d13b 3bdf fcba 1986 403c 420f a5bc
000003a0: dacb 063c 8722 843b 2ed3 d4bc 2bb6 b4bc
000003b0: d969 04bd d5de 61ba 13a4 10bd 1a4b a8bc
000003c0: 4d50 89bc 64aa 94bc e5ba 81bb 7e08 aebc
000003d0: c444 83bc 50fd 20bd ab95 023d 005f 5dbc
000003e0: 6770 b2bc cec4 ab3c bf70 603c d22f f23b
000003f0: d896 e2bc cdfe 8a3c d142 d53c 665d 48bc

dptb.node_prediction_h.layers.0.layer.in_layer.bias f4 [16]
0.022110712 -0.00019613966 0.031471036 -0.022948587 -0.021850571 -0.011811579 0.023132926 0.0030715829
-0.01571194 0.033278845 -0.0030806859 -0.0048159966 0.0019086702 0.0147805335 0.0011139173 -0.00023830545
00000000: 8621 b53c d7aa 4db9 c6e7 003d adfe bbbc
00000010: f8ff b2bc 5a85 41bc 4381 bd3c 9c4c 493b
00000020: 54b6 80bc 664f 083d 55e5 49bb 82cf 9dbb
00000030: 582c fa3a 0d2a 723c dd00 923a a2e1 79b9

dptb.node_prediction_h.layers.0.layer.out_layer.weight f4 [16, 16]
0.15579872 0.19485427 0.05687239 0.07950393 0.036885846 0.090280846 -0.19070622 -0.041821647
-0.035779316 0.015316617 0.22753482 0.13711175 -0.004693495 -0.030473163 0.024675291 0.15773492
-0.2166068 0.21602999 0.100583725 -0.12068393 0.02582815 0.21155867 0.15101123 -0.082393594
0.07329988 -0.08206698 -0.18615545 0.03373112 0.078030534 -0.024460299 0.10116615 0.1467517
0.097716935 -0.18804725 -0.008419005 -0.026264578 -0.19647689 -0.2409855 -0.23997939 -0.1997157
-0.11787508 -0.1567838 0.20558201 0.2220676 0.13834378 -0.05902658 0.015254328 -0.19984259
-0.042842664 0.23619449 0.08935976 0.17464148 -0.15265512 -6.410491e-05 -0.15369818 0.07383373
0.14047182 0.123043224 0.05056063 -0.1490368 -0.19770995 0.17312564 -0.11839005 -0.09953061
-0.27693784 -0.22446018 0.15528582 0.1905775 -0.042944975 -0.060293425 -0.044288877 -0.027042108
-0.11790969 0.020502066 -0.1979273 0.19999482 0.12099139 -0.039004408 -0.14716788 0.11032518
0.12730025 -0.06656571 0.02694604 -0.06586144 -0.2603903 0.22914329 -0.016918233 0.13259213
0.013512958 0.020670408 0.20241134 -0.027424242 -0.15328747 -0.08017001 -0.18374431 -0.070143014
0.20130803 0.082501195 -0.12377433 -0.03559714 0.10012256 -0.18091351 -0.03725386 0.054736618
0.19430307 -0.038325664 0.13609621 0.17376985 0.16372858 0.2210523 -0.121574335 0.12380154
0.21928704 0.1686627 -0.014423065 0.013118733 0.039582793 -0.23070312 0.17185466 0.04459269
-0.025726119 0.15104799 -0.14645077 -0.025314286 -0.23914357 -0.0010341549 -0.0111057265 -0.20311143
-0.22487554 -0.11989177 -0.148256 -0.0035675257 -0.23353848 0.1489788 -0.045907147 -0.21884334
0.10771385 0.11144469 -0.120426685 0.08737842 0.021647131 -0.03445095 -0.1582354 -0.09028966
0.18301946 0.07923839 -0.22367682 -0.061589647 0.10279617 -0.08766782 0.21678717 -0.019065777
0.0826378 -0.11601655 -0.18796429 -0.2767258 -0.19230545 0.079813614 -0.012129381 -0.28351706
0.25256947 0.12153405 -0.15101418 -0.16730964 -0.19217731 -0.0131832 -0.19236399 -0.16338816
0.106881686 0.18828376 0.039208513 -0.13828172 -0.14255302 0.09846293 0.087275185 -0.020883784
-0.018341184 -0.1029876 0.15443432 0.04008283 -0.26111224 -0.122501574 0.16225417 -0.15403251
0.13551585 0.004751333 0.045472465 0.10509753 0.1712334 0.13402298 0.14207667 0.047742616
0.066237636 -0.0005460702 -0.31955788 0.22475676 -0.14339343 0.1456716 0.23093313 -0.07606265
0.13527612 -0.17546403 0.13348445 -0.14109635 -0.15653297 -0.2026029 0.29155347 0.20466718
0.27737984 -0.24039143 0.25068268 0.047613874 -0.2596553 0.23686382 0.15828732 0.19238894
0.15346651 -0.23032711 0.20401919 -0.15678446 -0.13806467 0.22307326 -0.16717476 0.08678132
-0.14770947 -0.24699867 0.20628761 -0.2342075 0.017277516 0.12355611 0.18460506 0.038381618
-0.2653422 0.079300106 -0.21825646 -0.23343061 -0.0024248443 0.046415623 -0.029383002 0.19290592
-0.089967534 -0.20968652 0.03548525 -0.24452354 0.18540993 -0.19791152 0.042873774 -0.22896266
-0.043108236 -0.16864312 -0.012934082 -0.06182409 0.23667312 -0.13746263 -0.21903229 -0.025657155
00000000: b389 1f3e e187 473e 06f3 683d f5d2 a23d
00000010: 9d15 173d 2ae5 b83d 7e48 43be 2d4d 2bbd
00000020: 558d 12bd 8cf2 7a3c e3fe 683e 0667 0c3e
00000030: e4cb 99bb dba2 f9bc d623 ca3c 4385 213e
00000040: 2cce 5dbe f736 5d3e d7fe cd3d 2329 f7bd
00000050: 8e95 d33c d6a2 583e b0a2 1a3e f9bd a8bd
00000060: 3f1e 963d bc12 a8bd 899f 3ebe a529 0a3d
00000070: 79ce 9f3d f760 c8bc 3330 cf3d 1446 163e
00000080: d11f c83d 758f 40be deef 09bc d028 d7bc
00000090: 3d31 49be e7c4 76be 28bd 75be 4682 4cbe
000000a0: 7d68 f1bd ef8b 20be 1784 523e b065 633e
000000b0: fea9 0d3e dbc5 71bd 4aed 793c 89a3 4cbe
000000c0: ca7b 2fbd f8dc 713e 4002 b73d 37d5 323e
000000d0: a051 1cbe 1070 86b8 0e63 1dbe 2336 973d
000000e0: d8d7 0f3e 16fe fb3d aa18 4f3d 1a9d 18be
000000f0: 7a74 4abe d947 313e 7c76 f2bd b4d6 cbbd
00000100: ccca 8dbe e4d8 65be 3f03 1f3e c026 433e
00000110: 12e7 2fbd 3df6 76bd 4168 35bd 6987 ddbc
00000120: a37a f1bd f3f3 a73c 74ad 4abe 71cb 4c3e
00000130: 55ca f73d 16c3 1fbd 2db3 16be 2bf2 e13d
00000140: ff5a 023e 9a53 88bd f1bd dc3c 5de2 86bd
00000150: e151 85be 8aa4 6a3e 1b98 8abc 3bc6 073e
00000160: 7465 5d3c fd54 a93c eb44 4f3e cea8 e0bc
00000170: 64f7 1cbe 2d30 a4bd 7827 3cbe 24a7 8fbd
00000180: b123 4e3e 63f6 a83d 657d fdbd 4fce 11bd
00000190: 0f0d cd3d 6441 39be 8197 18bd 8133 603d
000001a0: 62f7 463e 5ffb 1cbd ce5c 0b3e b9f0 313e
000001b0: 77a8 273e 895b 623e f7fb f8bd a98b fd3d
000001c0: c88c 603e eab5 2c3e b84e 6cbc f4ef 563c
000001d0: 9121 223d 703d 6cbe abfa 2f3e d3a6 363d
000001e0: 95bf d2bc 53ac 1a3e 31f7 15be e85f cfbc
000001f0: 0de2 74be 7b8c 87ba cbf4 35bc 71fc 4fbe
00000200: c645 66be d189 f5bd 6cd0 17be 26cd 69bb
00000210: b624 6fbe e68d 183e 2209 3cbd 7818 60be
00000220: 1499 dc3d 1d3d e43d 44a2 f6bd 75f3 b23d
00000230: 5355 b13c 701c 0dbd 7608 22be c9e9 b8bd
00000240: 7469 3b3e bd47 a23d 890b 65be 6d45 7cbd
00000250: cc86 d23d 308b b3bd 75fd 5d3e d52f 9cbc
00000260: 023e a93d 169a edbd b679 40be 01af 8dbe
00000270: b8eb 44be 5275 a33d 50ba 46bc 2629 91be
00000280: c950 813e d8e6 f83d 76a3 1abe 3853 2bbe
00000290: 21ca 44be 59fe 57bc 11fb 44be 3a4f 27be
000002a0: c9e4 da3d 75cd 403e 1b99 203d b999 0dbe
000002b0: 6bf9 11be efa6 c93d 55bd b23d 7814 abbc
000002c0: 4040 96bc 2aeb d2bd 0824 1e3e e52d 243d
000002d0: 81b0 85be 1be2 fabd f525 263e b3ba 1dbe
000002e0: abc4 0a3e 12b1 9b3b 5641 3a3d 603d d73d
000002f0: cf57 2f3e 523d 093e 8c7c 113e c38d 433d
00000300: 99a7 873d 2726 0fba 179d a3be a326 663e
00000310: bad5 12be f02a 153e bc79 6c3e bcc6 9bbd
00000320: d385 0a3e d8ac 33be 26b0 083e 907b 10be
00000330: 2e4a 20be 2277 4fbe 7f46 953e 4694 513e
00000340: bb04 8e3e 2c29 76be 7b59 803e c406 433d
00000350: 8af1 84be 6e8c 723e 1216 223e 9b01 453e
00000360: 5326 1d3e dfda 6bbe 68ea 503e 1b8c 20be
00000370: d360 0dbe 516d 643e dc2f 2bbe 68ba b13d
00000380: 2741 17be 38ed 7cbe 0f3d 533e 17d4 6fbe
00000390: 9489 8d3c fc0a fd3d 1c09 3d3e 0b36 1d3d
000003a0: efda 87be 1868 a23d 9f7e 5fbe 6f08 6fbe
000003b0: 23ea 1ebb 4f1e 3e3d 9fb4 f0bc 2189 453e
000003c0: e640 b8bd 10b8 56be fb58 113d 6164 7abe
000003d0: 1adc 3d3e 51a9 4abe 699c 2f3d 3075 6abe
000003e0: 4392 30bd c8b0 2cbe 79e9 53bc 423b 7dbd
000003f0: 705a 723e 01c3 0cbe 004a 60be f42e d2bc

dptb.node_prediction_h.layers.0.layer.out_layer.bias f4 [16]
-0.10325529 -0.21333763 0.06776965 0.19906047 0.23309648 -0.10771509 0.20872594 -0.12595972
0.019821325 -0.09338858 -0.12491863 -0.16273028 -0.10012134 0.18969893 -0.113803 -0.008801699
00000000: 8277 d3bd 2e75 5abe d0ca 8a3d 82d6 4b3e
00000010: d8b0 6e3e bb99 dcbd 41bc 553e 96fb 00be
00000020: 5560 a23c 8342 bfbd 57d5 ffbd c4a2 26be
00000030: 6b0c cdbd 7040 423e 8c11 e9bd 0035 10bc

dptb.node_prediction_h.out_layer.linear.weight f4 [3, 16]
-0.050053515 -0.20153946 -0.045613732 0.13546501 -0.10482626 -0.10575064 -0.114076175 -0.1966215
-0.15698992 -0.17508225 0.15310262 -0.16595216 0.07599679 -0.038383845 -0.11164383 -0.01245276
0.14717448 -0.03349807 -0.14277454 0.14380676 -0.14530021 -0.12185828 0.22480959 -0.21003538
-0.22617252 -0.11924601 0.059756976 -0.16816697 0.25332662 -0.16364631 -0.24013808 -0.13810506
-0.0039738715 0.13699463 0.09078783 0.18132895 0.093426675 -0.18618414 0.059529305 -0.23939556
0.10247347 0.02500236 -0.08872539 0.06915182 0.10097402 -0.12534305 0.2370511 -0.091860086
00000000: ea04 4dbd 5c60 4ebe 77d5 3abd 57b7 0a3e
00000010: 26af d6bd cb93 d8bd c5a0 e9bd 2657 49be
00000020: f7c1 20be c348 33be efc6 1c3e 5def 29be
00000030: 34a4 9b3d 6138 1dbd 85a5 e4bd a906 4cbc
00000040: e8b4 163e 4635 09bd 7d33 12be 1442 133e
00000050: 94c9 14be d590 f9bd 7c34 663e 8413 57be
00000060: c599 67be 4137 f4bd bbc3 743d f633 2cbe
00000070: 07b4 813e e692 27be c2e6 75be 6a6b 0dbe
00000080: 4037 82bb 5248 0c3e f8ee b93d 4cae 393e
00000090: 7c56 bf3d 0ea7 3ebe 00d5 733d 1c24 75be
000000a0: 9cdd d13d c0d1 cc3c a8b5 b5bd 789f 8d3d
000000b0: 78cb ce3d ee59 00be 86bd 723e 2421 bcbd

dptb.node_prediction_h.out_layer.linear.bias f4 [3]
-0.1000158 -0.23372264 -0.24263647
00000000: 15d5 ccbd fd54 6fbe b275 78be

dptb.edge_prediction_h.layers.0.layer.in_layer.weight f4 [16, 901]
-0.010871911 -0.006980451 -0.020022675 0.0037925595 -0.0030686725 -0.027722457 0.021748045 0.035056412
0.017478 -0.007963048 -0.022040926 -0.010630378 0.0017290906 0.019293226 0.0036530339 -0.016136449
0.0023001023 0.01191558 -0.018175868 0.004577336 -0.026451698 -0.0076912227 0.0023302857 -0.013105561
-0.024254316 -0.02747708 -0.007812327 0.005289283 -0.0036807887 -0.02683178 0.029905504 -0.028368367
0.025310703 0.019600525 -0.0057141627 0.035791844 0.01004027 -0.029422525 -0.03198421 -0.014529167
-0.020776099 0.01699012 -0.021855924 -0.009675854 -0.033339966 -0.015113859 -0.027320439 0.007808443
-0.014850157 0.03022595 0.013393584 -0.023358315 0.011264667 0.034817416 0.014638588 -0.029325033
-0.034200422 -0.03805622 -0.023533963 -0.016932394 -0.037593935 0.029786728 0.024226705 0.0131764915
-0.030273275 0.0022693113 0.018661814 -0.008297133 0.0010375149 -0.010514296 -0.014647387 -0.013999206
-0.0060196193 -0.024488112 -0.025287634 0.0077344463 0.0009221842 -0.026360638 -0.019369544 0.03337122
-0.031967476 0.019470494 0.024226885 0.016039608 0.027780728 -0.020208139 0.009732993 0.030301264
-0.029763369 0.010736115 -0.020199414 -0.022895902 0.005469627 -0.021258492 0.016843604 0.02259564
-0.021025958 0.010805951 -0.025719907 0.027232753 -0.028618384 -0.02044107 0.015759062 -0.0017418633
-0.007956389 0.010089607 -0.029620804 -0.025062164 -0.01006598 0.026513929 -0.023601865 -0.0040673777
-0.0068871416 -0.0108490465 -0.018309353 -0.018933108 0.034548264 0.024852576 0.013366909 0.009921993
-0.01320644 -0.005672769 -0.01980441 0.03086728 -0.014782256 0.028194033 0.02285479 -0.019268407
-0.020322207 -0.023906043 0.021791369 -0.030576158 -0.0033284244 -0.01486703 -0.008683367 -0.0037961644
0.017897323 0.008956533 -0.02863264 0.025551552 -0.018361805 0.02959164 -0.014154278 0.013266992
-0.0015814861 -0.009143911 0.012628117 0.0058536776 -0.015622274 -0.013852404 -0.0032524327 0.026490455
-0.019472122 -0.0033439153 -0.019556833 0.0051426683 0.03348232 0.012612117 0.020966213 -0.02483441
-0.0016893325 0.030217377 0.024442859 0.016988937 0.010376705 0.017241115 0.040950123 -0.018533874
0.017355366 0.026860662 0.0048424797 -0.0018762386 -0.024959544 0.00035823212 0.0018077801 0.011793672
-0.014368587 0.01399586 -0.025867583 0.03381341 0.0120873535 0.016743574 -0.023979219 0.028450115
-0.017049722 0.031041527 -0.015866354 0.0241671 -0.02037014 0.025271172 -0.025771737 0.036170337
0.011887781 -0.024448827 -0.007290067 -0.010039817 -0.027495371 0.029357065 0.0074450765 -0.002210362
-0.01982765 -0.0063931136 0.03164888 0.022677276 0.011135556 -0.0079394635 0.003316724 0.017248446
-0.01034344 0.026161173 -0.014496946 0.013724113 0.021779774 -0.00821515 0.024188025 0.014966823
0.02543562 -0.009566588 -0.002366311 -0.02503128 0.00857167 -0.02640396 -0.025099497 -0.009670538
0.0022659847 0.024185326 -0.022583291 -0.026668666 0.01802729 0.0026068012 -0.028105915 0.022883786
-0.032087296 0.025246 -0.008125411 -0.022271391 -0.019329667 -0.0009892605 0.012822408 -0.03777652
-0.0011766122 0.010712404 -0.032538477 0.0152873555 0.008387562 -0.023396377 0.025527429 0.025325155
0.028144956 0.005490533 0.0093858335 -0.017806228 -0.00054420036 0.013240434 0.02184835 0.016395349
00000000: 1a20 32bc 44bc e4bb 9806 a4bc 978c 783b
00000010: c81b 49bb 351a e3bc f528 b23c 5097 0f3d
00000020: 062e 8f3c 7277 02bc 2c8f b4bc 092b 2ebc
00000030: a7a2 e23a d40c 9e3c bd67 6f3b 9630 84bc
00000040: 50bd 163b 9139 433c 8fe5 94bc 7afd 953b
00000050: 3bb1 d8bc a706 fcbb b5b7 183b b5b8 56bc
00000060: fdb0 c6bc 9d17 e1bc 8cfe ffbb b951 ad3b
00000070: 6339 71bb 52ce dbbc 63fc f43c c764 e8bc
00000080: 6458 cf3c 4891 a03c df3d bbbb 789a 123d
00000090: f27f 243c 8207 f1bc e001 03bd be0b 6ebc
000000a0: a332 aabc dd2e 8b3c 320b b3bc 7987 1ebc
000000b0: 7d8f 08bd 1fa0 77bc 1dcf dfbc f8dd ff3b
000000c0: 134e 73bc 699c f73c c370 5b3c f059 bfbc
000000d0: 708f 383c b59c 0e3d b0d6 6f3c 0d3b f0bc
000000e0: be15 0cbd d7e0 1bbd 4cca c0bc ceb5 8abc
000000f0: 19fc 19bd 4c03 f43c 1577 c63c 36e2 573c
00000100: a9ff f7bc bab8 143b a9e0 983c b3f0 07bc
00000110: 39fd 873a 2744 2cbc 98fb 6fbc ed5c 65bc
00000120: 3a40 c5bb 4b9b c8bc 0328 cfbc 3d71 fd3b
00000130: bcbe 713a 44f2 d7bc e1ac 9ebc 43b0 083d
00000140: 54f0 02bd 9680 9f3c 7677 c63c 7f65 833c
00000150: 6994 e33c 8a8b a5bc 2277 1f3c 5b3a f83c
00000160: 4fd2 f3bc 88e6 2f3c 3e79 a5bc 3090 bbbc
00000170: 8f3a b33b 4a26 aebc 99fb 893c 7e1a b93c
00000180: a13e acbc 720b 313c 8eb2 d2bc 3917 df3c
00000190: 1a71 eabc 0874 a7bc 2619 813c 3c4f e4ba
000001a0: 845b 02bc e14e 253c 54a7 f2bc 2b4f cdbc
000001b0: c8eb 24bc bd33 d93c b358 c1bc a347 85bb
000001c0: 88ad e1bb 33c0 31bc 7ffd 95bc 9b19 9bbc
000001d0: 7b82 0d3d a197 cb3c e100 5b3c db8f 223c
000001e0: d35f 58bc a3e2 b9bb dc3c a2bc 61dd fc3c
000001f0: 4731 72bc 2cf7 e63c f839 bb3c c7d8 9dbc
00000200: c27a a6bc 9bd6 c3bc d083 b23c da7a fabc
00000210: b221 5abb d894 73bc ae44 0ebc 12c9 78bb
00000220: 689d 923c 6cbe 123c 008f eabc 7d51 d13c
00000230: 7f6b 96bc 2b6a f23c 58e7 67bc cc5d 593c
00000240: de49 cfba 58d0 15bc 29e6 4e3c 35d0 bf3b
00000250: 91f4 7fbc 32f5 62bc c426 55bb 8302 d93c
00000260: 0084 9fbc 9725 5bbb a735 a0bc d483 a83b
00000270: c224 093d 0ea3 4e3c 56c1 ab3c 8871 cbbc
00000280: 986c ddba 6f8a f73c 643c c83c 622c 8b3c
00000290: 0e03 2a3c 3d3d 8d3c 51bb 273d 5ad4 97bc
000002a0: d72c 8e3c e40a dc3c aaad 9e3b 1fec f5ba
000002b0: f577 ccbc 1ad1 bb39 09f3 ec3a 3f3a 413c
000002c0: 396a 6bbc e44e 653c 41e8 d3bc ee7f 0a3d
000002d0: 090a 463c d229 893c 1170 c4bc 3710 e93c
000002e0: dcab 8bbc cd4a fe3c 28fa 81bc 15fa c53c
000002f0: 48df a6bc 7d05 cf3c 401f d3bc 5927 143d
00000300: f8c4 423c e848 c8bc 84e1 eebb 0b7e 24bc
00000310: f93d e1bc 3a7e f03c d4f5 f33b b9db 10bb
00000320: 996d a2bc 537d d1bb 42a2 013d b2c5 b93c
00000330: e871 363c 8614 02bc 655d 593b 9d4c 8d3c
00000340: 8877 29bc f54f d63c 9984 6dbc 1adb 603c
00000350: 7f6b b23c d698 06bc f725 c63c 6837 753c
00000360: 5d5e d03c 2ebd 1cbc 1c14 1bbb 660e cdbc
00000370: 3170 0c3c 1e4d d8bc 769d cdbc 2d71 1ebc
00000380: ea80 143b 4e20 c63c 9800 b9bc 3f78 dabc
00000390: f8ad 933c ded6 2a3b 603e e6bc c776 bb3c
000003a0: f86d 03bd b3d0 ce3c 7220 05bc 7e72 b6bc
000003b0: 4059 9ebc 13aa 81ba 1415 523c 8dbb 1abd
000003c0: 8e38 9aba 1483 2f3c 1147 05bd d177 7a3c
000003d0: fc6b 093c c2a9 bfbc e61e d13c b376 cf3c
000003e0: 4090 e63c eee9 b33b 0ac7 193c 5ede 91bc
000003f0: aba8 0eba 68ee 583c 50fb b23c 8a4f 863c

dptb.edge_prediction_h.layers.0.layer.in_layer.bias f4 [16]
0.0026379402 -0.0090503525 0.0030836258 -0.049435608 -0.035353784 -0.0030101095 -0.0028745448 -0.0026556482
0.004132125 -0.00078215287 -0.04057951 0.03344486 -0.023761187 -0.0227495 -0.031569112 0.015362979
00000000: 4be1 2c3b ee47 14bc a816 4a3b fe7c 4abd
00000010: 21cf 10bd 4245 45bb dc62 3cbb 620a 2ebb
00000020: c766 873b 6409 4dba b336 26bd 7afd 083d
00000030: d2a6 c2bc 295d babc 9d4e 01bd 01b5 7b3c

dptb.edge_prediction_h.layers.0.layer.out_layer.weight f4 [16, 16]
0.15238857 0.1037763 -0.0010634984 -0.19447142 -0.17307545 -0.22841471 0.01683806 0.1950816
-0.13019536 -0.031699263 0.24949987 -0.07927857 -0.087534174 0.057718113 -0.12500092 -0.12134635
-0.059867408 0.021714073 -0.17340238 -0.23681098 0.016334016 -0.14683872 0.21836968 -0.006813061
-0.15179011 -0.09535614 0.033050817 -0.04612941 -0.13451998 -0.11962973 -0.16544563 -0.20965
0.0029484215 0.048463557 0.22954744 -0.0004424006 -0.1771605 -0.03726107 0.06977144 0.23633756
0.07511973 -0.009431851 0.22169025 0.11297098 0.19905981 -0.06591097 0.051359914 -0.1599003
0.025816256 0.14363594 -0.13645956 -0.11182766 -0.2475634 0.06130988 -0.12018824 -0.10802853
-0.123222575 0.0064357375 -0.0007836062 -0.13516703 -0.10374732 0.01871191 -0.24080403 -0.030327238
0.10839054 -0.09855661 -0.04495328 0.2473787 0.20812531 -0.13434835 0.084121265 0.01145621
-0.01790211 -0.16149959 0.017468404 0.014753663 -0.08587354 0.24915783 0.106340006 -0.22216682
-0.028873801 0.022610802 -0.05081684 0.003177009 0.09097259 -0.06330933 -0.23716378 -0.018788189
0.09030364 0.19541267 -0.16483852 0.027641071 -0.120791286 -0.007893658 0.23467346 -0.014065888
0.061303113 -0.20197985 -0.0009974248 -0.24341197 -0.07763298 0.064964555 0.11290189 0.10490075
0.11802658 0.21616901 -0.0975595 -0.0083936835 0.119863 -0.18866234 0.21105473 0.14304687
0.1755576 0.05309995 0.19358848 0.023381848 -0.23583378 -0.12322851 -0.25054675 0.20054084
0.17932934 -0.06059801 -0.20328613 0.20092851 0.008470152 -0.000473216 -0.12606078 0.15080373
-0.17906041 -0.09985018 0.07315975 0.23587526 -0.22518848 0.1165241 0.037649535 0.15761317
0.19655801 -0.15985517 -0.23422119 -0.12016332 -0.046837214 -0.18463637 0.20006992 -0.13075419
0.24386764 0.23820652 -0.08387913 -0.055398874 -0.056962855 0.06779978 0.050944373 0.04814851
-0.26592076 0.08563262 0.13817295 0.1588391 -0.16811104 -0.030617783 -0.13831349 0.071210444
-0.20589311 0.107399255 -0.15988412 -0.028953165 0.01319404 0.22722998 0.10353456 -0.124207795
-0.1050013 -0.074150644 0.17557564 -0.20336473 -0.1100183 0.026573643 0.08227949 0.095895834
0.14955156 -0.11071447 -0.13456936 -0.028679224 -0.19176018 0.12629 0.0235551 0.015715927
-0.17013328 -0.007780289 -0.21718913 0.14116497 -0.18396673 0.016858699 0.033718 0.1316642
-0.20242913 -0.1483355 -0.013363638 0.044708762 0.097389385 0.082199916 0.15302862 -0.2275717
0.10189135 -0.11048127 -0.13010268 0.18773715 0.055268075 -0.1625066 -0.105615355 -0.051945984
0.21953104 0.047302824 0.16163644 0.19207244 0.23629676 0.13546754 -0.15769082 -0.08863812
-0.09401687 0.05194262 0.029906606 0.22923099 0.0074696913 -0.094633944 -0.11672593 -0.09977519
-0.17156541 0.13707992 -0.15913753 0.23835346 0.11532369 -0.03004885 -0.12855756 0.13236842
0.13601582 -0.14752178 -0.198507 -0.19029123 0.10830415 0.11864924 0.048063423 0.12127573
0.22564982 -0.117823005 0.11949942 0.085902706 0.11028143 -0.20503989 -0.20629692 -0.077883154
0.08685898 0.046731994 0.20158464 0.1443103 0.06899478 0.0773076 -0.19241643 0.25677985
00000000: c00b 1c3e ab88 d43d 1665 8bba 8423 47be
00000010: b13a 31be 8ce5 69be f9ef 893c 79c3 473e
00000020: ef51 05be 16d7 01bd e57c 7f3e ce5c a2bd
00000030: 1e45 b3bd d469 6c3d 3e00 00be 6f84 f8bd
00000040: 8737 75bd b6e1 b13c 6590 31be 947e 72be
00000050: eace 853c e45c 16be 4d9c 5f3e 1940 dfbb
00000060: de6e 1bbe 144a c3bd 4b60 073d 31f2 3cbd
00000070: 9bbf 09be 6f00 f5bd 946a 29be 7dae 56be
00000080: 4e3a 413b b981 463d 7c0e 6b3e 01f2 e7b9
00000090: 9069 35be 109f 18bd 54e4 8e3d 7902 723e
000000a0: 5fd8 993d 0d88 1abc c502 633e 545d e73d
000000b0: 56d6 4b3e 55fc 86bd c65e 523d e7bc 23be
000000c0: 9d7c d33c 4d15 133e 0ebc 0bbe e605 e5bd
000000d0: 4381 7dbe 1220 7b3d 4125 f6bd 103e ddbd
000000e0: 1e5c fcbd e1e2 d23b ec6a 4dba 3a69 0abe
000000f0: 7a79 d4bd b849 993c 5595 76be d470 f8bc
00000100: dcfb dd3d 0cd8 c9bd ee20 38bd d850 7d3e
00000110: cd1e 553e 9d92 09be c547 ac3d d4b2 3b3c
00000120: 72a7 92bc 2660 25be e619 8f3c 59b9 713c
00000130: 77de afbd 3b23 7f3e cac8 d93d b37f 63be
00000140: c088 ecbc 4a3a b93c 5225 50bd 5e35 503b
00000150: d64f ba3d 52a8 81bd 10db 72be b0e9 99bc
00000160: 1df1 b83d 421a 483e 6ecb 28be 876f e23c
00000170: 6c61 f7bd 6754 01bc 3d4e 703e 9c74 66bc
00000180: f918 7b3d ced3 4ebe 06bc 82ba fd40 79be
00000190: 0afe 9ebd 230c 853d 1b39 e73d 34d6 d63d
000001a0: ebb7 f13d 695b 5d3e 46cd c7bd a985 09bc
000001b0: bc7a f53d b330 41be bb1e 583e e17a 123e
000001c0: 5fc5 333e 557f 593d 0f3c 463e 4a8b bf3c
000001d0: 697e 71be 3b5f fcbd aa47 80be 945a 4d3e
000001e0: 1ca2 373e 9e35 78bd 3d2a 50be 34c0 4d3e
000001f0: 64c6 0a3c fa19 f8b9 1416 01be 4b6c 1a3e
00000200: 9d5b 37be 407e ccbd c7d4 953d 4989 713e
00000210: cf97 66be 30a4 ee3d 6636 1a3d 5965 213e
00000220: 8146 493e 13b1 23be aed7 6fbe 3018 f6bd
00000230: 61d8 3fbd 5111 3dbe 21df 4c3e 6de4 05be
00000240: 70b8 793e 69ec 733e d2c8 abbd eee9 62bd
00000250: e251 69bd 9cda 8a3d 0cab 503d 5f37 453d
00000260: c426 88be 2860 af3d 367d 0d3e b8a6 223e
00000270: 4d25 2cbe 25d2 fabc 0da2 0dbe c8d6 913d
00000280: a5d5 52be 24f4 db3d aab8 23be 302f edbc
00000290: d12b 583c faae 683e ed09 d43d a860 febd
000002a0: ec0a d7bd 4bdc 97bd 1aca 333e d83e 50be
000002b0: 4651 e1bd f8b0 d93c 2682 a83d 0965 c43d
000002c0: 0b24 193e 45be e2bd 8dcc 09be b1f0 eabc
000002d0: c85c 44be 2a52 013e a0f6 c03c b0be 803c
000002e0: 6b37 2ebe cbf1 febb d466 5ebe 8d8d 103e
000002f0: c661 3cbe 411b 8a3c e31b 0a3d fbd2 063e
00000300: 9549 4fbe 43e5 17be 29f3 5abc 8920 373d
00000310: 1674 c73d 6e58 a83d 89b3 1c3e 8e08 69be
00000320: 69ac d03d 0144 e2bd a339 05be 2b3e 403e
00000330: c760 623d 2168 26be dd4c d8bd 50c5 54bd
00000340: bfcc 603e 9bc0 413d 0684 253e a3ae 443e
00000350: c7f7 713e 01b8 0a3e b479 21be e787 b5bd
00000360: eb8b c0bd c9c1 543d b3fe f43c 87bb 6a3e
00000370: 50c4 f43b 71cf c1bd 010e efbd ef56 ccbd
00000380: d8ae 2fbe ae5e 0c3e f3f4 22be ee12 743e
00000390: d42e ec3d 0229 f6bc 98a4 03be 968b 073e
000003a0: bb47 0b3e f30f 17be 6b45 4bbe b4db 42be
000003b0: 91ce dd3d 5ffe f23d 27de 443d 695f f83d
000003c0: bf10 673e 304d f1bd 1dbc f43d c2ed af3d
000003d0: 3bdb e13d faf5 51be 803f 53be 3481 9fbd
000003e0: 1fe3 b13d 0c6a 3f3d 346c 4e3e 14c6 133e
000003f0: 234d 8d3d 7253 9e3d d008 45be a678 833e

dptb.edge_prediction_h.layers.0.layer.out_layer.bias f4 [16]
-0.10072311 -0.18623288 0.1541431 -0.1919491 0.18436448 0.14444888 -0.10165522 -0.17328379
0.10852376 -0.086409084 0.085214205 0.16766913 -0.14436512 0.052963294 -0.017991021 0.10908426
00000000: eb47 cebd d5b3 3ebe b0d7 1d3e 4e8e 44be
00000010: 0bca 3c3e 68ea 133e 9d30 d0bd 4e71 31be
00000020: b541 de3d 3ff7 b0bd c984 ae3d 75b1 2b3e
00000030: 73d4 13be 0af0 583d e861 93bc 9267 df3d

dptb.edge_prediction_h.out_layer.linear.weight f4 [10, 16]
0.19773303 -0.23187637 -0.22346815 0.08242435 -0.13174736 0.10888894 0.08017866 0.15167257
0.14645539 0.08726889 -0.15507124 0.12841569 0.1919271 -0.14164394 -0.1763129 -0.054843556
0.115022875 -0.082283534 -0.11911178 -0.17800617 0.135698 -0.035071723 0.027441442 0.16877146
0.082232565 0.08314412 -0.024515852 0.026890919 -0.021371381 -0.048915315 -0.047276724 -0.14723277
0.057768002 0.21578693 0.15945521 0.10545935 0.1024913 0.0056983307 0.18511155 -0.09195091
-0.19124739 0.045430914 0.23895688 0.20200704 -0.058634687 -0.0037052478 -0.0056501133 -0.16284534
0.20105682 0.22938189 -0.11155721 -0.035576347 -0.13374507 0.20243396 0.23395373 0.06582677
-0.19412076 0.07257248 -0.113038346 -0.25684482 -0.13522397 0.037861466 -0.13269398 0.06236973
0.16315825 0.22952265 -0.26325953 0.020277407 0.07016806 0.22254342 -0.030746236 0.03477591
0.078176506 -0.023858719 -0.19930567 -0.14852598 -0.09738187 -0.04267375 -0.24680042 0.17545351
-0.21040194 0.2245288 -0.2297206 0.047238413 0.18958646 -0.15557377 0.19550125 -0.041739862
-0.012772942 0.1254999 0.10543728 -0.124954596 0.09947324 -0.1478498 -0.053679217 0.07110232
-0.051172864 -0.18710421 -0.14459684 0.064694144 -0.13207006 0.09907115 -0.1089778 0.27381372
-0.18286689 -0.021467438 -0.22668141 -0.018248996 0.0009863228 -0.20095755 -0.23934558 -0.15353513
0.1529234 -0.2101749 0.1242149 -0.20313773 -0.15546753 -0.030645523 0.12591925 0.11021951
-0.19564842 -0.20756264 0.08127081 0.19274287 -0.11129396 -0.0347312 -0.090731084 0.22319196
-0.103779204 0.20877385 0.27000412 0.1376759 -0.22056429 -0.21460937 -0.0445444 -0.0107487105
0.015067719 -0.07406695 -0.20741789 -0.18415199 0.20105137 -0.18350281 -0.1050616 -0.08099764
-0.058699884 0.13183248 -0.10096637 0.14059973 0.1906601 -0.09896366 0.19175798 0.1368494
-0.2146549 0.09036092 -0.22178619 0.16358483 0.028530678 0.20202442 0.08045708 0.057714745
00000000: 877a 4a3e 0071 6dbe d6d4 64be 19ce a83d
00000010: c8e8 06be 2a01 df3d b634 a43d 0e50 1b3e
00000020: 67f8 153e 08ba b23d ffca 1ebe 677f 033e
00000030: 8a88 443e 1c0b 11be 5e8b 34be a3a3 60bd
00000040: 1d91 eb3d 4584 a8bd e0f0 f3bd 4047 36be
00000050: 6bf4 0a3e 5ea7 0fbd e0cc e03c 6dd2 2c3e
00000060: 8c69 a83d 7747 aa3d 78d5 c8bc 584a dc3c
00000070: 0913 afbc 6d5b 48bd 3da5 41bd 30c4 16be
00000080: 249e 6c3d 40f7 5c3e 3a48 233e 12fb d73d
00000090: f5e6 d13d 10b9 ba3b e28d 3d3e c250 bcbd
000000a0: 5bd6 43be c415 3a3d 1db1 743e efda 4e3e
000000b0: ed2a 70bd bed3 72bb 9624 b9bb eec0 26be
000000c0: d7e1 4d3e 16e3 6a3e 1b78 e4bd 81b8 11bd
000000d0: 78f4 08be d94a 4f3e 9191 6f3e 30d0 863d
000000e0: 98c7 46be e1a0 943d a680 e7bd 2a81 83be
000000f0: 2778 0abe a014 1b3d eee0 07be 6777 7f3d
00000100: f512 273e fc07 6b3e f4c9 86be ce1c a63c
00000110: 46b4 8f3d 6ce2 633e 88df fbbc 2f71 0e3d
00000120: 011b a03d 5c73 c3bc c916 4cbe 3217 18be
00000130: 2570 c7bd acca 2ebd 40b9 7cbe 16aa 333e
00000140: 9b73 57be e1ea 653e e13b 6bbe 117d 413d
00000150: f422 423e bb4e 1fbe 7b31 483e 6bf7 2abd
00000160: 9a45 51bc 0c83 003e 80ef d73d 32e8 ffbd
00000170: a0b8 cb3d f065 17be bdde 5bbd 189e 913d
00000180: a39a 51bd 3f98 3fbe 3211 14be 5d7e 843d
00000190: 603d 07be d1e5 ca3d c12f dfbd 5031 8c3e
000001a0: 7541 3bbe 7bdc afbc 2c1f 68be eb7e 95bc
000001b0: 8047 813a d1c7 4dbe 0217 75be 5038 1dbe
000001c0: f497 1c3e 1738 57be 6264 fe3d 5603 50be
000001d0: e132 1fbe 520c fbbc faf0 003e c4ba e13d
000001e0: 0f58 48be 4d8b 54be 4f71 a63d 635e 453e
000001f0: 16ee e3bd 4e42 0ebd 38d1 b9bd 6f8c 643e
00000200: 318a d4bd d0c8 553e fb3d 8a3e e9fa 0c3e
00000210: 9bdb 61be 8fc2 5bbe 3074 36bd 5c1b 30bc
00000220: 98de 763c 6ab0 97bd 5b65 54be 5792 3cbe
00000230: 69e0 4d3e 29e8 3bbe 892a d7bd 17e2 a5bd
00000240: 4a6f 70bd 18ff 063e 75c7 cebd 60f9 0f3e
00000250: 673c 433e 76ad cabd 345c 443e 4022 0c3e
00000260: 7ece 5bbe 250f b93d eb1b 63be c882 273e
00000270: 2bb9 e93c 7ddf 4e3e aec6 a43d 4c66 6c3d

dptb.edge_prediction_h.out_layer.linear.bias f4 [10]
-0.053661186 0.01784822 -0.24070652 0.13587308 0.074218675 0.04944201 0.015856175 -0.255769
0.117633946 0.034598995
00000000: d5cb 5bbd 6e36 923c c57b 76be 5022 0b3e
00000010: f6ff 973d b483 4a3d cfe4 813c 28f4 82be
00000020: 11ea f03d adb7 0d3d

nnsk.hopping_param f4 [1, 10, 2]
1.9690294 5.202416 -2.1970382 -4.192282 -1.1670887 1.9151286 -3.2379532 -8.120793
2.8156102 -6.812396 -1.9494905 -2.575699 3.450621 -5.9054623 1.1025915 -0.1805509
-2.5905657 -4.160982 1.7901162 -5.4747295
00000000: 2809 fc3f 317a a640 469c 0cc0 2d27 86c0
00000010: 2a63 95bf ef22 f53f a03a 4fc0 c5ee 01c1
00000020: f532 3440 26ff d9c0 e888 f9bf 41d8 24c0
00000030: f9d6 5c40 8cf9 bcc0 b821 8d3f 56e2 38be
00000040: d4cb 25c0 c426 85c0 8722 e53f fc30 afc0

nnsk.strain_param f4 [1, 10, 2]
-1.3637944 0.01883741 13.699323 5.7137397e-05 -10.324359 -6.168454 0.5131942 -1.5624864
0.42462376 0.23477854 -1.9845943 0.0041970676 2.2911596 3.8466728 3.0954978 1.4108862
0.64120054 0.45776078 1.6377308 -0.08072219
00000000: d190 aebf e950 9a3c 6d30 5b41 d0a6 6f38
00000010: 9330 25c1 fa63 c5c0 b260 033f 8eff c7bf
00000020: 4968 d93e c969 703e 3007 febf 8e87 893b
00000030: 5ca2 1240 e32f 7640 a31c 4640 eb97 b43f
00000040: b825 243f 9f5f ea3e 2aa1 d13f ad51 a5bd

exp_avg f4 [10, 3]
7.5949145e-05 0.00010886695 0.00010886695 1.1450126e-05 7.4950603e-06 7.4950603e-06 1.3176915e-05 0.00010880631
0.00010880631 -1.0490866e-05 -5.4213957e-05 -5.4213957e-05 -3.2837852e-05 -4.54696e-06 -4.54696e-06 0.000120715136
7.8033445e-05 7.8033445e-05 -2.05854e-06 -1.3859191e-05 -1.3859191e-05 -5.4750646e-05 -7.485477e-06 -7.485477e-06
1.5907784e-05 -3.0198462e-06 -3.0198462e-06 3.3389108e-05 0.00012776858 0.00012776858
00000000: e346 9f38 804f e438 804f e438 eb19 4037
00000010: 147e fb36 147e fb36 6b12 5d37 f12e e438
00000020: f12e e438 ed01 30b7 cb63 63b8 cb63 63b8
00000030: 60bb 09b8 1792 98b6 1792 98b6 7228 fd38
00000040: e3a5 a338 e3a5 a338 7325 0ab6 c684 68b7
00000050: c684 68b7 0fa4 65b8 c22b fbb6 c22b fbb6
00000060: b571 8537 90a8 4ab6 90a8 4ab6 480b 0c38
00000070: 9ef9 0539 9ef9 0539

exp_avg_sq f4 [10, 3]
8.939613e-06 3.558737e-05 3.558737e-05 1.1567668e-06 3.9495776e-06 3.9495776e-06 4.9184646e-06 1.803847e-05
1.803847e-05 2.8850702e-06 9.631688e-06 9.631688e-06 9.150635e-06 3.2311276e-05 3.2311276e-05 1.6216129e-05
4.8867656e-05 4.8867656e-05 2.8640457e-06 1.4939659e-05 1.4939659e-05 1.0169238e-06 5.12228e-06 5.12228e-06
1.3960646e-06 6.214783e-06 6.214783e-06 4.616994e-06 1.7291379e-05 1.7291379e-05
00000000: 58fb 1537 a643 1538 a643 1538 3442 9b35
00000010: 9d86 8436 9d86 8436 4a09 a536 5251 9737
00000020: 5251 9737 219d 4136 c997 2137 c997 2137
00000030: ae85 1937 f885 0738 f885 0738 df07 8837
00000040: 3ff7 4c38 3ff7 4c38 ee33 4036 59a5 7a37
00000050: 59a5 7a37 3c7d 8835 0de0 ab36 0de0 ab36
00000060: 6a60 bb35 9488 d036 9488 d036 adeb 9a36
00000070: f40c 9137 f40c 9137

exp_avg f4 [10]
0.0002966181 1.985035e-06 8.025062e-05 -1.501679e-05 -0.00013158456 0.00010393158 7.5586636e-06 1.1118015e-05
4.3195083e-05 7.7252786e-05
00000000: 6883 9b39 a436 0536 394c a838 9ff0 7bb7
00000010: f6f9 09b9 d8f5 d938 6da0 fd36 8387 3a37
00000020: 5e2c 3538 c602 a238

exp_avg_sq f4 [10]
1.8473795e-05 3.3586189e-06 1.7808141e-05 8.488023e-06 3.0638068e-05 4.671884e-05 1.2562784e-05 3.717581e-06
6.233604e-06 1.5409254e-05
00000000: 2cf8 9a37 a264 6136 b162 9537 c867 0e37
00000010: 6081 0038 f9f3 4338 bfc4 5237 8e7b 7936
00000020: 402a d136 1f43 8137
